chrome/test/data/permissions/signature_model.tflite (tflite, 29200 bytes, 3 tensors)

arith.constant24 f4 [1, 64]
000000 e0 8f 2b 3e ec b6 80 3d bc 92 e2 bd 31 40 6c be
       0.16754103 0.062848896 -0.110631436 -0.23071362
000010 02 ae 35 3e b9 a3 03 be 52 be 54 be b6 26 7d be
       0.1774216 -0.12855424 -0.20775726 -0.24721798
000020 ac 28 82 3d 8f d0 42 be e9 da 98 be 9a 17 8c 3e
       0.06355414 -0.19024871 -0.29854515 0.27361757
000030 88 1f 60 3d 8c da ac bd 50 44 b7 bc 7e 1f 56 be
       0.05471757 -0.08440122 -0.022371441 -0.20910451
000040 38 fd 04 bd 48 14 72 be 65 02 8f be 5c 42 5e 3e
       -0.03246805 -0.23640549 -0.27931514 0.21705002
000050 50 48 89 bc 83 d0 4d be f4 38 92 3e 56 57 99 bd
       -0.016758114 -0.20099072 0.28559077 -0.07487361
000060 98 22 22 3e 0c 00 98 3d 50 b2 06 be 0a 3b fa bd
       0.15833509 0.07421884 -0.13153958 -0.12218292
000070 50 2b 92 3c 90 39 69 3e 7e af 88 3e 34 73 41 3e
       0.017842919 0.22775865 0.2669639 0.18891603
000080 a0 f4 90 3c f6 71 2b 3e 51 1a 6d be 8c 8d 03 be
       0.017694771 0.16742691 -0.2315457 -0.12846965
000090 08 b6 5a bd 00 5c f6 bb b6 31 0f 3e 80 7a 88 be
       -0.053396255 -0.0075182915 0.13983807 -0.2665596
0000a0 6c bb bd bd 86 92 9c bd 00 fc c8 b9 82 fb 0f 3e
       -0.092642635 -0.07645135 -0.00038334727 0.14060786
0000b0 00 ad b8 bb 8a 1d 45 3e e0 a8 98 3e 9e 0f 04 be
       -0.0056358576 0.1924955 0.2981634 -0.12896582
0000c0 ac 9c 8d 3e d0 f9 18 be 60 86 67 3e 10 7f 51 3e
       0.27658594 -0.14939046 0.22609854 0.20458627
0000d0 a6 19 8e 3e 20 dc 8c 3e 08 a3 1a be 97 ce 95 be
       0.27753943 0.27511692 -0.15101254 -0.29259178
0000e0 b8 00 34 3d 3d b7 88 be a0 10 9a 3e a2 d1 16 3e
       0.043945998 -0.267023 0.3009081 0.14728406
0000f0 88 f3 35 bd d8 30 53 3e ad 49 50 be 2c 6b f2 3d
       -0.044421703 0.20624101 -0.20340605 0.11836848

tfl.pseudo_qconst i1 [64, 128]
000000 8d 6a 44 75 3a b5 cb dc 03 9e 65 f8 be b0 06 36
       -115 106 68 117 58 -75 -53 -36 3 -98 101 -8 -66 -80 6 54
000010 45 00 f0 b1 f4 66 1e 6f a8 b1 67 dc 91 89 c4 6e
       69 0 -16 -79 -12 102 30 111 -88 -79 103 -36 -111 -119 -60 110
000020 51 38 02 bd 6d 31 67 3f 74 19 af 24 cf 03 10 63
       81 56 2 -67 109 49 103 63 116 25 -81 36 -49 3 16 99
000030 30 16 c8 60 ca d4 fa 43 2a 7e ae 58 49 ba e7 86
       48 22 -56 96 -54 -44 -6 67 42 126 -82 88 73 -70 -25 -122
000040 72 7f 48 4f f1 e5 12 01 0f a2 76 a5 69 c7 f5 72
       114 127 72 79 -15 -27 18 1 15 -94 118 -91 105 -57 -11 114
000050 e2 2a 1a 0e 0d 3e 8b 62 bc 67 31 1f 3f e6 1f 98
       -30 42 26 14 13 62 -117 98 -68 103 49 31 63 -26 31 -104
000060 d2 49 64 5e 4f 68 d6 46 b1 07 b6 4c 3d c6 88 99
       -46 73 100 94 79 104 -42 70 -79 7 -74 76 61 -58 -120 -103
000070 d9 cd e8 e8 e8 8c 77 2e 9c 99 8f 75 6a 9c 13 b9
       -39 -51 -24 -24 -24 -116 119 46 -100 -103 -113 117 106 -100 19 -71
000080 e0 86 b0 cf b7 7a 61 df 3a 8b 66 69 93 e3 39 dc
       -32 -122 -80 -49 -73 122 97 -33 58 -117 102 105 -109 -29 57 -36
000090 78 ae 74 51 38 c0 5f 70 c6 d4 ce 46 01 46 6c f7
       120 -82 116 81 56 -64 95 112 -58 -44 -50 70 1 70 108 -9
0000a0 75 3b 70 cc 62 b9 5d b8 d5 2b 20 95 90 c4 23 14
       117 59 112 -52 98 -71 93 -72 -43 43 32 -107 -112 -60 35 20
0000b0 f7 2a db 8b de d0 d4 8a a0 d7 04 75 e5 85 74 2a
       -9 42 -37 -117 -34 -48 -44 -118 -96 -41 4 117 -27 -123 116 42
0000c0 ae 86 d2 a4 a3 8e 46 11 93 f9 cc 0e 71 3c e8 94
       -82 -122 -46 -92 -93 -114 70 17 -109 -7 -52 14 113 60 -24 -108
0000d0 c4 72 14 ae 42 2a 28 0d bb 96 f3 9d 62 53 4a 8d
       -60 114 20 -82 66 42 40 13 -69 -106 -13 -99 98 83 74 -115
0000e0 d0 be 61 4f c4 38 06 cd cd 3c 27 05 81 f9 a3 15
       -48 -66 97 79 -60 56 6 -51 -51 60 39 5 -127 -7 -93 21
0000f0 97 f1 b5 1d 04 95 7e 61 c7 17 68 c9 e2 29 c4 b2
       -105 -15 -75 29 4 -107 126 97 -57 23 104 -55 -30 41 -60 -78

tfl.pseudo_qconst1 i1 [128, 16]
000000 89 8a 2b c8 8d f7 7f 97 e1 03 c4 b5 f4 35 04 37
       -119 -118 43 -56 -115 -9 127 -105 -31 3 -60 -75 -12 53 4 55
000010 4f b8 e6 0b 18 93 03 7f f4 93 f8 16 af bc 6d 88
       79 -72 -26 11 24 -109 3 127 -12 -109 -8 22 -81 -68 109 -120
000020 b5 76 81 f3 34 fc 1d 0d 4b 79 36 b7 e2 ff db 1a
       -75 118 -127 -13 52 -4 29 13 75 121 54 -73 -30 -1 -37 26
000030 ef d7 7f d9 a4 7b 67 c4 d7 6e 90 f1 a9 02 db d4
       -17 -41 127 -39 -92 123 103 -60 -41 110 -112 -15 -87 2 -37 -44
000040 ec 6b 53 69 50 b0 ef c5 05 7f 27 bf ff 0c ea c7
       -20 107 83 105 80 -80 -17 -59 5 127 39 -65 -1 12 -22 -57
000050 1c 76 77 4d 7d cb 66 d5 19 e4 17 42 51 81 27 82
       28 118 119 77 125 -53 102 -43 25 -28 23 66 81 -127 39 -126
000060 97 cd 18 97 c0 dd a1 e8 bd 99 7a 81 ac fc a5 7e
       -105 -51 24 -105 -64 -35 -95 -24 -67 -103 122 -127 -84 -4 -91 126
000070 0f 7a 38 c4 11 24 13 ac a4 16 e8 81 5b bb f5 b2
       15 122 56 -60 17 36 19 -84 -92 22 -24 -127 91 -69 -11 -78
000080 b4 81 24 f6 fc 26 c0 75 58 fb 65 4f 04 4d 5d 94
       -76 -127 36 -10 -4 38 -64 117 88 -5 101 79 4 77 93 -108
000090 f9 e1 2b b7 07 ab 8f 08 f2 7e 94 75 35 46 c6 7f
       -7 -31 43 -73 7 -85 -113 8 -14 126 -108 117 53 70 -58 127
0000a0 8c f4 fb 83 01 fb a2 1f 42 af 70 7f 3a 18 05 47
       -116 -12 -5 -125 1 -5 -94 31 66 -81 112 127 58 24 5 71
0000b0 be a9 79 fc ba 70 dc 1f 86 61 02 34 81 b0 06 70
       -66 -87 121 -4 -70 112 -36 31 -122 97 2 52 -127 -80 6 112
0000c0 98 69 9d f9 f6 9e c6 81 7c 7d 6f 00 f1 e8 a6 43
       -104 105 -99 -7 -10 -98 -58 -127 124 125 111 0 -15 -24 -90 67
0000d0 66 81 a4 5d 85 14 0a 16 44 03 50 ff 93 cc ea 6d
       102 -127 -92 93 -123 20 10 22 68 3 80 -1 -109 -52 -22 109
0000e0 e0 13 30 7e 30 22 db 10 81 16 e9 e1 20 08 84 b8
       -32 19 48 126 48 34 -37 16 -127 22 -23 -31 32 8 -124 -72
0000f0 48 dc 60 aa f0 7f ee c4 b2 49 65 9b e3 a7 2c 49
       72 -36 96 -86 -16 127 -18 -60 -78 73 101 -101 -29 -89 44 73
