components/test/data/autofill/ml_model/autofill_model-fold-one.tflite (tflite, 786172 bytes, 41 tensors)

arith.constant f4 [64, 256]
000000 c0 3d 9b bd 89 42 e7 bc ce d2 84 bd da 58 e7 bc
       -0.07580137 -0.028229969 -0.0648552 -0.02824061
000010 d0 2f 06 3d 0b e6 d6 3d dc 55 b8 bc 84 f1 cc bd
       0.03276044 0.10493096 -0.022501878 -0.10007003
000020 9f 7f ce 3d 72 ff 98 bd a8 4f 89 3d f7 e8 a8 bd
       0.100829355 -0.07470597 0.06704646 -0.082475595
000030 e0 38 bd 3d ee 5f 0b bd a2 81 9f bd 12 a5 cc 3d
       0.09239364 -0.034027033 -0.07788397 0.09992422
000040 d1 d8 3e bd f3 56 4a 3d 2b af d2 3d 36 07 bf bd
       -0.04659349 0.049399327 0.10287317 -0.09327547
000050 68 60 37 bd f0 a1 dc 3c fd 3c a5 bd c5 d9 a3 3b
       -0.044769675 0.026932687 -0.08068273 0.0050003254
000060 18 9b d0 3d dc 20 b7 3d 7d c0 09 3d 83 39 82 3d
       0.10185832 0.08941814 0.033630837 0.06358626
000070 67 29 70 3d dd 91 b3 bd 14 aa 32 3d a3 29 23 bd
       0.058633234 -0.087680556 0.04361923 -0.03983463
000080 b0 40 80 bd 9b cb 46 3d 5d f9 b7 bd ee 35 e8 bc
       -0.06262338 0.048534017 -0.08983109 -0.028346028
000090 d9 87 8a bd cf 50 b8 3b 62 8c 7e bd 28 c1 db bc
       -0.06764192 0.0056248675 -0.0621456 -0.026825503
0000a0 a9 ab 5b bd ba 90 b9 3d 4f 2f 7c 3d fa ab c0 3d
       -0.053630505 0.090608075 0.061568554 0.09407802
0000b0 a5 55 5a 3c fb 94 e9 b9 b5 7b e7 bd 17 39 2f 3c
       0.013326083 -0.00044552222 -0.11302892 0.010694764
0000c0 4b 06 27 bd 0e 31 77 3d b1 c7 36 bb f2 0f 9e bb
       -0.040777486 0.060349517 -0.0027890021 -0.004823678
0000d0 4b f7 25 3d aa 07 81 3c fa f4 ca bd 57 e6 0a bd
       0.04051904 0.015750725 -0.09910007 -0.033911075
0000e0 c4 a6 80 bd 52 42 95 bd 8d 23 41 3a 7e e4 9f 3d
       -0.06281808 -0.0728804 0.0007367663 0.07807253
0000f0 b4 34 ae 3d 02 3c f0 3c d0 c9 87 3d 66 23 c0 3d
       0.08506146 0.029325489 0.066302896 0.09381752
000100 43 08 01 3e 2b a8 b5 3d e5 ef ab 3d 45 3b 61 3d
       0.12600808 0.08869966 0.083953656 0.054988164
000110 98 85 c6 bd 06 27 ec bc 4c c2 91 3d df fe de 3b
       -0.0969345 -0.028827202 0.07117137 0.0068052853
000120 c4 fd 82 3d 5c e3 5e 3c 3e a7 3a 3d 9a 47 06 bc
       0.06396058 0.013604011 0.04556965 -0.008195782
000130 9d 1b 9d bc 60 95 31 bc 5c ce 1f 3c 6a ca 2e 3c
       -0.019178206 -0.010838836 0.00975379 0.010668376
000140 af 16 b2 bd 32 68 14 bd 79 2b 75 3d 80 d1 9d bc
       -0.08695733 -0.03623218 0.059855912 -0.019264936
000150 89 e7 08 3d 6c df 10 3d 55 87 17 3d 13 b6 0e 3c
       0.033423934 0.03536932 0.036994297 0.008710402
000160 1a ec 48 bc 66 67 7f 3d 92 f3 14 bd c3 c1 88 bd
       -0.012263322 0.062354468 -0.0363651 -0.06677582
000170 26 f1 81 3d 3d 8d 0b bc 61 2c 3b 3d b9 f2 70 3d
       0.063448235 -0.008517561 0.04569662 0.05882523
000180 ed 07 2e bd f8 61 30 bd 28 20 9b 3d cf 07 ce bd
       -0.042488027 -0.04306218 0.07574493 -0.10060083
000190 f5 52 82 3d 9f 3b 46 bd ea fb 12 bd e3 4c e1 bd
       0.06363479 -0.048396703 -0.035884775 -0.11000993
0001a0 18 54 37 3d 63 65 c0 3d de 74 ea bd 18 b1 10 bd
       0.044757932 0.09394338 -0.11448072 -0.03532514
0001b0 75 dc 9d bb cf ad 9b 3d 8a 39 fb 3c 94 f2 ab bd
       -0.0048175403 0.07601511 0.030667085 -0.083958775
0001c0 7a 73 32 3d c1 90 b9 3c 1f 25 96 bd d1 dd 80 bd
       0.04356716 0.022652032 -0.07331299 -0.06292308
0001d0 21 0c 81 3d 73 0d eb bc 39 f6 34 3d 7c e5 d9 bd
       0.063011415 -0.028692937 0.04418013 -0.10639474
0001e0 40 e0 7f 3c 53 4c 3c 3d 68 f9 d6 3d 4f ba b6 bd
       0.01561743 0.045971226 0.10496789 -0.08922254
0001f0 de 61 2d bd 4d fa d1 bd b2 70 a3 3d 64 dd a8 3c
       -0.04232966 -0.10252819 0.07980479 0.02061338
000200 af 11 03 3d 04 b4 42 bd c3 07 9e bc 2f fe 28 3d
       0.031999286 -0.047534958 -0.01929081 0.041258033
000210 95 b2 5e 3d bf 6f b6 bd af c7 96 bc 67 e4 f6 3d
       0.054369528 -0.089080326 -0.018405763 0.12055283
000220 98 1c 5d bd e6 34 99 bd 20 c7 4f 3d 07 af 5d 3d
       -0.053982347 -0.07480793 0.05072701 0.054121997
000230 cf 95 af bd af 31 af 3d 02 59 d3 bd ad e1 da 3d
       -0.085734956 0.08554398 -0.10319711 0.106875755
000240 77 46 7f bd b0 44 ae bc bf 87 c7 3d 75 9b d3 bd
       -0.06232306 -0.021272987 0.097426884 -0.103323855
000250 db d4 c7 3d db 4c 8b bd 2c 64 55 3c 83 e9 cb 3d
       0.09757396 -0.068017684 0.013024371 0.09956648
000260 3b 16 3a 3d 69 43 eb 3d 05 a2 fd 3b e3 d6 35 3b
       0.045431357 0.11487467 0.0077402615 0.002774649
000270 f6 40 8e 3d b2 f0 6a 3d 9a 1c af bd ea 8e 57 3d
       0.06945984 0.05735845 -0.08550377 0.052626528
000280 58 48 8b 3d 2c 0c 3b bd a6 03 09 3d fb 2a ab bd
       0.06800908 -0.045665905 0.033450745 -0.08357807
000290 5b 4c 99 3d 94 73 37 3d 50 83 ce 3d 17 d6 01 3d
       0.07485267 0.04478796 0.100836396 0.031698313
0002a0 d0 10 48 3d 1d 20 5d 3d 1f 4c 10 bb d4 a9 76 3c
       0.04884416 0.053985704 -0.0022018028 0.015055139
0002b0 04 d1 d6 3d 53 e7 2f bd fd 27 87 3c 6b 8c 9b bd
       0.10489085 -0.042945217 0.01649856 -0.07595142
0002c0 54 81 c2 bd 1c 4f 08 3d 8c ba d2 bc 68 a4 8c bd
       -0.09497324 0.03327857 -0.025723718 -0.068672955
0002d0 3d d2 28 3d 65 14 8e 3d aa 79 c4 3c 5d 87 8b bd
       0.041216124 0.06937484 0.023983795 -0.06812928
0002e0 6e 3c b3 bd 20 54 38 bc ba 90 81 bd 8a c0 cf 3d
       -0.087517604 -0.011250526 -0.063264325 0.10144146
0002f0 7c 0b c5 3d 2e 0a a4 3d d8 90 fc bc fb 21 13 bd
       0.09621331 0.08009754 -0.030830786 -0.03592108
000300 8d 68 a1 3d 84 5d f6 ba 50 8b d6 3d 5a 34 1b 3c
       0.078812696 -0.001879618 0.104757905 0.009472931
000310 62 e8 90 3d c7 16 7d bd 95 1d 10 bc 54 e6 8e ba
       0.070755735 -0.0617893 -0.008796115 -0.0010902383
000320 c8 d8 db bd e0 5e c7 3c 3c f5 4d 3d 5c 6c 26 3d
       -0.10734707 0.024337232 0.0502827 0.040630683
000330 f8 85 d6 bc 87 ca 3b 3d 80 99 af bd c1 37 be bd
       -0.026186928 0.045847442 -0.085742 -0.09287978
000340 70 a4 26 3c e2 13 b5 bd 43 ec 0c bd 99 9b b3 bd
       0.010171041 -0.08841683 -0.034405004 -0.08769912
000350 ec 11 1e 3d 8d 55 4d 3d 98 a1 15 3c 77 b0 9a bd
       0.03859131 0.050130416 0.009132765 -0.07553189
000360 27 04 0f bd cd 32 94 bd f8 04 aa 3d bd d6 c4 bd
       -0.03491607 -0.07236252 0.08301729 -0.096112706
000370 e2 1f c1 3d 4d 48 31 3c 9a fd 7e bd 26 74 94 bd
       0.09429909 0.0108204605 -0.062253572 -0.07248716
000380 41 8e bd 3d a3 88 87 bd 3a e8 02 bc 87 68 c5 3d
       0.092556484 -0.06617858 -0.007989937 0.09639078
000390 e7 ff 36 3d 96 1f a7 bd 49 80 e7 bc 89 03 f4 3d
       0.04467764 -0.081603214 -0.028259413 0.11914737
0003a0 5d 56 9e bd b2 fc 85 3d f7 53 6d bd 5a 09 ca bb
       -0.07731316 0.065423384 -0.057941403 -0.0061656656
0003b0 43 90 3e bd 95 d0 a2 bc 7a 7c 8c 3d 4d 3d a0 3d
       -0.046524297 -0.01987485 0.068596795 0.07824192
0003c0 cc 5a 97 3d ec 96 11 3d d6 dd e3 bc 86 28 29 3d
       0.07390365 0.03554432 -0.02781574 0.04129841
0003d0 86 5d d9 bd 5c 47 e1 bc cd 7b 90 3d f4 87 cc 3d
       -0.10613541 -0.027499847 0.07054863 0.099868685
0003e0 d0 27 c3 3d 55 25 8e bd 2c 03 7f bc 27 ee 91 bd
       0.09529078 -0.06940714 -0.015564721 -0.07125502
0003f0 e7 9b c0 3d 4b 85 60 bc ce 04 fa bc 41 d6 d9 3d
       0.09404736 -0.0137036545 -0.03051987 0.10636569

arith.constant1 f4 [256, 64]
000000 df 9d b0 bc d8 dc 1b 3c 38 99 ee 3a e6 38 e6 bb
       -0.021559654 0.0095131025 0.0018203622 -0.007025826
000010 b6 37 10 3d 7a 79 38 3c 2f 5e 1c 3c a5 b3 10 bd
       0.03520938 0.011259431 0.0095439395 -0.035327572
000020 64 4b 7d bc 46 0f 25 bc 46 12 c8 bc ae 49 90 bb
       -0.015459869 -0.010074442 -0.024422776 -0.0044033146
000030 b2 b7 1a bc 23 d2 0b bd 7b d3 15 3d 82 8c 16 bd
       -0.00944321 -0.03413595 0.036578637 -0.036755092
000040 2c 4f c6 3b f8 43 05 bb 14 d0 e1 bb f3 c7 57 3c
       0.0060519185 -0.0020334702 -0.00689126 0.01317023
000050 c9 0a 08 bd 41 e1 93 bc e5 48 e8 bc b1 59 fa bc
       -0.03321341 -0.018051745 -0.028355071 -0.030560346
000060 c1 28 07 3d 6b 7a 94 3c b4 34 48 bc 89 a4 c7 bc
       0.03299785 0.01812478 -0.012219597 -0.024370449
000070 cc d8 36 3c 86 59 42 3c 33 70 19 3d 93 b1 fa 3c
       0.011160087 0.011862164 0.037460517 0.030602252
000080 7e 25 94 bc e7 9b 6c bc 15 8a dd bc 4b 08 3c 3b
       -0.018084284 -0.014441467 -0.027043382 0.0028691466
000090 b8 6b 4a bc 8a 9a a5 3b f3 7e d5 3b e0 70 03 bc
       -0.012354784 0.005053823 0.0065153777 -0.008022517
0000a0 09 fd 2b 3d ca e0 60 3c 08 af cc 3c 93 0c 0a 3c
       0.04198936 0.013725469 0.024985805 0.0084258495
0000b0 e5 a9 f2 bc 70 e5 e9 bc 33 a1 26 bd d5 46 b6 3c
       -0.029622028 -0.028551787 -0.040681075 0.022250572
0000c0 82 37 00 3d 18 91 0c 3c 0d a0 01 3d 6a 95 3c 3c
       0.031302936 0.008579515 0.031646777 0.011510232
0000d0 d2 12 da bc c0 a9 5d 3b 48 71 8b bb aa dd ec bb
       -0.026620302 0.0033823103 -0.0042554475 -0.007228573
0000e0 42 dc 08 3d fc 3b e3 bc 8a 21 9f b8 a0 52 94 bc
       0.03341318 -0.027738564 -7.587958e-05 -0.018105805
0000f0 1c 06 36 bc 41 fa d4 bc 20 67 a7 bc 0b ca b5 b9
       -0.011109855 -0.025998237 -0.020434916 -0.00034673544
000100 b6 19 c4 3c 84 14 87 bc 5c 80 8c 3c ef 43 b4 bb
       0.023938041 -0.016489275 0.01715105 -0.0055012624
000110 97 b0 83 3c 90 6c f7 bc f1 71 8f 3c 85 70 7c 3c
       0.016075416 -0.030203134 0.017510386 0.015407686
000120 56 29 a5 b9 dd 82 ec 3c ac 83 b4 bc 0d c9 9b bc
       -0.0003150205 0.028870994 -0.022035442 -0.019016767
000130 d6 7f 87 bc e5 1e 08 bd ae 46 1c 3c 4c bf 00 bd
       -0.01654045 -0.03323259 0.009538336 -0.031432435
000140 5d 63 29 ba e9 ff 02 3d 5c 1d 1d bc f9 92 07 3d
       -0.00064616447 0.031982336 -0.009589519 0.03309915
000150 6d 7b 08 bc 71 23 87 3c f8 e2 09 3d 07 86 cb bc
       -0.008330208 0.016496392 0.03366372 -0.024844183
000160 19 db ff bc 83 dc fd bb 94 cc f9 3c 23 ab f0 bc
       -0.031232404 -0.0077472343 0.030493058 -0.02937848
000170 ce b4 13 3c 02 9b 00 bc 89 44 65 bc f2 51 89 39
       0.009015275 -0.007849457 -0.013993391 0.0002619173
000180 dd d0 fe bc 96 12 00 3d ed 62 bb bb 71 d4 be bc
       -0.031105453 0.031267725 -0.00571858 -0.02329466
000190 9a 10 91 3c 37 f3 fa ba 03 ff 6c bc cb f8 ce bc
       0.017708112 -0.001914597 -0.014465096 -0.025265118
0001a0 85 16 02 bd 18 16 a2 3c f5 ce 10 3d d0 ba 0d bd
       -0.031759758 0.019785926 0.03535362 -0.034601986
0001b0 88 1e ce bb 40 9e dd bb bb ac d0 bc a9 62 a6 3b
       -0.0062902607 -0.0067632496 -0.02547299 0.005077679
0001c0 a3 24 1d bc 64 96 15 3d 3a c7 0e bd a5 bb 43 3c
       -0.009591254 0.036520377 -0.034857966 0.011946593
0001d0 88 52 d9 bc 2e b6 96 3c d6 4f 4f 3c 6b 23 c9 bc
       -0.026528612 0.018397417 0.012653312 -0.024553021
0001e0 09 99 e3 3c 1d 5d 90 3c aa 28 20 bc 87 f0 c5 bc
       0.027782934 0.017622525 -0.00977532 -0.024162544
0001f0 c0 d2 a9 3c 76 ea aa bc 75 71 44 3c 63 51 94 3c
       0.020730376 -0.020863753 0.011989941 0.018105214
000200 04 72 d0 3c 34 e8 04 3d ca 60 8a bc b7 ee 04 3d
       0.025444992 0.03244801 -0.016891856 0.03245422
000210 01 bb 8c 3b 1f af ae 3c 1e 54 99 bc e6 e9 e1 ba
       0.0042947535 0.021323739 -0.018716868 -0.0017235845
000220 c4 1c 84 3c 22 9f 88 3c 2a 30 5b 3c 7a 4d db bc
       0.016126998 0.016677443 0.013378182 -0.026770342
000230 07 02 80 3b ac 23 7c 3b 40 5c 88 3a 51 77 a4 3b
       0.0039064917 0.003847341 0.0010403469 0.0050191064
000240 10 da 66 3c 5f 4b 41 bc a9 a3 9c bc a1 88 40 bb
       0.014090076 -0.011797755 -0.019121008 -0.0029378312
000250 73 e2 07 bd 92 7e 6d bc 5f fc 5a bc 21 7f ed b9
       -0.033174943 -0.014495509 -0.013365834 -0.0004529888
000260 4e 48 51 bc bb 0d 32 3c 44 dc e0 3c b7 8e 0a 3d
       -0.012773586 0.010867531 0.02744878 0.03382751
000270 a7 ff 0f 3c 32 ff 8c 3c 2b 58 95 bc 8a aa 1c 3d
       0.00878898 0.01721153 -0.018230518 0.038248576
000280 24 a0 28 3b 38 f7 df 3c 1c 34 c8 3c 27 6c d2 bc
       0.0025730217 0.027339563 0.02443891 -0.025686337
000290 c4 72 b3 3a 09 23 fb 3b 2b 38 c6 bc d3 85 4f 3c
       0.0013690819 0.0076640886 -0.024196705 0.0126661835
0002a0 1c 3f f7 bc 86 8c c0 bc 1d 4b 20 3c 79 c8 0a bd
       -0.03018146 -0.023504507 0.009783533 -0.033882592
0002b0 5b 74 cf bc 11 30 54 bc b5 79 51 3c 62 9c 2c 3c
       -0.025324037 -0.012950913 0.012785365 0.010535331
0002c0 09 85 d2 3c 58 1b ce 3c e4 bc 0d 3c 54 c1 e7 3c
       0.025698202 0.025159523 0.008650992 0.028290428
0002d0 94 75 a3 3c 2e 04 03 3d 81 70 88 bc 6e 78 53 bc
       0.019953527 0.031986408 -0.016655209 -0.012907131
0002e0 45 34 b6 bc 94 2c fe 3c e1 c3 03 bd c3 6b 32 bc
       -0.02224172 0.031027116 -0.032169227 -0.01088995
0002f0 4c 40 52 3c 08 0d 4f bb b7 26 b2 3c 0c 28 08 bd
       0.012832712 -0.003159346 0.021746976 -0.033241317
000300 aa 40 26 bc 44 64 c4 3c ac 64 05 bd c5 2a 40 3d
       -0.010147253 0.023973592 -0.03256671 0.04691579
000310 d9 c8 bd bc d8 58 a7 3c 0e b6 52 3c 1e fc e2 bc
       -0.02316706 0.020428106 0.012860788 -0.02770811
000320 49 c6 ff bb f9 8b 2d bc 9c 03 bb 3b e2 93 93 3c
       -0.00780562 -0.010592454 0.0057072174 0.018014852
000330 63 2a 0f bb 0e 62 0c 3d 1a 51 eb bb 13 5b b1 bb
       -0.0021845333 0.0342732 -0.007181299 -0.005412468
000340 07 fe c4 bc 35 70 80 bb 0f 3d 06 bd a0 b4 fe bc
       -0.02404691 -0.003919626 -0.032773074 -0.031091988
000350 76 19 fd bc 68 bb 5c 3c f1 27 8e bc c0 76 87 bc
       -0.03089593 0.0134724155 -0.01735303 -0.016536117
000360 51 aa 9c 3c f1 b4 db bc 7f 6c c2 b9 9b 0a 31 bc
       0.019124182 -0.026819678 -0.000370834 -0.010805751
000370 65 4d 3d 3c 81 09 0f bd ef c9 3b 3c ee 6c 87 3b
       0.011554097 -0.034921173 0.011461719 0.0041328585
000380 d6 a9 6d bb 07 1b e6 3c e2 b4 de bc 1c 23 00 3c
       -0.003626456 0.02808906 -0.027185861 0.007820871
000390 be 75 52 bc 25 bc d9 3b b6 dd 9e 3b 1d d5 a4 3c
       -0.012845455 0.006644743 0.0048482073 0.020121152
0003a0 a7 42 b9 bb 39 33 e6 bc 36 c0 bb 39 dd 92 f1 3c
       -0.0056536975 -0.028100597 0.00035810628 0.029488975
0003b0 61 2d e9 3b c3 d6 c2 bc a0 34 fe 3a 45 b6 6e bc
       0.0071160053 -0.023784047 0.0019394346 -0.014569824
0003c0 5a 7c e4 b9 3e 64 b9 bc b4 50 b7 bc 34 4e 06 bd
       -0.00043580198 -0.022630807 -0.02237735 -0.032789424
0003d0 5d 9f 36 3c c7 d8 18 bc c0 3f 0d 3c 00 d6 df 3c
       0.011146394 -0.0093290275 0.008621156 0.027323723
0003e0 3d 85 50 bc 80 55 c7 3c 9f d0 f3 3c ef d9 11 3d
       -0.012727079 0.024332762 0.029762564 0.03560823
0003f0 ba b6 81 3b a6 a2 c1 3c f3 57 cf bc 76 c6 ee ba
       0.0039585503 0.023637127 -0.025310492 -0.0018217105

arith.constant2 f4 [256, 64]
000000 5f fe e3 3c 42 96 49 bc 95 e4 82 bc 42 26 a7 3c
       0.027831255 -0.012303891 -0.015978137 0.020403985
000010 5b d9 a7 3c 71 78 10 bd 0d ec cd bc 83 8d f3 3b
       0.020489385 -0.035271112 -0.025136972 0.007432641
000020 34 87 d5 3c 92 79 ac ba 6e d0 9f bc 13 87 3a 3c
       0.026065446 -0.0013158789 -0.019508567 0.011384743
000030 c2 0b 8d 3c 09 7c cd bc 31 40 f1 3c b5 ef 61 3b
       0.01721752 -0.025083559 0.029449554 0.0034475152
000040 68 7d 5d bb cf ce 4f 3c 21 f0 b0 ba 4f f9 f9 3c
       -0.0033796672 0.012683584 -0.0013499298 0.030514387
000050 f2 de d6 bc 6d bc ef 3c c2 15 26 bc 63 b3 09 3d
       -0.026229355 0.029264653 -0.010137023 0.033618342
000060 62 65 06 bd 41 11 03 bd 84 85 a9 3c 55 fd a5 3b
       -0.03281153 -0.031998876 0.020693548 0.0050656
000070 3a cb 04 3d 33 76 09 bd 27 48 59 3b 92 4e 13 3d
       0.032420374 -0.03355999 0.0033154578 0.035963602
000080 fe 85 ba 3c 85 94 cd bc a6 e5 06 3d 92 c7 9a bc
       0.02276897 -0.025095234 0.032933854 -0.01889399
000090 dc a3 0e bd 96 53 46 bc 7f da 8b bc 28 b6 0b bd
       -0.034824237 -0.012104889 -0.01707196 -0.034109265
0000a0 f0 0f c8 ba c5 b1 9b 3c 94 f0 12 bd 68 a2 2a bc
       -0.0015263539 0.019005666 -0.035873964 -0.010414697
0000b0 c5 95 4c bc c7 0b f8 3c dd 41 03 bc 83 97 8a 3c
       -0.01248688 0.030279053 -0.0080113085 0.01691795
0000c0 af 2f 17 3a 24 4d eb 3b 4a e8 0f bc 16 bb d4 3c
       0.0005767298 0.0071808267 -0.008783409 0.025968116
0000d0 38 95 41 3c 94 cc ae bb 3b c5 64 bc 51 8f 2e bc
       0.011815362 -0.005334446 -0.013963039 -0.0106542865
0000e0 6e ed d9 bc 57 9e d8 bb 97 3b d9 3c 12 87 be bc
       -0.026602473 -0.0066106725 0.026517672 -0.023257766
0000f0 e5 19 e4 3c 5c 08 f3 3c 29 0f 38 3c 51 ea 10 bd
       0.027844379 0.029667072 0.011234083 -0.03537971
000100 97 b0 fd bc 24 86 89 bb 6d b9 60 bc 1e 48 bf bc
       -0.030967994 -0.004196899 -0.013716084 -0.023349818
000110 1a cf e1 3c f9 73 4c 3c 0c 3a 15 3c 0f dc 96 bc
       0.027564574 0.012478822 0.009108078 -0.018415479
000120 5f df 7e 3c fa 0e d6 3c 20 c5 ea bc cb c1 f5 bc
       0.0155561855 0.026130188 -0.02865845 -0.029999634
000130 c5 a9 d4 bc 3d b8 55 3c 13 11 d0 ba c9 00 58 bc
       -0.025959859 0.013044414 -0.0015874229 -0.013183781
000140 42 9e c1 3c b3 4e e3 bc d9 62 31 bb ec b3 0c bd
       0.023635034 -0.027747488 -0.0027066974 -0.034351274
000150 05 ec 28 3c cd d1 92 bc 8d b3 95 3b 1d b8 d1 bc
       0.010310178 -0.017922306 0.0045685233 -0.025600487
000160 8a 13 a6 bc 49 79 d6 ba 3f 89 b5 3b 63 a6 ef bb
       -0.020272989 -0.001636305 0.0055400426 -0.007313536
000170 95 e2 b1 3c 33 3e 45 bb c6 65 a8 bc e1 1f ec bc
       0.021714488 -0.0030096888 -0.020556342 -0.028823795
000180 9d 73 a4 3c b9 2b 91 3c cf bc 83 3b 6b f2 ac bc
       0.02007466 0.017721044 0.0040203105 -0.021111688
000190 d6 6f d5 3c d4 39 b5 bc b5 57 27 bc 73 d5 e6 bc
       0.026054304 -0.022122301 -0.010213782 -0.028177952
0001a0 76 cc 08 bd dc 0c 71 bc c4 bb ef bc 41 9a 54 bc
       -0.033398114 -0.014712539 -0.029264338 -0.01297623
0001b0 6d 3f 44 3c 90 1d ad 3c 94 bc df bc a2 90 f4 3c
       0.0119780125 0.02113226 -0.0273116 0.029854123
0001c0 6a 87 00 3b 04 e5 08 bd ed d2 0e b9 00 2a df 3b
       0.0019611963 -0.03342153 -0.00013620751 0.0068104267
0001d0 4b fe b0 bc 09 0c ab bc 9d a6 aa bc 03 14 14 bd
       -0.021605631 -0.020879762 -0.0208314 -0.036151897
0001e0 54 67 47 3b d1 0f 94 bc b0 df 29 3b c6 00 ac bc
       0.0030426579 -0.018073948 0.0025920682 -0.020996463
0001f0 32 f9 89 bb 4a ad 1b bb ae f2 9f 3c 5d 7d 2d 3c
       -0.0042106146 -0.0023754411 0.019524898 0.010588971
000200 58 4d e3 bc 30 1b 18 bb d8 fe 0a bd 8d 3b df bb
       -0.027746841 -0.0023209564 -0.033934444 -0.006812519
000210 0e 5e 90 3c cc f0 67 3c e1 df 6a 3c d5 e5 a5 3c
       0.017622974 0.014156532 0.014335603 0.020251194
000220 34 45 7e 3b e7 00 97 bc aa 5b 25 3c 10 2c d5 3b
       0.0038798572 -0.018433047 0.010092655 0.006505497
000230 71 3d 62 bc 41 6b 03 bd 84 0c af 3a 72 26 98 3c
       -0.013808594 -0.032084707 0.001335517 0.01857302
000240 59 6b 2f 3c 34 ce 15 bd 26 ca 8f 3b 60 8e bd bc
       0.010706746 -0.036573604 0.0043881116 -0.023139179
000250 70 75 d6 bb 2b 6a 04 3d f8 96 76 3c f9 a1 09 3b
       -0.0065447614 0.032327812 0.015050642 0.0021001084
000260 9c 1a 7b bc 53 76 c0 3c 89 2a 63 3c 3a e7 16 3d
       -0.015326168 0.023493921 0.013865122 0.03684161
000270 de c5 b8 3c 3c c5 0c 3d 47 bc bb bb 19 d9 e2 bc
       0.022555288 0.034367785 -0.0057292315 -0.02769141
000280 cb 54 e2 3c 19 b8 f2 bc 77 af 01 3d 59 f6 24 bb
       0.027628323 -0.0296288 0.031661477 -0.0025171249
000290 9f 6f 9e 3c e8 7b 00 bd 08 ea 52 3c 44 53 00 3c
       0.019340334 -0.031368166 0.01287318 0.007832352
0002a0 20 98 cb 3c 96 a1 90 bc eb 51 7a bc 74 dd 49 3c
       0.024852812 -0.017655175 -0.01527832 0.012320865
0002b0 d4 3d 84 bb 48 36 b5 bc 48 80 12 bc 54 a7 d3 3c
       -0.004035691 -0.02212061 -0.008941717 0.025836624
0002c0 9b 30 68 3c 9d 4b 1b bc 81 4c ba 3c 83 8e a9 bc
       0.014171745 -0.009478477 0.022741558 -0.020697838
0002d0 37 65 bd 3b 13 54 0e 3d 62 ba fb 3c 67 07 01 3c
       0.005779888 0.03474815 0.030728523 0.0078753
0002e0 5b a2 e2 3c 46 6f db bb 8a 88 41 3c 45 7f f3 bc
       0.027665308 -0.0066966144 0.011812339 -0.029723773
0002f0 9c 85 86 3c 1f e2 18 3d 41 e3 bc bc 66 ce 7a 3c
       0.016421132 0.03732502 -0.023057582 0.015307998
000300 90 0b 7b 3c 91 59 db bc 41 96 66 3c 2d 6a 9d bc
       0.015322581 -0.026776107 0.014073909 -0.019215668
000310 5c d7 a6 3c 25 5c 57 3c 0b f8 b9 3c eb 9b 0d bb
       0.020366363 0.013144528 0.022701284 -0.0021607827
000320 1e 57 f2 bc 65 22 04 bd 0d 35 e2 3c 8d 73 a6 bc
       -0.029582556 -0.032259364 0.027613187 -0.02031877
000330 64 51 09 bb 0d d1 da 3a 6e bd 03 bd 1c 81 f4 3b
       -0.0020953054 0.0016694382 -0.032163076 0.00746168
000340 72 48 45 bc c3 fb 91 3c 65 ea b7 3c ea 70 ab bb
       -0.012041198 0.017820245 0.022450635 -0.0052319663
000350 18 23 f3 3c 25 d6 08 bd 57 a2 80 3a 36 2e b9 bb
       0.02967982 -0.03340735 0.0009814006 -0.0056512607
000360 b6 d3 d3 3c dc fa 91 3c 11 b2 9f bb cd 54 52 3c
       0.025857788 0.017819814 -0.004873522 0.012837601
000370 4d 7a 13 3c 20 66 0c bd 48 12 b6 3b 54 ef c9 3b
       0.009001327 -0.03427708 0.0055563785 0.0061625633
000380 49 18 af 3c b0 23 2d 3c a0 e6 06 bd 41 da 07 bb
       0.021373885 0.010567591 -0.032934785 -0.0020729455
000390 cf bb 3c bd bd 42 a6 3c 82 33 59 3c 92 61 3d 3c
       -0.046077546 0.020295495 0.013256909 0.011558907
0003a0 44 89 b3 bc 41 0d 3b bc d2 a4 d0 3c 98 50 fc b9
       -0.02191604 -0.011416734 0.025469217 -0.00048125233
0003b0 bb 0d c4 3c 17 0a 14 3d ad 7b 19 3b 66 09 11 bd
       0.023932328 0.036142435 0.0023419664 -0.035409354
0003c0 38 25 04 bd 2e 56 4e 3c fa 3e 2a bc 05 41 4f bc
       -0.032262057 0.012593789 -0.010390991 -0.012649779
0003d0 bb 55 60 3c 2a cd bb bc fd c0 c0 bc b6 30 9c 3c
       0.013692315 -0.022924978 -0.023529524 0.019066196
0003e0 7f 27 06 3c 50 a6 68 bc 4c 28 37 bc 7f ee af bc
       0.008188128 -0.014199808 -0.011179041 -0.021476028
0003f0 20 a9 a5 3c 81 2b 58 3c 71 cb e0 bc 44 57 ec 3a
       0.020222247 0.013193966 -0.027440758 0.0018031378

arith.constant3 f4 [256, 64]
000000 ce b1 57 3c 40 f6 07 3d 52 72 7a 3a 7f 1f 9c 3a
       0.013164951 0.033193827 0.0009553778 0.0011911242
000010 b8 bc b4 bc 1c fc 93 bc 21 6c 1d 3c 4f da fc 3c
       -0.022062644 -0.018064551 0.0096082995 0.030865816
000020 4b fd 0a bd 1b ed 18 bc e0 3b ea 3a bc c0 c0 bc
       -0.033932965 -0.009333874 0.0017870627 -0.023529403
000030 a1 a2 71 bc 0c bc f0 bc 28 78 11 bd 3f ac 90 3c
       -0.014748246 -0.029386543 -0.03551498 0.017660258
000040 c9 c0 aa bc f1 8d 09 bd 61 f1 e7 3c bb 78 0d 3c
       -0.02084388 -0.03358263 0.02831334 0.008634741
000050 0d 67 b8 bc 5d 60 7a bc 60 b7 89 3b 0b 4b 99 bc
       -0.022510076 -0.015281764 0.004202768 -0.018712541
000060 74 3b 08 3d e5 36 03 bd 0b c4 8a 3c a2 cc b9 3c
       0.033259824 -0.032034773 0.016939184 0.022680584
000070 b6 fd f7 3a 44 c7 db bc 2b 3e cc 3b d6 a7 f7 bc
       0.0018920216 -0.026828416 0.006232997 -0.030231398
000080 98 f1 fa 3c bb 31 df bc 25 ed 08 3d 53 51 1d ba
       0.030632779 -0.027245393 0.033429284 -0.0006001193
000090 54 d2 74 bc 07 cc 95 bc 1d ef e7 3c 1b fd ff bc
       -0.014942724 -0.018285764 0.02831226 -0.03124862
0000a0 37 08 06 bd 91 67 14 3d af 2c 65 bc c6 9c 68 3c
       -0.032722678 0.03623158 -0.013987704 0.014197534
0000b0 65 d8 ce 3c 70 58 ba bb 32 86 c7 bc 6a a0 5a 3b
       0.02524967 -0.005686812 -0.024355981 0.0033359774
0000c0 1d de ae 3c 9f 8f f2 3c 86 0f ba 3c bb 3c 08 3d
       0.021346146 0.0296095 0.02271248 0.033261042
0000d0 e2 b4 e3 3c 61 31 92 bc 0a a9 0e 3d 56 2d b4 3c
       0.027796213 -0.017845811 0.034829177 0.021994274
0000e0 a5 7f a5 3b 2e e2 1b bb 39 c7 0f bd fa 28 d7 bc
       0.005050617 -0.0023785937 -0.035102103 -0.026264656
0000f0 4d 9e b4 bc a8 bd de 3b 22 08 4b bb ce 46 0d 3d
       -0.02204814 0.006797511 -0.003098019 0.034491353
000100 3d 0d 70 bc 85 27 14 3d fa 64 6d bc 4b 6e f7 3c
       -0.014651594 0.0361705 -0.014489407 0.030203959
000110 06 63 62 3b 1b f1 24 3c 43 38 c7 bc b4 69 0d 3d
       0.0034543886 0.01006725 -0.02431882 0.034524634
000120 f9 a3 c8 3c 95 8e 0d bd e0 66 15 3c e9 fc 15 bd
       0.02449225 -0.034559805 0.009118766 -0.036618147
000130 4f 8c 06 bd 77 18 b8 bb c1 ba 94 3c d0 eb eb 3c
       -0.032848652 -0.005618151 0.018155457 0.028798968
000140 e0 8e ba bc 15 b5 d0 3b 75 c5 c5 bc 37 01 89 bb
       -0.022773206 0.006369243 -0.024142006 -0.004181053
000150 2f be 0b 3d 41 62 32 3c c7 78 01 3d 58 a6 c3 bb
       0.03411692 0.010887683 0.031609323 -0.0059707575
000160 af 40 d8 3b a5 f1 ff 3b 4e cf fa bc 8a 25 84 3b
       0.0065995078 0.0078107887 -0.030616429 0.0040327953
000170 d0 92 f0 3b fa de 59 bc 2c d0 47 3a 2d e7 52 3c
       0.00734172 -0.013297791 0.00076222676 0.012872499
000180 92 70 24 bc ff 35 cb 3c 25 bf 09 3d 6a 2a 8d bc
       -0.0100366045 0.02480602 0.033629555 -0.017232139
000190 84 75 c6 3c fd 22 e1 bc 11 5a c5 3b bc bf f3 bc
       0.024225958 -0.027482504 0.0060226996 -0.029754512
0001a0 2a 99 5b bc 6f 6c 01 bd ba ab 59 bc 18 59 f6 bc
       -0.013403216 -0.03159755 -0.013285572 -0.03007178
0001b0 0c 10 63 bc 38 9c ff 3a 0f 4e cd 3c 86 25 cb 3c
       -0.013858806 0.0019501513 0.025061635 0.024798166
0001c0 ed 56 5a 3c c3 3d 63 3b a8 c6 e0 3c 23 93 06 bd
       0.013326389 0.0034674264 0.027438477 -0.032855164
0001d0 a2 68 05 3d 1f e5 54 3c c5 f5 f1 3c de 3c b8 3c
       0.03257049 0.01299408 0.029536137 0.022489961
0001e0 41 e3 2d 3c c2 b2 9d ba ce c1 fb 3c 53 32 09 bc
       0.010613264 -0.0012031423 0.030732062 -0.008373815
0001f0 41 6d c7 3b c4 d6 a7 bc 07 28 a0 bb 7e db d5 bb
       0.006086022 -0.02048815 -0.004887584 -0.0065264096
000200 f7 01 05 3d 33 54 03 3c 2a 0a 21 3c 4c 50 a1 3b
       0.032472577 0.00801568 0.009829083 0.004922902
000210 d5 52 2f 3b d4 2b 5c 3b e4 45 01 3d e1 cb 9d bb
       0.0026752253 0.003359546 0.031560794 -0.004815564
000220 92 c6 13 3d 24 c7 56 3c 40 11 21 bd 00 32 8f bc
       0.036078043 0.013109002 -0.03932309 -0.017479897
000230 de 1e 94 bb ae 4c 86 3c 07 02 33 3c f5 e4 ad bc
       -0.004520281 0.016393986 0.010925776 -0.02122734
000240 d7 7e 7b 3c 2b 9e 93 bc cc d4 b6 bc f2 92 d8 3c
       0.015350065 -0.018019756 -0.022318266 0.026437256
000250 65 7b 5a bb 26 eb db bc 6a 7b e5 3c e5 e0 e9 bc
       -0.003333771 -0.026845526 0.02801295 -0.02854962
000260 5e 4b 89 bb c3 63 d5 bc 0f 82 fc b9 ab 10 12 3c
       -0.0041898927 -0.026048547 -0.00048162087 0.008915107
000270 c1 7f 27 3d 33 96 83 3c e3 df 0a ba 42 e4 86 3a
       0.04089332 0.016062832 -0.0005297644 0.0010291415
000280 80 14 c5 3c 1f 19 c3 bc 54 dc aa bc fa 8f c8 bb
       0.024057627 -0.02381569 -0.020857014 -0.006120679
000290 c6 93 0b bd 00 24 9e 39 ef 30 05 3d f2 03 e0 3c
       -0.034076475 0.0003016293 0.03251737 0.027345631
0002a0 8c eb c8 bc 03 e9 bd bc 01 98 88 39 61 26 0b bd
       -0.02452638 -0.023182398 0.00026053193 -0.033972148
0002b0 46 97 22 3c ac 28 cc 3c e1 19 12 3d 0f a9 05 3d
       0.009923762 0.024921738 0.03566921 0.03263193
0002c0 cc 4f fe 3c 67 a2 30 ba 04 7e d2 3b fb 63 f9 3c
       0.03104391 -0.0006738067 0.0064237136 0.030443182
0002d0 0d 88 82 bc fc 64 3b bb 1e 4f 3b bc 43 15 5f 3c
       -0.015934015 -0.0028594127 -0.011432437 0.013615909
0002e0 44 5e bf 3c 57 97 19 3a 85 01 e1 3c e1 1a 7f bb
       0.023360379 0.0005859038 0.027466545 -0.0038925933
0002f0 b0 ff 03 3d 64 e1 d2 bb 27 bd eb 3c 75 4a cf bb
       0.032226264 -0.00643556 0.028776718 -0.0063260146
000300 6a 69 ac 3c 34 4e 15 3d d4 f1 a9 bb 1e 4d 50 bc
       0.02104636 0.036451533 -0.005186299 -0.012713699
000310 0e 60 3a 3c 87 3c fc 3c 21 b4 9b 3c 0e 3f 6e ba
       0.01137544 0.03079058 0.01900679 -0.00090883754
000320 52 89 06 bd b3 6a 14 bd 6b 6f f0 3b 32 3a 00 bd
       -0.032845803 -0.03623457 0.007337501 -0.0313055
000330 89 d3 a1 3c b4 58 06 3c 68 87 1c bc 38 91 83 bc
       0.019754188 0.008199859 -0.009553768 -0.016060457
000340 b6 8f 05 bb c1 7b d4 bc 4e d5 98 bb d3 34 13 3d
       -0.0020379848 -0.025937917 -0.0046641 0.03593905
000350 12 a4 b1 3c 45 37 0f 3d 1c a3 cc 3c 3f 12 9a 3c
       0.02168468 0.03496482 0.02498012 0.018807529
000360 b9 70 20 3b b9 f1 03 bc c2 06 81 3b 64 2e 0d 3d
       0.002448125 -0.008053237 0.003937573 0.03446807
000370 e2 fe b2 bc d0 a7 c7 bc ec d1 b5 3c 07 ab c9 bc
       -0.021850053 -0.024372011 0.022194825 -0.024617685
000380 50 a9 0a 3d 2a 8e ef 3c f2 78 f6 3c 6e ad dd bc
       0.033852875 0.029242594 0.030086968 -0.027060237
000390 74 81 0a bd 5d 45 5e bc 39 38 f5 bc a5 f4 23 3c
       -0.033814862 -0.013566342 -0.029934036 0.010007058
0003a0 f5 4b 5a 3c 0c 88 aa 3b 5d 27 cd bc 46 0a 93 bc
       0.013323774 0.0052042063 -0.025043184 -0.017949235
0003b0 29 41 14 bd b5 87 9e bc 4b f1 fd bc 81 8c 03 bd
       -0.036194954 -0.01935182 -0.030998847 -0.032116417
0003c0 dd 82 10 bb d0 ff 68 3c b4 ad eb 3a 5e 95 34 3c
       -0.0022050657 0.014221147 0.0017980845 0.01102194
0003d0 89 3a b5 bc 13 cf ed bc 8f af f6 bc d6 c4 32 3c
       -0.022122638 -0.029029405 -0.03011301 0.010911187
0003e0 df 6a 8f bb 7c 79 0d bd f5 a0 3b bc a9 87 d2 bc
       -0.0043767537 -0.034539685 -0.011451949 -0.025699453
0003f0 09 16 25 3c 71 c0 d0 bc 3f c2 d7 bc f9 02 ee bb
       0.010076054 -0.025482388 -0.026337741 -0.007263538

arith.constant4 f4 [64, 256]
000000 87 7d 41 bd c3 0a a9 bd bc 82 37 3d 14 48 86 bd
       -0.047238853 -0.08254006 0.044802412 -0.065567166
000010 64 00 94 3c b5 40 a5 3c 68 9f fa bd 73 06 fe 3c
       0.018066593 0.020172456 -0.122374356 0.031008935
000020 8d 0d 81 bd 9b a2 74 3d ff a2 32 3d 22 5f be 3d
       -0.06301413 0.059725385 0.043612476 0.09295489
000030 4f 01 4a 3d 60 52 93 3d 84 cf 40 3d 5b 74 46 3d
       0.049317654 0.07193446 0.047072902 0.04845081
000040 9d a4 6d bd 1d 9e 8f 3c 7b f2 41 bc 74 9f a8 bc
       -0.058018316 0.017531449 -0.011837597 -0.020583846
000050 e6 b7 0b bd b0 f9 9d bd 1f 03 9a 3d a9 80 75 bd
       -0.034110926 -0.0771364 0.075201266 -0.059937153
000060 61 fc b3 bd 1f ae c9 3d 95 00 87 bc 6c 56 42 3d
       -0.08788372 0.09847664 -0.01647977 0.0474457
000070 99 f0 ac 3c 1c d8 a7 bc 7b d5 ca 3d f4 d3 c9 3d
       0.02111082 -0.020488791 0.099039994 0.0985488
000080 c5 d1 cd 3c 22 d6 80 bd e5 4c 01 bd a5 e5 ea bc
       0.02512444 -0.062908426 -0.031567473 -0.028673956
000090 d0 3a 4d bd 6a 0e e7 3d 56 b2 9e 3d ea 16 d3 bd
       -0.050104916 0.11282046 0.07748859 -0.10307105
0000a0 dd e0 80 bd 80 2a 93 bd 74 45 8f bd 25 74 f2 3c
       -0.06292889 -0.071858406 -0.06995669 0.029596398
0000b0 df 01 31 3d 13 97 11 bd a7 2e 59 3c d3 f4 cb bd
       0.043214675 -0.035544466 0.013255752 -0.09958806
0000c0 25 16 97 bc e5 72 9b bd 6f 8b a3 bd e3 fd 8a bd
       -0.018443177 -0.07590274 -0.07985579 -0.06786706
0000d0 7b 3d ab bd 33 fd f6 3c e8 9a d3 bc 39 c7 00 3d
       -0.08361336 0.030150032 -0.025830701 0.031439994
0000e0 4c 39 89 3d f1 f2 29 3d 26 85 b6 3d 1e 60 7e 3d
       0.06700382 0.041491453 0.08912115 0.062103383
0000f0 b7 2a 19 bd 71 50 9d bd 1e 79 4f bd 85 64 f6 bd
       -0.03739425 -0.076813586 -0.050652616 -0.12030891
000100 b7 12 26 3c 35 0c 9a 3b 13 f5 03 bd 4d af 5a bd
       0.010136298 0.004701162 -0.032216143 -0.053389836
000110 3c b6 f3 bb 8a c8 02 3c 8a 80 ce 3b fb b8 68 3d
       -0.0074374955 0.007982383 0.006301944 0.056817036
000120 1d 82 40 bd 75 1e 59 3d e5 ea 0e 3d 53 3b 66 3d
       -0.046999086 0.05300756 0.03489198 0.05620892
000130 f1 9e 29 3c 18 f9 a9 3d 29 83 ab 3d bf d8 c8 3d
       0.010352836 0.08299464 0.08374626 0.09806966
000140 a9 7f 7f bd d0 01 6c bd 24 f4 b3 bd e5 c0 f0 3c
       -0.062377606 -0.057618916 -0.087868005 0.029388854
000150 13 a5 a2 3c eb f5 9c bb 2d cd ec bd 74 b5 eb bc
       0.019854104 -0.004790058 -0.11562572 -0.028773047
000160 01 35 36 bd c6 3e c8 3c 5f 81 9d 3d 92 5f 26 3d
       -0.044484142 0.024443995 0.07690691 0.040618487
000170 cf d1 c8 bc d7 df 91 3d fc a0 4b bd 31 72 40 3d
       -0.024514107 0.07122772 -0.049714074 0.0469839
000180 3d 39 77 bd bd 1d af 3c be d8 14 bd 5d bc b3 bd
       -0.06035732 0.021376485 -0.036339514 -0.08776162
000190 8f ac 72 bd cb b5 1d 3c c7 fd e0 bd cd 6a 70 3d
       -0.059246596 0.009625862 -0.10985904 0.058695603
0001a0 49 a6 9e 3d f6 ea 0d bd c8 64 cf 3d dd 0e ac bd
       0.0774656 -0.034647904 0.101266444 -0.084012724
0001b0 f6 37 24 3d 5a 10 d5 bd 56 11 83 bd 1a 98 c7 bd
       0.04009243 -0.104035094 -0.06399791 -0.09745808
0001c0 d5 f9 a7 bd 39 9a 35 3d 99 c2 ea 3d aa c7 bb 3c
       -0.082019486 0.04433653 0.11462898 0.022922356
0001d0 50 e0 de bc 58 7a 38 bd cf 1f bc 3d 1a c6 b6 3c
       -0.02720657 -0.04503855 0.091857545 0.022311259
0001e0 fb f0 2b bd 59 e7 93 3d 28 22 8f bd e5 ca 75 3d
       -0.041977864 0.072218604 -0.06988937 0.06000795
0001f0 81 0a 8f bd ce 4d a0 bc de fd 14 bd 1e 4d 9f bd
       -0.06984425 -0.01956835 -0.03637492 -0.07778381
000200 91 42 12 3d 73 67 ab bc af 41 d7 bd 9d fb b6 bb
       0.035708014 -0.020923352 -0.10510575 -0.005584194
000210 e5 ed 73 bd 2b 69 4d bc f2 e1 6b bd f2 f0 ce 3d
       -0.059553046 -0.012537281 -0.057588525 0.101045504
000220 a9 3d b4 3d 4e c8 1c 3d 6e db 89 bd 53 b0 6e 3d
       0.08800823 0.038276963 -0.06731306 0.058273625
000230 1f f2 9f bd ad 3e 9a bd 16 a5 bc bd 93 98 2f 3b
       -0.07809853 -0.07531486 -0.09211175 0.0026793822
000240 88 5b 82 3c e2 d6 e0 3d d5 b7 2b 3d 85 20 5f bc
       0.015912786 0.10978486 0.041923363 -0.013618593
000250 2a 8a 19 3d ab e2 ab 3d 21 6d b4 3d ba 88 af bd
       0.03748528 0.08392843 0.08809877 -0.085710004
000260 dd 32 d8 3d a4 17 d2 3d 51 ee 4d 3d 93 44 bc bd
       0.105565764 0.10258415 0.050276104 -0.09192767
000270 25 88 72 bc 3a 5e 26 3c cc ae 22 3d de 70 4a bd
       -0.014802967 0.010154301 0.03971748 -0.049424045
000280 64 c1 dd bc f8 dd 95 3d 01 f9 dd bc bd 0f 31 3d
       -0.027069755 0.07317728 -0.027096273 0.0432279
000290 33 e5 f1 3c fc 8b f3 bd 31 0f c3 3c 78 3b ed 3c
       0.029528236 -0.11891934 0.023810955 0.028959021
0002a0 c7 3a fa bc db 52 96 3d 5a e5 46 bd 99 d7 d0 3d
       -0.030545605 0.07340022 -0.04855857 0.10197372
0002b0 17 5d 70 bd 7c c3 19 3d 06 79 08 3d 3a 54 85 bd
       -0.058682527 0.037539944 0.033318542 -0.065102056
0002c0 e1 72 7f 3d 8c 5d 0a bd 50 e5 10 3d 6e a8 a2 bd
       0.062365416 -0.03378062 0.03537494 -0.07942282
0002d0 0e 78 82 bc be dc 6f b8 1f 6b 54 bd b9 c0 2c 3d
       -0.015926387 -5.7187623e-05 -0.05185997 0.042175982
0002e0 bd 4d 48 bd 37 1f aa 3d 45 12 3d 3d 21 74 88 3c
       -0.048902262 0.08306735 0.04616 0.016656937
0002f0 06 96 30 3d fb 5a d4 bd d7 e2 a6 bc f4 d5 78 3d
       0.043111823 -0.10368916 -0.020371838 0.060750917
000300 51 be aa 3d 8f bd a2 bc e3 8e 81 3d 41 3f 91 3d
       0.08337081 -0.01986578 0.063260816 0.07092143
000310 2f b4 d0 3d be d6 70 3d e2 e4 a3 bc ea 63 88 bd
       0.10190617 0.058798544 -0.0200066 -0.06659682
000320 53 a4 5e 3d 72 cf 94 3d 36 48 7d 3d 86 3e 2e 3d
       0.05435593 0.072661296 0.061836444 0.042540096
000330 45 f3 b1 bd f2 4c c0 3d 1d 48 bb bc 1a f4 cc bd
       -0.08688978 0.09389676 -0.022861535 -0.10007496
000340 36 1a 90 3d db a0 00 bc 7a 45 d9 bc 15 0b 99 bd
       0.07036249 -0.007850851 -0.026522387 -0.07472817
000350 e7 be 78 bc 90 48 7e bb 83 14 c8 bc eb 43 e8 3d
       -0.015182233 -0.0038800575 -0.024423843 0.11341079
000360 76 ba 04 3a 76 71 3e bc 64 7e b1 3c 44 e8 20 3c
       0.0005063185 -0.011623731 0.021666713 0.009821001
000370 a2 05 9a 3d 5a ed a2 3d 4b df d7 3d a6 08 bd bd
       0.075206056 0.079554275 0.10540637 -0.09230165
000380 7e ac 56 3d af 2a 42 ba 0b 35 9d 3d 67 3d 86 3c
       0.052410595 -0.0007406873 0.07676133 0.0163867
000390 ed ac 0e 3d 8e 79 8c 3c 3c a5 a7 3d 49 f8 91 3d
       0.034832884 0.017147806 0.08185813 0.07127435
0003a0 6a 1d 07 3d 3a 8d 5b 3d c3 8f ce 3d fa b3 89 bd
       0.032987036 0.05360148 0.10086014 -0.06723781
0003b0 1c 06 a5 3d 91 ac a0 3d 82 35 cc bd f7 e3 e7 3a
       0.08057806 0.078454144 -0.09971143 0.001769184
0003c0 52 50 6c bd e8 c0 e0 bb f1 92 91 3d 9d 13 df 3d
       -0.057693787 -0.0068589337 0.07108105 0.10892413
0003d0 ed a3 8b 3d 0f 7c 0e bc e0 7f 5e bd ce 90 ed bc
       0.06818376 -0.00869657 -0.05432117 -0.028999712
0003e0 17 22 e2 bc 75 9f bb bc f6 f0 57 bc a8 1d 82 bd
       -0.027604146 -0.022903183 -0.013180008 -0.06353313
0003f0 80 4e 8e 3d d2 cf e5 3d f3 92 8b bd 05 f0 94 3c
       0.069485664 0.11221279 -0.06815138 0.018180856

arith.constant5 f4 [256, 64]
000000 5e 2c 13 bc 1b 0f 05 3d 8f 15 0f 3c 76 c0 e5 3c
       -0.008982746 0.03248511 0.008733167 0.028045874
000010 5a a4 8d bc 8d 8b 87 3c 2b 8f 2c 3d 83 b0 34 38
       -0.017290283 0.016546035 0.042128723 4.3079734e-05
000020 da e2 d0 3c b6 2c 34 3c 56 35 05 3d b5 e5 ed 3c
       0.025498796 0.010996988 0.03252157 0.029040197
000030 a4 8d 47 bc bf e5 fb b8 37 59 5a 3d 90 31 27 3c
       -0.012179766 -0.00012011406 0.05330774 0.010204688
000040 af 77 01 bd dc 47 38 3d 67 1d 02 bd c7 0d 57 bc
       -0.03160828 0.044990405 -0.03176632 -0.013125843
000050 f6 62 fc bb ab 34 0a bd 6d 73 41 3c d2 9e ff bc
       -0.0077022268 -0.033741634 0.011807305 -0.031203661
000060 28 1b 10 bc 6d d2 74 bb 9c 74 57 bb 3d 35 15 3d
       -0.008795537 -0.003735687 -0.00328759 0.036427725
000070 b8 2d 0c bd 10 ca b5 bc 30 0f 3a bc e7 18 22 bd
       -0.03422329 -0.022191077 -0.01135616 -0.03957453
000080 fe 72 37 3b ce db 12 bc 82 0d 96 3c fd c1 54 3d
       0.0027992125 -0.008963538 0.018316988 0.051942814
000090 e2 c8 ed bb be 91 08 bd 02 90 53 3b e7 6d 53 3c
       -0.007256613 -0.033342116 0.003228188 0.012904621
0000a0 7e f4 0e bd 3b 78 36 3c 8c b4 e5 3b 6a 76 c9 bc
       -0.034901135 0.011137064 0.0070100483 -0.024592597
0000b0 6e 89 df 3b a2 d1 fc 3c e9 0a db 3c fd 4c 1b 3d
       0.006821803 0.03086168 0.0267386 0.03791522
0000c0 fb 19 c0 3c d1 5a 95 bc f9 08 57 39 1e a1 cb 3c
       0.023449888 -0.018231781 0.0002050734 0.0248571
0000d0 68 b6 07 3d 86 52 aa bc ae 1d 19 3c 9a 5d 93 3c
       0.03313294 -0.020791303 0.009345455 0.017988969
0000e0 39 2f ae 3c b4 32 7d 3b 4d 64 aa 3c 52 9a 39 bc
       0.021262752 0.0038634958 0.02079978 -0.011328297
0000f0 01 93 08 bd df 94 d1 bc 73 4e 94 3c 24 4b 08 bb
       -0.03334332 -0.025583683 0.018103814 -0.002079674
000100 51 47 60 bc e8 e1 13 bd 4d a2 66 3d 2c 6e 10 3d
       -0.013688878 -0.036104113 0.056307126 0.035261318
000110 7b cf 28 bd fb 7f 1b bd 70 2b 02 3d 7f 88 36 bd
       -0.041213494 -0.03796385 0.031779706 -0.044563767
000120 22 5b 6b 3c a5 f4 02 3d e0 8f e2 3b 30 5b 19 bc
       0.0143649895 0.031971592 0.006914124 -0.00936012
000130 d1 e4 05 bd 34 2b f3 3c 91 b8 97 3c bc ca 5c 3d
       -0.03268892 0.029683687 0.018520625 0.05390428
000140 d6 4f 7a bc 83 83 e9 bc 03 da 4f 3c 8e e8 e4 ba
       -0.015277823 -0.028505092 0.012686255 -0.0017464326
000150 ed 32 d8 3b e9 4a 1a 3d 86 5a 25 3c 13 29 1c 3d
       0.0065978677 0.037669096 0.010092383 0.03812511
000160 38 32 29 3c 8e 2b 3f bc c0 13 e8 3c 9c 90 14 3d
       0.0103269145 -0.011668099 0.02832973 0.036270723
000170 bf b8 28 3c 3a 2b 4b 3b b7 10 ef 3c a2 f3 75 3c
       0.010297953 0.0031001107 0.029182775 0.0150117
000180 d1 78 81 ba c0 81 9e 3c 3d 55 99 bb 19 03 08 bd
       -0.0009877925 0.019348979 -0.0046793506 -0.03320608
000190 bd 02 fd 3b 22 bc e4 3c bb e1 f6 3c 74 eb 18 bc
       0.0077212737 0.02792174 0.030136934 -0.00933348
0001a0 d1 58 12 bc 19 2e c8 bb 51 33 2f 3d 7d ba 8e 38
       -0.008932308 -0.006109011 0.04277355 6.805824e-05
0001b0 1b 4e 4a bc b8 84 35 3c 88 83 41 3c 4b e1 e9 bc
       -0.012347723 0.011079006 0.011811145 -0.02854981
0001c0 6b 51 ca bc 95 89 2d 3d 1d a6 52 3c b7 e3 26 3b
       -0.024697026 0.042367537 0.012856987 0.0025465318
0001d0 e1 8a c7 bb b7 63 26 bc 0d f5 2c bb da cc 41 3b
       -0.0060895537 -0.01015561 -0.0026391179 0.0029571564
0001e0 79 da c5 3c 81 d2 db bc 5f 4b 7a bc a5 e4 f0 3c
       0.024152027 -0.026833775 -0.015276759 0.029405901
0001f0 2e 8e 1e bd 87 2d 0c bc b9 8b 24 3a 4a 11 b1 bb
       -0.038709812 -0.008555776 0.0006276924 -0.0054036723
000200 73 5b 96 3c 48 1b 78 bc 7c 8f 6f bb 3a 18 a1 3c
       0.018354153 -0.015143223 -0.003655403 0.019664872
000210 1b 33 2d 3c bc 6b 54 bc 53 82 f7 bb b3 a2 9d 3c
       0.0105712665 -0.012965139 -0.0075533777 0.01924262
000220 2b 20 8e bc e4 49 20 bd b6 2a 1a 3d a0 12 df 3c
       -0.017349323 -0.039132968 0.03763839 0.02723056
000230 71 e9 06 bd 7b 3d f4 3c e4 04 5a 3d 33 3f 5a 3d
       -0.03293747 0.029814472 0.05322732 0.053282928
000240 e4 11 0c bc bb 87 8e 3c cf 0a 08 bd b7 19 a4 bb
       -0.008549187 0.017398706 -0.033213433 -0.0050079483
000250 2a cc 24 bc 11 99 f1 bc 94 79 3a bb 49 e7 c4 3c
       -0.010058442 -0.029491933 -0.0028453814 0.024036067
000260 8d e1 65 bb 2c 8a 78 bc 8e 22 02 3d af 7b 60 bc
       -0.0035077066 -0.0151696615 0.031771235 -0.0137013635
000270 2f 7f 01 bd a1 9c 03 3d f4 b0 bb 3c 01 87 9f bc
       -0.031615432 0.032131795 0.022911526 -0.019473555
000280 88 e5 1b bc b6 57 cf bc ff b2 51 3a ff 43 23 bd
       -0.009515174 -0.025310379 0.000799939 -0.039859768
000290 4c ab ff 3a 53 8d eb 3c 99 b3 5a bc 74 d9 07 3c
       0.0019506007 0.028753912 -0.0133484835 0.008291591
0002a0 0b ee 4d bc 09 93 a1 bc d9 38 5f bc 83 43 e1 3c
       -0.012568961 -0.019723432 -0.013624393 0.027498012
0002b0 17 ae 33 bd d4 0c 01 3d 8e f6 00 3c 41 b3 27 3d
       -0.043867197 0.031506374 0.007871283 0.040942434
0002c0 0f 61 b8 bc bb 28 f2 bc 05 d9 4b 3c 8c 63 96 bb
       -0.022507219 -0.029560437 0.012441878 -0.0045895036
0002d0 86 bf 68 3d b3 ad 56 3b 8f a9 0e bd 17 f7 c2 3b
       0.056823276 0.0032757341 -0.034829672 0.0059498656
0002e0 d9 59 14 3c fd 52 a5 3c bc 2d 11 bc 6b c7 00 bd
       0.0090546245 0.020181173 -0.008861002 -0.03144018
0002f0 eb 80 e3 3a 12 64 4a b8 f9 a0 ae bb ef fa 8b 3b
       0.0017357146 -4.825375e-05 -0.005329248 0.004271857
000300 15 f7 d6 bc f7 22 99 bb 10 8f c2 3b 5f 7a 9e bc
       -0.026240865 -0.0046733576 0.0059374645 -0.01934546
000310 8d 3a 81 bc 61 af ba bc 00 f6 61 3c cb d2 2a 3d
       -0.01577499 -0.022788705 0.013791561 0.041704934
000320 eb 8e 13 bd 22 ff 28 bc dd 9a 15 bc 19 81 9b bc
       -0.03602497 -0.010314735 -0.009131161 -0.018982457
000330 66 c7 39 3d d0 72 e0 bb bc 6d 2b 3d a2 f9 44 bd
       0.045356177 -0.006849624 0.041852698 -0.04808963
000340 66 a8 8d 3b d6 81 15 3d 48 5a 19 bb f9 dd ab bc
       0.004323053 0.036500774 -0.002339976 -0.020979868
000350 ed 35 0a bb be 0f 90 3a c5 ff b0 bc ed ac 70 3c
       -0.0021089271 0.001099102 -0.021606335 0.014689666
000360 90 26 9c 3c ff 03 a2 3c 7c be 0e bc 7e f1 69 3c
       0.019061357 0.019777296 -0.008712407 0.014278768
000370 5d d4 bd 3c 33 cd c8 bc 03 ff 10 3d 39 17 fa ba
       0.023172552 -0.02451191 0.035399448 -0.0019080407
000380 c7 03 01 3c 4a 7a 84 b9 d4 57 a1 3c e6 62 ba bc
       0.007874436 -0.00025268114 0.0196952 -0.022752237
000390 a2 e6 85 39 7a 63 08 3d fa e8 9c 3c 23 b0 00 bd
       0.00025539572 0.033297993 0.01915406 -0.031417977
0003a0 1d 22 84 3b 8d 90 0d bd 2c ba dd bc d8 56 86 bc
       0.004032387 -0.034561682 -0.027066313 -0.016398832
0003b0 6f 9a db bc 42 55 1f bd ea 89 17 bd c5 52 28 bd
       -0.026807038 -0.038899668 -0.03699676 -0.04109456
0003c0 4e 79 f4 bb 23 0b a1 bc c3 94 eb 3c c6 28 3d 3b
       -0.0074607497 -0.01965863 0.028757459 0.0028863414
0003d0 ea db ab 3b 86 94 b8 bc ed 27 c8 bc 43 c8 17 bb
       0.0052447217 -0.022531759 -0.0244331 -0.0023160137
0003e0 cf 04 b0 3b 73 e9 e9 3c 0b 3b 83 3c c2 91 6f bc
       0.005371667 0.0285537 0.016019365 -0.014622154
0003f0 3f a0 a9 bc c5 e8 80 bc 4f 6d 65 bd 1d bb 8b 3a
       -0.020706294 -0.015735993 -0.056012448 0.0010660623

arith.constant6 f4 [256, 64]
000000 17 c9 3e 3c 29 bd d8 bc 40 6a a0 3c 6a 3f 88 bb
       0.011644623 -0.026457386 0.019581914 -0.00415795
000010 0a 20 03 bd 07 87 e8 bc 45 01 da bc fd 31 0c bd
       -0.032012977 -0.028384699 -0.026611933 -0.03422736
000020 7a 83 db bc 63 f8 95 3b 82 10 10 bd e7 d8 03 bd
       -0.026796091 0.004576729 -0.035171993 -0.032189276
000030 8b 50 0a 3d 32 7b 7c 3c 38 1a 13 3c 2a 04 fb bb
       0.033768218 0.015410231 0.008978419 -0.0076604085
000040 ff e0 bf bc 7b 23 ed bb 86 3b 95 bc cf 24 df 3c
       -0.023422716 -0.0072368956 -0.01821686 0.027239231
000050 ea d7 09 bd 03 ca 55 3c f1 c8 03 bd 3f b3 c6 bc
       -0.033653177 0.013048652 -0.032174055 -0.024255393
000060 2d d1 1c bb 31 da dc 3c bf 47 d9 bc 00 25 f4 3c
       -0.002392839 0.02695951 -0.026523469 0.0298028
000070 ee dc 99 bb 9e a5 e5 3c 08 b3 2e bc 33 d1 e9 bc
       -0.0046955263 0.028033074 -0.010662802 -0.028542137
000080 10 5c f8 3c 71 7e 08 bd c1 df 53 3c b3 c7 de bc
       0.030317336 -0.03332371 0.012931765 -0.027194833
000090 bc 32 a1 3b b6 cb 85 3c 3f 03 a9 3c e2 f5 b7 bc
       0.004919378 0.016332489 0.02063143 -0.022456113
0000a0 27 fc a5 bc 18 f7 c4 3c 9c ff 97 bc 1b 73 e5 bc
       -0.020261837 0.024043605 -0.018554501 -0.028008988
0000b0 4c 72 f5 bc 41 5c b8 bc 6f f6 0c 3d c5 7b 08 bd
       -0.029961728 -0.022504928 0.034414705 -0.03332116
0000c0 f5 5a 4e 3c 58 06 a2 bb c5 8b 04 3c 2f 3f 51 bc
       0.012594928 -0.004944604 0.008089964 -0.012771412
0000d0 e5 0e 00 bb 04 ab f7 3c 9a 3d e0 bb 0f 26 e9 bb
       -0.0019540128 0.030232914 -0.006843281 -0.0071151326
0000e0 85 54 16 3c 2e ce d0 bc 60 31 be 3c fd 72 42 b8
       0.009175424 -0.02548894 0.023216903 -4.6360296e-05
0000f0 e5 a8 08 3d 83 fe 1c bc f3 0c 3e 3c 40 c2 95 3c
       0.033364195 -0.009582165 0.011599767 0.018281102
000100 3f fd f9 bc 4c c0 c4 bc ec 2a b9 3c 7f 6a 33 bc
       -0.030516265 -0.024017476 0.022603475 -0.010950684
000110 5f ef 9f 3c 43 1b 5a bc 5b 95 e3 bc 67 68 d6 3c
       0.01952332 -0.013312164 -0.02778118 0.02617283
000120 b5 46 fa 3c 2c 80 06 bd 76 3d 05 3d 26 54 a1 3c
       0.030551294 -0.032837078 0.032529317 0.019693445
000130 bc 60 9d bc ad b7 ab 3c 90 ab 19 bc 61 99 5b 3c
       -0.019211166 0.020961607 -0.009379283 0.013403268
000140 4f ed bd 3c 9a 9c 7d 3c 7e bd 81 3c 1c 70 f9 bc
       0.023184447 0.015479231 0.015837427 -0.030448966
000150 80 79 0e ba a2 02 c3 3c ac ba f2 3b ac f9 ad 3c
       -0.0005434975 0.023804966 0.007407507 0.021237217
000160 10 5a 0a 3d 08 55 8c 3c c3 da d0 bb bf 83 8f 3c
       0.033777297 0.01713039 -0.0063737347 0.017518876
000170 29 59 0c 3d 7e 9e 43 bb 31 1b b9 bc 24 7a dc 3c
       0.034264717 -0.0029849107 -0.022595974 0.02691371
000180 38 bd cb 3c 2e 95 b3 bc a5 86 27 3c 4c fe 74 3c
       0.0248705 -0.02192172 0.010224973 0.014953207
000190 ec 05 3d 3c f0 a4 db 3c 42 90 ff 3c f9 4b c7 3c
       0.011537056 0.026812047 0.031196717 0.024328219
0001a0 56 d8 f1 bc 18 6b d6 3a a9 c2 d6 bc 8f 49 e2 bc
       -0.029522102 0.0016358821 -0.026215868 -0.027622966
0001b0 e3 a8 12 3a ee 9b 09 bd 1c 2b 01 3d 1a 2a 24 bc
       0.0005594624 -0.03359597 0.031535253 -0.010019803
0001c0 eb 0c cc 3c ae 67 d1 3c a6 ca 17 3c d8 75 5b bc
       0.024908504 0.025562134 0.009264624 -0.013394795
0001d0 c1 3d 07 bd 78 5f 19 bd 91 a0 fe 3c ce 93 22 bc
       -0.033017877 -0.03744456 0.031082423 -0.009922935
0001e0 da 7e 2f 3c 1d 07 38 3c c0 1d 08 3d 1f 57 48 3c
       0.010711396 0.011232165 0.033231497 0.012227803
0001f0 c6 81 e4 3c 4c 05 38 bb 2c 5b 23 3c 13 ba de bb
       0.027893912 -0.002807933 0.009970468 -0.006797084
000200 01 64 fe 3c f1 94 90 bb 2c a2 ab bc 46 8d bc bb
       0.031053545 -0.0044122864 -0.020951353 -0.005754146
000210 2f 18 c2 3c 28 e4 d2 3b 25 df 16 3d 6a 74 31 3c
       0.023693172 0.0064358898 0.0368339 0.010830978
000220 b3 34 a8 3b 76 70 c8 3c 72 31 16 3d 70 70 66 3c
       0.0051332354 0.024467688 0.03666825 0.014064893
000230 9c 0e 9b bc 83 b4 04 3d 39 35 ef 3c 26 3e f4 3b
       -0.018927865 0.032398712 0.029200183 0.0074536977
000240 78 33 b8 3b c2 83 db 3b 50 a2 d6 3c d5 c0 c6 3c
       0.00562137 0.0066990564 0.026200444 0.024261871
000250 fc 7c 3d 3c dc f4 c4 3b f5 48 fc 3c 36 9b 8a 3c
       0.011565443 0.006010635 0.030796507 0.016919713
000260 94 52 09 3d 57 a6 f2 3b 74 8a 0a bd 48 ec 30 3b
       0.03352602 0.007405083 -0.033823445 0.0026996303
000270 20 59 d2 bc 2b ab 18 3b 21 c1 8c 3b 60 5c 03 bd
       -0.025677264 0.0023295383 0.0042954837 -0.032070518
000280 e9 31 75 bc 8c d4 05 bd 3b 40 15 3d 74 1c 17 bd
       -0.014965513 -0.032673404 0.036438208 -0.03689237
000290 1c d4 b1 3c 76 08 f0 3c ec 7c 22 3c 77 ef 79 3c
       0.021707587 0.02930091 0.009917479 0.015254847
0002a0 14 ba 4f bc 27 47 44 3b 03 07 00 3d ca 08 56 3c
       -0.012678642 0.0029949637 0.031256687 0.013063619
0002b0 e7 66 c6 3c d1 b1 5c 3c 1d 6d a0 3c b3 d2 70 3a
       0.02421899 0.013470129 0.01958328 0.000918667
0002c0 ce 43 dc bc 54 8c dd bb 22 38 d0 bc a3 85 da bc
       -0.0268878 -0.006761113 -0.025417391 -0.026675051
0002d0 2a ba 14 3d 30 84 d3 bc 89 7b 13 bc 16 02 e4 bc
       0.036310352 -0.025819868 -0.009001621 -0.027833026
0002e0 a1 be a0 3b e2 19 e0 bc 83 35 b7 bb de 3b 07 bb
       0.0049055372 -0.027356092 -0.005591096 -0.002063505
0002f0 59 6a 03 bd af 39 b8 3c 95 5e ac bc 12 1c 16 3d
       -0.032083843 0.022488443 -0.021041194 0.036647864
000300 0b 3f 14 3d 26 a4 95 3c 22 73 95 bc f0 18 f8 bc
       0.036192935 0.018266749 -0.018243376 -0.030285329
000310 23 30 0f 3d ae ca ec 3b 3a 48 3d bb a6 d3 cd bc
       0.034958016 0.0072263097 -0.0028882162 -0.025125336
000320 47 73 05 3c 0d 34 99 bc 6d 73 7c 3c c1 db a6 3c
       0.00814516 -0.018701578 0.015408379 0.020368459
000330 04 13 97 bb 44 de b4 bb 2c bf 9f bb 82 2c 10 3d
       -0.004610421 -0.00551966 -0.0048750844 0.035198696
000340 44 a1 e8 bc f3 ad f2 3a 20 e4 01 bc bf 40 cb bb
       -0.02839721 0.0018514976 -0.007927924 -0.0062027867
000350 1f cd 81 3c 71 f0 82 3c 37 f1 ef 3c 78 ec 77 3b
       0.01584488 0.015983792 0.029289825 0.0037830155
000360 98 dc c2 3b 6c a4 0a bd e3 74 3e 3c 5b 62 fe bb
       0.005946707 -0.03384821 0.011624548 -0.0077631897
000370 6d 1e 60 3c a3 b5 84 bc 86 cc eb bb 47 4c 8a bc
       0.013679129 -0.016199892 -0.007196012 -0.016882075
000380 23 73 e3 bc f2 4b 9c 3c 19 8c 99 3c a5 9f 7f bb
       -0.027764862 0.019079182 0.018743562 -0.0039005068
000390 71 89 de 3c 19 b5 b2 3c 6d ef d6 bc 8c 5d 04 bd
       0.027165147 0.02181487 -0.026237214 -0.032315776
0003a0 5e 3b 05 3d 55 de 28 3b 14 78 1b bd 4a f7 1d 3c
       0.03252732 0.0025767286 -0.037956312 0.009641478
0003b0 f7 0a 76 3c 6e 47 86 3c 30 61 20 bc eb b0 bd 3c
       0.015017263 0.016391482 -0.009788796 0.02315565
0003c0 5c 5e d7 bc 6e 8d 45 3c 94 22 a4 bc 9a b0 a5 bb
       -0.026290111 0.012057645 -0.02003602 -0.005056453
0003d0 a5 a0 e7 3c 4e 84 b5 bc 67 2e 80 bb 07 6f aa 3c
       0.028274843 -0.022157814 -0.0039117816 0.020804895
0003e0 ca 6b a8 bc 7d 35 5b 3c d6 aa d8 bc 7e b8 74 3c
       -0.02055921 0.013379452 -0.026448648 0.0149365645
0003f0 dc de fa bc 0c 0a 12 bd 0b f3 b4 bc bd c1 0b 3d
       -0.030623846 -0.035654113 -0.022088548 0.03412031
