components/test/data/autofill/ml_model/autofill_model-br-overfit.tflite (tflite, 585472 bytes, 19 tensors)

model_18/bidirectional_53/backward_lstm_6/lstm_cell/BiasAdd/ReadVariableOp f4 [128]
0	0x00000000	0.0
1	0x00000000	0.0
2	0x00000000	0.0
3	0x00000000	0.0
4	0x00000000	0.0
5	0x00000000	0.0
6	0x00000000	0.0
7	0x00000000	0.0
8	0x00000000	0.0
9	0x00000000	0.0
10	0x00000000	0.0
11	0x00000000	0.0
12	0x00000000	0.0
13	0x00000000	0.0
14	0x00000000	0.0
15	0x00000000	0.0
16	0x00000000	0.0
17	0x00000000	0.0
18	0x00000000	0.0
19	0x00000000	0.0
20	0x00000000	0.0
21	0x00000000	0.0
22	0x00000000	0.0
23	0x00000000	0.0
24	0x00000000	0.0
25	0x00000000	0.0
26	0x00000000	0.0
27	0x00000000	0.0
28	0x00000000	0.0
29	0x00000000	0.0
30	0x00000000	0.0
31	0x00000000	0.0
32	0x3f800000	1.0
33	0x3f800000	1.0
34	0x3f800000	1.0
35	0x3f800000	1.0
36	0x3f800000	1.0
37	0x3f800000	1.0
38	0x3f800000	1.0
39	0x3f800000	1.0
40	0x3f800000	1.0
41	0x3f800000	1.0
42	0x3f800000	1.0
43	0x3f800000	1.0
44	0x3f800000	1.0
45	0x3f800000	1.0
46	0x3f800000	1.0
47	0x3f800000	1.0
48	0x3f800000	1.0
49	0x3f800000	1.0
50	0x3f800000	1.0
51	0x3f800000	1.0
52	0x3f800000	1.0
53	0x3f800000	1.0
54	0x3f800000	1.0
55	0x3f800000	1.0
56	0x3f800000	1.0
57	0x3f800000	1.0
58	0x3f800000	1.0
59	0x3f800000	1.0
60	0x3f800000	1.0
61	0x3f800000	1.0
62	0x3f800000	1.0
63	0x3f800000	1.0
64	0x00000000	0.0
65	0x00000000	0.0
66	0x00000000	0.0
67	0x00000000	0.0
68	0x00000000	0.0
69	0x00000000	0.0
70	0x00000000	0.0
71	0x00000000	0.0
72	0x00000000	0.0
73	0x00000000	0.0
74	0x00000000	0.0
75	0x00000000	0.0
76	0x00000000	0.0
77	0x00000000	0.0
78	0x00000000	0.0
79	0x00000000	0.0
80	0x00000000	0.0
81	0x00000000	0.0
82	0x00000000	0.0
83	0x00000000	0.0
84	0x00000000	0.0
85	0x00000000	0.0
86	0x00000000	0.0
87	0x00000000	0.0
88	0x00000000	0.0
89	0x00000000	0.0
90	0x00000000	0.0
91	0x00000000	0.0
92	0x00000000	0.0
93	0x00000000	0.0
94	0x00000000	0.0
95	0x00000000	0.0
96	0x00000000	0.0
97	0x00000000	0.0
98	0x00000000	0.0
99	0x00000000	0.0
100	0x00000000	0.0
101	0x00000000	0.0
102	0x00000000	0.0
103	0x00000000	0.0
104	0x00000000	0.0
105	0x00000000	0.0
106	0x00000000	0.0
107	0x00000000	0.0
108	0x00000000	0.0
109	0x00000000	0.0
110	0x00000000	0.0
111	0x00000000	0.0
112	0x00000000	0.0
113	0x00000000	0.0
114	0x00000000	0.0
115	0x00000000	0.0
116	0x00000000	0.0
117	0x00000000	0.0
118	0x00000000	0.0
119	0x00000000	0.0
120	0x00000000	0.0
121	0x00000000	0.0
122	0x00000000	0.0
123	0x00000000	0.0
124	0x00000000	0.0
125	0x00000000	0.0
126	0x00000000	0.0
127	0x00000000	0.0

model_18/bidirectional_53/forward_lstm_6/lstm_cell/BiasAdd/ReadVariableOp f4 [128]
0	0x3d3e1956	0.04641088
1	0x3d63a6ae	0.05557888
2	0x3cab2e43	0.020896083
3	0x3d764f38	0.060134143
4	0x3d3c8882	0.04602862
5	0x3d2c775f	0.04210603
6	0x3e1fa552	0.15590408
7	0x3cccc9d4	0.024998583
8	0x3e52a781	0.2057171
9	0x3d7425d7	0.0596064
10	0x3cb298db	0.021801403
11	0x3d8aedee	0.06783663
12	0x3dd33738	0.103132665
13	0x3cdd62a7	0.02702458
14	0x3d1a77df	0.037711974
15	0x3dcc9531	0.099893935
16	0x3d532445	0.05154826
17	0x3cffb897	0.031215949
18	0x3d54e9c0	0.051980734
19	0x3d5b26b7	0.05350372
20	0x3d69774a	0.05699853
21	0x3c771bd7	0.015082321
22	0x3dd2cc4d	0.102928735
23	0x3d05dc7b	0.03268097
24	0x3cf3896a	0.02972861
25	0x3dad8fb4	0.08474675
26	0x3d42d1d5	0.047563393
27	0x3d3d3612	0.046194144
28	0x3cf3633d	0.029710406
29	0x3db5736e	0.08859907
30	0x3db6c8ec	0.089250416
31	0x3d9caef2	0.07650556
32	0x3f870401	1.0548097
33	0x3f8b190c	1.0867019
34	0x3f868ffb	1.0512689
35	0x3f809fc0	1.0048752
36	0x3f80763e	1.0036085
37	0x3f86e53f	1.053871
38	0x3f8bc240	1.0918655
39	0x3f85a4a5	1.044087
40	0x3f866197	1.0498532
41	0x3f815b02	1.0105898
42	0x3f812c47	1.0091637
43	0x3f876760	1.0578423
44	0x3f7b9775	0.9827798
45	0x3f7ff6f6	0.9998621
46	0x3f888f08	1.066865
47	0x3f8b224a	1.0869839
48	0x3f885db1	1.0653592
49	0x3f82e9b0	1.0227566
50	0x3f81aa7a	1.013015
51	0x3f7e7086	0.9939045
52	0x3f889b35	1.0672365
53	0x3f844da5	1.0336195
54	0x3f6c499d	0.92299825
55	0x3f83f8d9	1.0310317
56	0x3f8512bd	1.0396343
57	0x3f7e82d3	0.9941837
58	0x3f8151b1	1.0103055
59	0x3f80658b	1.0030988
60	0x3f81558f	1.0104235
61	0x3f8bc932	1.0920775
62	0x3f82e1b4	1.0225129
63	0x3f7a3a6f	0.9774541
64	0xbca297f6	-0.019847851
65	0x3c88a326	0.016679358
66	0xbcc3ef9d	-0.023917967
67	0x3d368450	0.044559777
68	0x3d1dab7c	0.03849362
69	0xbc3575fd	-0.011075494
70	0xbd0b19b1	-0.033960048
71	0xbcfdb741	-0.030971171
72	0x3d6cd2b2	0.057818122
73	0x3d538497	0.05164012
74	0x3d1b80a4	0.037964478
75	0x3c6d54fd	0.014485595
76	0xbd4930d0	-0.049118817
77	0x3cd291af	0.025704233
78	0x3c83a384	0.016069181
79	0xbd87cc3a	-0.0663075
80	0x3d2afde2	0.041746028
81	0xbd32bf96	-0.04363974
82	0xbd4c90f4	-0.049942926
83	0x3d380ea6	0.044935845
84	0x3d36ee69	0.04466096
85	0x3d08b757	0.03337797
86	0x3d0b8dff	0.034070965
87	0xbd375644	-0.044760004
88	0xbd37a1b9	-0.044831965
89	0x3d2c3aa0	0.042048097
90	0x3d3415fb	0.043966275
91	0xbd0ef3ca	-0.034900464
92	0xbd110a16	-0.03541001
93	0xbd09fcf3	-0.033688497
94	0xbcdfc89d	-0.02731734
95	0xbcab0359	-0.02087562
96	0x3d6a51f9	0.05720708
97	0x3d8250d1	0.06363071
98	0xbad8dfe2	-0.0016546214
99	0x3d883c05	0.06652073
100	0xbd054fc2	-0.032546766
101	0xb9e02740	-0.00042753853
102	0x3e2c303a	0.16815272
103	0x3be8de88	0.007106606
104	0x3e5f50c8	0.2180816
105	0x3d2dc30b	0.042422336
106	0x3c07ed40	0.008296311
107	0x3dac1c18	0.08403796
108	0x3de00f19	0.1094038
109	0x3d336414	0.043796614
110	0x3d98f4d8	0.07468575
111	0x3d722d02	0.059124954
112	0x3d5468f5	0.051857907
113	0x3d20e171	0.039277498
114	0x3d44a3bc	0.04800771
115	0x3cdc9073	0.026924348
116	0x3d857bab	0.065177284
117	0xbc55cbfa	-0.01304912
118	0x3dc68618	0.09693545
119	0x3c4bf9ce	0.012449695
120	0x3c58ced0	0.013232902
121	0x3d8c0e03	0.0683861
122	0x3cd20554	0.025637306
123	0x3d678b9f	0.056529637
124	0x3cd13ef4	0.025542714
125	0x3e038e90	0.12847352
126	0x3dae6c3f	0.0851674
127	0x3d9879f2	0.07445134

model_18/dense_54/BiasAdd/ReadVariableOp f4 [64]
0	0xbd76fe2e	-0.060301
1	0xbd5fa166	-0.05459728
2	0xbc59e358	-0.013298832
3	0x3d8c6436	0.06855051
4	0xbdf19202	-0.11795427
5	0x3d3e5c49	0.04647473
6	0x3bb0bc00	0.005393505
7	0xbd7126b5	-0.058874805
8	0xbca13bb3	-0.019681787
9	0x3d6f6347	0.058444288
10	0xbd6cf508	-0.057850868
11	0x3b2a7cef	0.0026014408
12	0x3d299447	0.041401174
13	0x3cc59352	0.0241181
14	0xbd954a74	-0.072895914
15	0x3d60a690	0.054846346
16	0xbd20d676	-0.039267026
17	0xbd704139	-0.05865595
18	0x3da52886	0.0806437
19	0xbce52308	-0.027970806
20	0x3bccbdb9	0.0062482026
21	0x3db94937	0.09047168
22	0xbcd4b2e5	-0.02596421
23	0x3b6bae92	0.0035962206
24	0x3d002438	0.03128454
25	0xbd72a173	-0.059236
26	0xbcf074ee	-0.029352631
27	0x3d288aed	0.041148115
28	0x3d7d665a	0.06186519
29	0xbcef262a	-0.029193003
30	0x3d330c08	0.043712646
31	0xbd140e5a	-0.0361465
32	0x3d3debef	0.046367582
33	0xbd830d67	-0.06399041
34	0xbc06c1a5	-0.008224879
35	0xbe04750c	-0.12935275
36	0x3d283505	0.04106619
37	0xbd4ddfc0	-0.050262213
38	0xbb66eb2c	-0.0035235388
39	0xbd5778ea	-0.052605547
40	0xbc1c7e11	-0.009551541
41	0xba6bc021	-0.0008993168
42	0x3d03d4b2	0.032185264
43	0xbc340553	-0.0109875975
44	0xbbc12891	-0.0058947285
45	0xbd6238e1	-0.055230025
46	0xbd2d5661	-0.042318705
47	0x3c68f994	0.01421966
48	0xbd290efe	-0.041274063
49	0x3de74d9d	0.112941004
50	0x3db47c6e	0.088127956
51	0xbb9ee6d4	-0.004849294
52	0x3c69c511	0.014268176
53	0xbd5690ec	-0.052384302
54	0xbc6dc45e	-0.01451215
55	0xbbeb0075	-0.0071716853
56	0x3d9f443a	0.07776685
57	0x3ca5e0cb	0.020248791
58	0x3cc3325f	0.02382773
59	0x3d7b9ef5	0.06143089
60	0xbd407ac9	-0.046992097
61	0x3d9c027f	0.076176636
62	0xbb2eb718	-0.0026659425
63	0x3da33b82	0.079703346

model_18/dense_55/BiasAdd/ReadVariableOp f4 [32]
0	0xbc4687ae	-0.0121173095
1	0xbdb3ec7d	-0.08785341
2	0x3cc88efe	0.024482246
3	0x3cd0de83	0.025496727
4	0x3c956710	0.01823762
5	0x3db0ab9b	0.08626481
6	0x3b8ca7f7	0.004292484
7	0xbdca7a1d	-0.098865725
8	0xbd91d87f	-0.071213715
9	0x3de40d4a	0.11135347
10	0xbb9d23ab	-0.0047955117
11	0x3c821418	0.015878722
12	0xbdd47846	-0.10374503
13	0x3d82d81f	0.06388878
14	0xbd94e68b	-0.07270535
15	0x3d36085b	0.044441562
16	0x3c7ab933	0.015302944
17	0xbcb5f2b0	-0.022210449
18	0x3d9d67ba	0.076858
19	0x3d9cc12c	0.07654032
20	0xbd447e22	-0.047971852
21	0xbd1db5c3	-0.03850342
22	0x3de7e631	0.113232024
23	0x3d743efe	0.059630387
24	0xbd7665ea	-0.060155787
25	0xbcf695b4	-0.03010068
26	0x3d0a9e56	0.033842407
27	0x3c8e39df	0.01736158
28	0xbd7810c9	-0.060562883
29	0x3d24bafc	0.040217385
30	0x3d644ece	0.055739217
31	0x3d53bbc6	0.051692747

model_18/dense_56/BiasAdd/ReadVariableOp f4 [57]
0	0xbd3d44ce	-0.046208195
1	0x3d199b30	0.037501514
2	0xbd59805b	-0.053100925
3	0xbb34e346	-0.0027601286
4	0xbd518c27	-0.05115905
5	0xbd7a71a6	-0.06114354
6	0xbd671599	-0.05641708
7	0xbd578967	-0.05262127
8	0xbd39310c	-0.04521279
9	0xbd741856	-0.05959352
10	0xbd5a0a8e	-0.053232722
11	0xbd7df75d	-0.062003482
12	0xbd742575	-0.059606034
13	0xbd79bc1f	-0.060970422
14	0xbd5a214c	-0.05325441
15	0xbd6644b9	-0.056217883
16	0xbd7f1cb7	-0.062283244
17	0xbd4420d5	-0.047882874
18	0xbd47de5d	-0.048796047
19	0xbd881319	-0.066442676
20	0xbd2ee09b	-0.04269467
21	0xbd8047c1	-0.06263686
22	0xbd645e1e	-0.05575382
23	0xbd463cdc	-0.048397884
24	0xbd5072ed	-0.05089085
25	0xbd8cd4be	-0.06876515
26	0xbd414635	-0.047186095
27	0xbd580c19	-0.052745912
28	0xbd71430a	-0.058901824
29	0xbd8b5524	-0.06803349
30	0xbd8b5495	-0.06803242
31	0xbd7c25d4	-0.061559513
32	0xbd83c796	-0.06434552
33	0xbd7d2b92	-0.06180913
34	0xbd501f3f	-0.05081105
35	0xbd48b053	-0.04899628
36	0xbd4b06d9	-0.049567077
37	0xbd687d29	-0.056759987
38	0xbd5fc10b	-0.05462746
39	0xbd3ef15c	-0.046616897
40	0xbd9f7634	-0.07786217
41	0xbd5454a9	-0.05183855
42	0xbd6da3f0	-0.05801767
43	0xbd985571	-0.07438172
44	0x3e0357a8	0.12826407
45	0x3df93931	0.121691115
46	0xbd63534b	-0.055499356
47	0xbd7213d8	-0.059100956
48	0x3cd41c72	0.02589247
49	0xbd6abf49	-0.05731133
50	0xbd4d59dc	-0.050134525
51	0xbd64224b	-0.055696767
52	0x3d2f0c00	0.042736053
53	0xbd4f167b	-0.05055855
54	0xbd4ce66c	-0.050024435
55	0xbd29c20f	-0.041444834
56	0xbd518bb3	-0.05115862

model_18/label_model/time_distributed_35/bidirectional_52/forward_lstm_combine_label_words/lstm_cell/BiasAdd/ReadVariableOp f4 [128]
0	0x3e15fdce	0.146476
1	0x3dd50527	0.10401373
2	0x3d8ef22c	0.06979784
3	0x3d97fdb6	0.074214384
4	0x3dde10d9	0.10843057
5	0x3da8bab5	0.082387365
6	0x3d95bb21	0.07311083
7	0x3e16dbea	0.14732328
8	0x3d8756b1	0.06608332
9	0x3d61e9bb	0.055154543
10	0x3de89701	0.11356927
11	0x3e07c8ba	0.13260165
12	0x3def4308	0.11682707
13	0x3db3d93d	0.08781669
14	0x3d9c28b3	0.0762495
15	0x3e08abda	0.13346806
16	0x3db44b9c	0.08803484
17	0x3d938c9d	0.07204554
18	0x3e3ec1ee	0.18628666
19	0x3da37d48	0.0798288
20	0x3d912051	0.07086242
21	0x3da39a77	0.07988446
22	0x3dd18de2	0.1023214
23	0x3da3245c	0.079659194
24	0x3da641d5	0.08118025
25	0x3da3f88b	0.0800639
26	0x3d9bd696	0.076092884
27	0x3d99914a	0.07498415
28	0x3d9d8b85	0.07692627
29	0x3d992c88	0.07479197
30	0x3e19862d	0.1499259
31	0x3dab18a1	0.08354307
32	0x3f8e8d8c	1.1136947
33	0x3f8734ef	1.0563029
34	0x3f88c018	1.0683622
35	0x3f85b4cd	1.0445801
36	0x3f899b1e	1.0750463
37	0x3f88c641	1.0685502
38	0x3f885f66	1.0654113
39	0x3f8f05d3	1.1173652
40	0x3f87c9a8	1.0608416
41	0x3f84543b	1.0338205
42	0x3f88e8a7	1.0696
43	0x3f8b630f	1.0889605
44	0x3f8a6d5e	1.0814626
45	0x3f890aee	1.070646
46	0x3f87ccec	1.0609412
47	0x3f8cd0cd	1.1001221
48	0x3f879b26	1.0594223
49	0x3f87c987	1.0608376
50	0x3f8c3ffd	1.0957028
51	0x3f8910dc	1.070827
52	0x3f86e635	1.0539004
53	0x3f89b286	1.0757606
54	0x3f884b3e	1.0647962
55	0x3f8a0dc1	1.0785447
56	0x3f872aa6	1.055989
57	0x3f86ff4a	1.0546658
58	0x3f85ea9d	1.0462223
59	0x3f87fe58	1.0624495
60	0x3f8ee53e	1.1163709
61	0x3f88af88	1.0678568
62	0x3f8ead03	1.1146549
63	0x3f88f3ec	1.0699439
64	0x3d78f6be	0.060782187
65	0x3d7299f0	0.059228837
66	0x3d456920	0.04819596
67	0x3d3c407d	0.04595994
68	0xbd73c807	-0.059516933
69	0x3d6ee920	0.058327794
70	0x3d1a6fb3	0.03770418
71	0x3d8a0b09	0.06740386
72	0xbcd6ec15	-0.02623562
73	0xbd09970a	-0.033591308
74	0x3d72ba04	0.05925943
75	0x3d594a4b	0.053049367
76	0x3d7256a7	0.05916467
77	0xbd59507c	-0.05305527
78	0x3d453bec	0.04815285
79	0xbd8b7c14	-0.068107754
80	0xbd6a27b7	-0.05716678
81	0xbd4c2b72	-0.04984612
82	0xbd8ffc90	-0.07030594
83	0x3d46ae0d	0.04850583
84	0xbd396043	-0.045257818
85	0x3d61d1c6	0.055131696
86	0x3d45756d	0.04820769
87	0xbd533eaf	-0.05157345
88	0xbd3b1bb5	-0.04568072
89	0x3d47c143	0.048768293
90	0x3d4b2f57	0.049605694
91	0xbd41f896	-0.04735621
92	0xbc8039e1	-0.015652599
93	0x3d5b11ac	0.05348365
94	0x3d94c18f	0.07263481
95	0x3d5472b1	0.05186719
96	0x3e1882a6	0.14893588
97	0x3dd415fa	0.10355754
98	0x3d93a2ef	0.072088115
99	0x3da14393	0.07874217
100	0x3ddd8867	0.10817032
101	0x3daac07b	0.08337494
102	0x3da050b2	0.078278914
103	0x3e1f2613	0.15541868
104	0x3d95368c	0.072857946
105	0x3d72f320	0.059313893
106	0x3de27928	0.11058265
107	0x3e095a08	0.1341325
108	0x3de8f3be	0.11374615
109	0x3db36e75	0.087613024
110	0x3d9e6ec5	0.07735971
111	0x3e0b1ceb	0.1358525
112	0x3db68e95	0.08913914
113	0x3d9b1e78	0.07574171
114	0x3e41b383	0.18916135
115	0x3da85ba2	0.082206026
116	0x3d9474dc	0.07248852
117	0x3da7fbf8	0.08202356
118	0x3dd113a8	0.10208827
119	0x3da33260	0.07968593
120	0x3da54f00	0.08071709
121	0x3db0dc7f	0.08635806
122	0x3d9cafde	0.076507315
123	0x3d9b3aad	0.07579551
124	0x3db8c538	0.090219915
125	0x3d9da14b	0.0769678
126	0x3e1d11e1	0.15338852
127	0x3dac770d	0.08421145

model_18/label_model/time_distributed_35/bidirectional_52/backward_lstm_combine_label_words/lstm_cell/BiasAdd/ReadVariableOp f4 [128]
0	0x3d6f49c0	0.058419943
1	0x3db4f952	0.088366166
2	0x3d6aae6c	0.057295248
3	0x3e06a0f6	0.13147339
4	0x3dd8ef85	0.1059256
5	0x3d84e2ca	0.06488569
6	0x3e0b67d3	0.13613825
7	0x3e3075d9	0.17232455
8	0x3e0e4d2e	0.13896629
9	0x3daf4087	0.085572295
10	0x3dff40da	0.12463541
11	0x3de0f0b2	0.10983409
12	0x3db3ef0a	0.087858275
13	0x3d9ed666	0.07755737
14	0x3d9c6168	0.07635766
15	0x3d9bc0cb	0.07605132
16	0x3dbc522f	0.09195363
17	0x3da1b8c3	0.078965686
18	0x3e05ac6e	0.13054058
19	0x3dee8c1b	0.11647817
20	0x3da3d237	0.0799908
21	0x3da9e1cb	0.0829502
22	0x3d83ddcf	0.06438791
23	0x3d6f3017	0.05839547
24	0x3e08057a	0.13283339
25	0x3dc8f975	0.09813205
26	0x3deb6dc5	0.11495546
27	0x3d8deb14	0.06929603
28	0x3ddefc54	0.108879715
29	0x3e2926bd	0.16518684
30	0x3d84e737	0.06489413
31	0x3d91f4dc	0.07126781
32	0x3f85eaeb	1.0462316
33	0x3f879512	1.0592368
34	0x3f876164	1.0576596
35	0x3f8b1107	1.0864571
36	0x3f8c0297	1.093829
37	0x3f884281	1.0645295
38	0x3f8ee646	1.1164024
39	0x3f91cb8d	1.1390244
40	0x3f8a0e3e	1.0785596
41	0x3f897eba	1.0741799
42	0x3f8cb270	1.0991955
43	0x3f889d63	1.0673031
44	0x3f89458e	1.0724351
45	0x3f860cc9	1.0472652
46	0x3f86c77e	1.052963
47	0x3f89f851	1.0778905
48	0x3f87b627	1.0602463
49	0x3f8775bc	1.0582805
50	0x3f88ccc8	1.0687494
51	0x3f89d4d7	1.0768079
52	0x3f8939a2	1.0720713
53	0x3f894d19	1.0726653
54	0x3f863718	1.0485563
55	0x3f867694	1.0504937
56	0x3f8c802f	1.0976619
57	0x3f8b8b9f	1.0901984
58	0x3f8a6b04	1.0813909
59	0x3f877baa	1.0584614
60	0x3f89eddf	1.0775717
61	0x3f8ba3bb	1.0909342
62	0x3f86e2f1	1.0538007
63	0x3f876104	1.0576482
64	0xbd4c3dec	-0.04986374
65	0xbd5a89af	-0.05335396
66	0x3d36443e	0.044498675
67	0xbd4c75a7	-0.04991689
68	0x3d56e6b8	0.052466124
69	0x3d2fe368	0.04294148
70	0xbd6257ec	-0.05525963
71	0xbd7d25d6	-0.06180366
72	0x3d3a4f0b	0.045485537
73	0x3d5fa578	0.054601163
74	0x3d8bf90a	0.0683461
75	0x3d8c2244	0.06842473
76	0xbd694cc8	-0.05695799
77	0xbd55b845	-0.052177686
78	0xbd4def07	-0.050276782
79	0xbd4e1a41	-0.050318006
80	0xbd628448	-0.055301934
81	0xbd2e489a	-0.042549707
82	0x3d189406	0.03725054
83	0xbd64435c	-0.0557283
84	0xbd4bb9ef	-0.049737867
85	0x3d4c8001	0.04992676
86	0x3cfa9393	0.030587947
87	0xbd113926	-0.03545489
88	0xbd91d109	-0.071199484
89	0x3d4826f0	0.04886526
90	0xbd089196	-0.033341967
91	0x3d4d61b5	0.05014201
92	0x3d704703	0.058661472
93	0x3d609d93	0.054837774
94	0xbd51be63	-0.051206958
95	0xbd3fd1c4	-0.046830907
96	0x3d8103c3	0.062995456
97	0x3dbeb298	0.09311408
98	0x3d7d04f1	0.06177229
99	0x3e06137c	0.1309337
100	0x3dd9d13e	0.10635613
101	0x3d8d9733	0.069136046
102	0x3e0f40f0	0.13989615
103	0x3e369883	0.17831616
104	0x3e0d6cf2	0.1381109
105	0x3db8f075	0.090302385
106	0x3dfd3728	0.12364036
107	0x3dcec527	0.100961976
108	0x3dbcadd3	0.09212842
109	0x3da555c4	0.08072999
110	0x3da526ee	0.08064066
111	0x3da101e3	0.07861688
112	0x3dbdcb2f	0.0926727
113	0x3dabcd92	0.08388819
114	0x3e056fc2	0.13030913
115	0x3dec2a86	0.11531548
116	0x3da887be	0.08229016
117	0x3dad927e	0.08475207
118	0x3d9379e9	0.07200987
119	0x3d80c6fa	0.06287952
120	0x3e05e0ea	0.13074079
121	0x3dd6859a	0.10474701
122	0x3dfa2e7f	0.122159
123	0x3d934102	0.07190134
124	0x3de459e3	0.11149957
125	0x3e22fd9e	0.1591706
126	0x3d8aa21b	0.067692004
127	0x3d9d20a7	0.076722436

model_18/label_model/embedding_18/embedding_lookup i1 [10001, 32] scale=0.0017849064 zero_point=0
0	0xe4	-0.049977377
1	0x0e	0.024988689
2	0x16	0.03926794
3	0x07	0.012494344
4	0x15	0.037483033
5	0xfc	-0.0071396255
6	0x0b	0.01963397
7	0xf3	-0.023203783
8	0x0e	0.024988689
9	0x17	0.041052848
10	0x17	0.041052848
11	0x06	0.0107094385
12	0x14	0.035698127
13	0xeb	-0.037483033
14	0x0d	0.023203783
15	0xf3	-0.023203783
16	0xeb	-0.037483033
17	0xfa	-0.0107094385
18	0x15	0.037483033
19	0xee	-0.032128315
20	0x00	0.0
21	0xfd	-0.0053547192
22	0xfb	-0.008924532
23	0xf2	-0.024988689
24	0x0c	0.021418877
25	0xfc	-0.0071396255
26	0xea	-0.03926794
27	0xf9	-0.012494344
28	0x0e	0.024988689
29	0xf9	-0.012494344
30	0x16	0.03926794
31	0x10	0.028558502
32	0x16	0.03926794
33	0xef	-0.030343408
34	0x1a	0.046407565
35	0xe7	-0.04462266
36	0xfa	-0.0107094385
37	0x01	0.0017849064
38	0xeb	-0.037483033
39	0x04	0.0071396255
40	0xf2	-0.024988689
41	0x0d	0.023203783
42	0x1b	0.04819247
43	0xfb	-0.008924532
44	0xf8	-0.014279251
45	0xf2	-0.024988689
46	0xfe	-0.0035698127
47	0xff	-0.0017849064
48	0xea	-0.03926794
49	0x06	0.0107094385
50	0xfb	-0.008924532
51	0x04	0.0071396255
52	0xed	-0.03391322
53	0xf0	-0.028558502
54	0xfb	-0.008924532
55	0xfe	-0.0035698127
56	0xec	-0.035698127
57	0xf8	-0.014279251
58	0xe9	-0.041052848
59	0x15	0.037483033
60	0x07	0.012494344
61	0xeb	-0.037483033
62	0x06	0.0107094385
63	0x0b	0.01963397
64	0x07	0.012494344
65	0x17	0.041052848
66	0x06	0.0107094385
67	0x03	0.0053547192
68	0x04	0.0071396255
69	0xf3	-0.023203783
70	0xed	-0.03391322
71	0xec	-0.035698127
72	0x16	0.03926794
73	0xed	-0.03391322
74	0xec	-0.035698127
75	0xef	-0.030343408
76	0x12	0.032128315
77	0xed	-0.03391322
78	0xea	-0.03926794
79	0x0c	0.021418877
80	0xf1	-0.026773596
81	0xed	-0.03391322
82	0xf5	-0.01963397
83	0x09	0.016064158
84	0xee	-0.032128315
85	0x03	0.0053547192
86	0x02	0.0035698127
87	0x06	0.0107094385
88	0xe7	-0.04462266
89	0x0e	0.024988689
90	0xed	-0.03391322
91	0xf1	-0.026773596
92	0x0d	0.023203783
93	0x16	0.03926794
94	0xf6	-0.017849064
95	0x09	0.016064158
96	0xfc	-0.0071396255
97	0xf4	-0.021418877
98	0xec	-0.035698127
99	0xef	-0.030343408
100	0xe8	-0.042837754
101	0xee	-0.032128315
102	0x17	0.041052848
103	0xef	-0.030343408
104	0x0d	0.023203783
105	0xf3	-0.023203783
106	0x15	0.037483033
107	0x09	0.016064158
108	0x02	0.0035698127
109	0x0c	0.021418877
110	0xe8	-0.042837754
111	0x03	0.0053547192
112	0x01	0.0017849064
113	0x08	0.014279251
114	0x05	0.008924532
115	0x0d	0.023203783
116	0x0d	0.023203783
117	0xee	-0.032128315
118	0xf5	-0.01963397
119	0x02	0.0035698127
120	0xfe	-0.0035698127
121	0xf1	-0.026773596
122	0xf1	-0.026773596
123	0xe6	-0.046407565
124	0x14	0.035698127
125	0x14	0.035698127
126	0x0d	0.023203783
127	0x11	0.030343408
128	0x11	0.030343408
129	0xe8	-0.042837754
130	0xf8	-0.014279251
131	0x00	0.0
132	0xe9	-0.041052848
133	0xef	-0.030343408
134	0x07	0.012494344
135	0xea	-0.03926794
136	0x1b	0.04819247
137	0xfe	-0.0035698127
138	0x19	0.04462266
139	0x14	0.035698127
140	0xef	-0.030343408
141	0x09	0.016064158
142	0x0a	0.017849064
143	0x01	0.0017849064
144	0x13	0.03391322
145	0x14	0.035698127
146	0x19	0.04462266
147	0xff	-0.0017849064
148	0xf6	-0.017849064
149	0x11	0.030343408
150	0x00	0.0
151	0xf1	-0.026773596
152	0xe7	-0.04462266
153	0xf7	-0.016064158
154	0x16	0.03926794
155	0xf9	-0.012494344
156	0x09	0.016064158
157	0x18	0.042837754
158	0x04	0.0071396255
159	0x0f	0.026773596
160	0xbd	-0.119588725
161	0xe7	-0.04462266
162	0x31	0.08746041
163	0x16	0.03926794
164	0x2f	0.0838906
165	0x29	0.07318116
166	0x3f	0.1124491
167	0xcf	-0.08746041
168	0xbd	-0.119588725
169	0x43	0.119588725
170	0xdf	-0.05890191
171	0x28	0.071396254
172	0xbc	-0.12137363
173	0xc8	-0.099954754
174	0x39	0.10173966
175	0x23	0.06247172
176	0x3d	0.10887929
177	0x42	0.11780382
178	0xcf	-0.08746041
179	0xe3	-0.051762287
180	0xc2	-0.1106642
181	0xb7	-0.13029817
182	0xd4	-0.07853588
183	0xde	-0.060686816
184	0x40	0.11423401
185	0xd4	-0.07853588
186	0xd1	-0.0838906
187	0xc4	-0.107094385
188	0xe4	-0.049977377
189	0x31	0.08746041
190	0xeb	-0.037483033
191	0x3c	0.107094385
192	0xe0	-0.057117004
193	0xc4	-0.107094385
194	0x37	0.09816985
195	0x54	0.14993213
196	0x44	0.12137363
197	0x20	0.057117004
198	0x4f	0.1410076
199	0xc8	-0.099954754
200	0xb0	-0.14279251
201	0x46	0.12494344
202	0xb6	-0.13208307
203	0x48	0.12851326
204	0xc2	-0.1106642
205	0x11	0.030343408
206	0x44	0.12137363
207	0x23	0.06247172
208	0x11	0.030343408
209	0x48	0.12851326
210	0xb6	-0.13208307
211	0xde	-0.060686816
212	0xbe	-0.11780382
213	0xea	-0.03926794
214	0x98	-0.18563026
215	0xed	-0.03391322
216	0x22	0.060686816
217	0xaa	-0.15350194
218	0xd4	-0.07853588
219	0xc1	-0.1124491
220	0xc9	-0.09816985
221	0x0f	0.026773596
222	0xf2	-0.024988689
223	0x4f	0.1410076
224	0x7f	0.22668311
225	0x22	0.060686816
226	0xc7	-0.10173966
227	0xad	-0.14814723
228	0xa4	-0.16421139
229	0x9c	-0.17849064
230	0xea	-0.03926794
231	0x42	0.11780382
232	0x29	0.07318116
233	0xe4	-0.049977377
234	0x17	0.041052848
235	0xa9	-0.15528685
236	0x2d	0.08032079
237	0x56	0.15350194
238	0xab	-0.15171704
239	0xbb	-0.12315854
240	0xc2	-0.1106642
241	0xad	-0.14814723
242	0x0b	0.01963397
243	0x57	0.15528685
244	0x45	0.12315854
245	0x51	0.14457741
246	0x26	0.06782644
247	0x71	0.20169441
248	0x99	-0.18384536
249	0x44	0.12137363
250	0x1f	0.0553321
251	0x3f	0.1124491
252	0x17	0.041052848
253	0xae	-0.14636232
254	0x29	0.07318116
255	0x8f	-0.20169441

model_18/label_model/time_distributed_35/bidirectional_52/backward_lstm_combine_label_words/lstm_cell/MatMul_9 i1 [128, 32] scale=0.0032847398 zero_point=0
0	0xf8	-0.026277918
1	0xb4	-0.24964023
2	0x14	0.065694794
3	0xdf	-0.10839641
4	0x33	0.16752173
5	0x1e	0.09854219
6	0xe5	-0.08868797
7	0xc0	-0.21022335
8	0x11	0.055840578
9	0x22	0.111681156
10	0x40	0.21022335
11	0x0c	0.03941688
12	0xd8	-0.13138959
13	0xf4	-0.03941688
14	0xfe	-0.0065694796
15	0xe1	-0.101826936
16	0x02	0.0065694796
17	0xda	-0.12482011
18	0x1f	0.101826936
19	0xd4	-0.14452855
20	0xfe	-0.0065694796
21	0x42	0.21679282
22	0xfd	-0.00985422
23	0xcf	-0.16095226
24	0xff	-0.0032847398
25	0xfc	-0.013138959
26	0xe4	-0.091972716
27	0xf8	-0.026277918
28	0x3d	0.20036913
29	0x29	0.13467433
30	0x92	-0.3613214
31	0xe1	-0.101826936
32	0xdb	-0.121535376
33	0xd5	-0.14124382
34	0x04	0.013138959
35	0xa9	-0.28577235
36	0x53	0.2726334
37	0x0e	0.045986358
38	0x08	0.026277918
39	0xda	-0.12482011
40	0x2e	0.15109803
41	0x21	0.10839641
42	0x21	0.10839641
43	0x24	0.11825063
44	0xd2	-0.15109803
45	0xff	-0.0032847398
46	0xd9	-0.12810485
47	0xd4	-0.14452855
48	0xd0	-0.15766752
49	0xd6	-0.13795908
50	0x10	0.052555837
51	0xfc	-0.013138959
52	0xd3	-0.14781329
53	0x13	0.062410057
54	0x57	0.28577235
55	0x97	-0.3448977
56	0xee	-0.059125315
57	0x05	0.016423699
58	0xa9	-0.28577235
59	0xfe	-0.0065694796
60	0x01	0.0032847398
61	0x2b	0.14124382
62	0x04	0.013138959
63	0xbe	-0.21679282
64	0xe0	-0.10511167
65	0xda	-0.12482011
66	0x32	0.164237
67	0xe3	-0.09525745
68	0xef	-0.055840578
69	0x3e	0.20365387
70	0xf5	-0.03613214
71	0xbe	-0.21679282
72	0xde	-0.111681156
73	0x2a	0.13795908
74	0x05	0.016423699
75	0x48	0.23650126
76	0xb9	-0.23321652
77	0xf6	-0.032847397
78	0xd5	-0.14124382
79	0xf4	-0.03941688
80	0xd6	-0.13795908
81	0xfe	-0.0065694796
82	0x33	0.16752173
83	0xcf	-0.16095226
84	0xf6	-0.032847397
85	0xfb	-0.016423699
86	0x0e	0.045986358
87	0xf9	-0.022993179
88	0xe6	-0.085403234
89	0x42	0.21679282
90	0xe1	-0.101826936
91	0x54	0.27591816
92	0x0c	0.03941688
93	0x1c	0.091972716
94	0xe6	-0.085403234
95	0xf5	-0.03613214
96	0xd2	-0.15109803
97	0xf9	-0.022993179
98	0x19	0.0821185
99	0xe3	-0.09525745
100	0x18	0.07883376
101	0x3f	0.20693861
102	0xc0	-0.21022335
103	0xbe	-0.21679282
104	0x2b	0.14124382
105	0x32	0.164237
106	0x1d	0.09525745
107	0x3d	0.20036913
108	0xc6	-0.1905149
109	0xba	-0.22993179
110	0xa9	-0.28577235
111	0xe4	-0.091972716
112	0xd5	-0.14124382
113	0xf4	-0.03941688
114	0x14	0.065694794
115	0xcb	-0.1740912
116	0x03	0.00985422
117	0xd2	-0.15109803
118	0x2b	0.14124382
119	0xd6	-0.13795908
120	0x0d	0.042701617
121	0x0f	0.049271096
122	0xed	-0.062410057
123	0x24	0.11825063
124	0x5a	0.29562658
125	0x26	0.12482011
126	0xd0	-0.15766752
127	0xc4	-0.19708438
128	0xb2	-0.2562097
129	0xf7	-0.029562658
130	0x08	0.026277918
131	0x27	0.12810485
132	0x22	0.111681156
133	0x02	0.0065694796
134	0xda	-0.12482011
135	0xf3	-0.042701617
136	0x21	0.10839641
137	0x02	0.0065694796
138	0x35	0.1740912
139	0x2e	0.15109803
140	0xf4	-0.03941688
141	0xe6	-0.085403234
142	0x0a	0.032847397
143	0xd3	-0.14781329
144	0xe7	-0.0821185
145	0xf9	-0.022993179
146	0x1d	0.09525745
147	0xfc	-0.013138959
148	0xd4	-0.14452855
149	0x15	0.06897954
150	0x07	0.022993179
151	0xe0	-0.10511167
152	0x17	0.075549014
153	0x1a	0.085403234
154	0xfd	-0.00985422
155	0x0e	0.045986358
156	0x19	0.0821185
157	0x03	0.00985422
158	0x12	0.059125315
159	0xe8	-0.07883376
160	0xe3	-0.09525745
161	0xcf	-0.16095226
162	0x5d	0.3054808
163	0xa8	-0.2890571
164	0x2d	0.14781329
165	0xe4	-0.091972716
166	0xd9	-0.12810485
167	0xc0	-0.21022335
168	0xe4	-0.091972716
169	0x1c	0.091972716
170	0x3d	0.20036913
171	0x1c	0.091972716
172	0xf6	-0.032847397
173	0xdd	-0.11496589
174	0xe8	-0.07883376
175	0xb4	-0.24964023
176	0xde	-0.111681156
177	0xe8	-0.07883376
178	0x50	0.26277918
179	0xc2	-0.20365387
180	0xe5	-0.08868797
181	0x20	0.10511167
182	0x42	0.21679282
183	0xc2	-0.20365387
184	0xdd	-0.11496589
185	0x09	0.029562658
186	0x02	0.0065694796
187	0x2b	0.14124382
188	0xee	-0.059125315
189	0x2f	0.15438277
190	0xc0	-0.21022335
191	0xe2	-0.09854219
192	0xd4	-0.14452855
193	0xca	-0.17737594
194	0x6c	0.35475188
195	0xcc	-0.17080647
196	0x4a	0.24307075
197	0x35	0.1740912
198	0xca	-0.17737594
199	0x87	-0.39745352
200	0x44	0.22336231
201	0x77	0.39088404
202	0x41	0.21350808
203	0x3b	0.19379964
204	0xc9	-0.1806607
205	0xd2	-0.15109803
206	0xdb	-0.121535376
207	0xe3	-0.09525745
208	0xe3	-0.09525745
209	0xef	-0.055840578
210	0x6c	0.35475188
211	0xde	-0.111681156
212	0xad	-0.2726334
213	0x31	0.16095226
214	0x4b	0.24635549
215	0xeb	-0.06897954
216	0xeb	-0.06897954
217	0x3b	0.19379964
218	0xda	-0.12482011
219	0x3f	0.20693861
220	0x56	0.28248763
221	0x22	0.111681156
222	0xb6	-0.24307075
223	0xb4	-0.24964023
224	0xa9	-0.28577235
225	0xc6	-0.1905149
226	0x35	0.1740912
227	0x87	-0.39745352
228	0x14	0.065694794
229	0x15	0.06897954
230	0xce	-0.164237
231	0xe6	-0.085403234
232	0xfe	-0.0065694796
233	0x61	0.31861976
234	0x2a	0.13795908
235	0x38	0.18394543
236	0xbe	-0.21679282
237	0xbd	-0.22007756
238	0xd1	-0.15438277
239	0xba	-0.22993179
240	0xbb	-0.22664705
241	0xb9	-0.23321652
242	0x0f	0.049271096
243	0x05	0.016423699
244	0xaf	-0.26606393
245	0x11	0.055840578
246	0x44	0.22336231
247	0xcf	-0.16095226
248	0xd1	-0.15438277
249	0x4c	0.24964023
250	0xba	-0.22993179
251	0x1d	0.09525745
252	0x61	0.31861976
253	0x4a	0.24307075
254	0xc8	-0.18394543
255	0xbd	-0.22007756

model_18/label_model/time_distributed_35/bidirectional_52/backward_lstm_combine_label_words/lstm_cell/MatMul_8 i1 [128, 32] scale=0.0031047908 zero_point=0
0	0xfe	-0.0062095816
1	0x24	0.11177247
2	0x56	0.267012
3	0x08	0.024838326
4	0x4e	0.24217369
5	0x11	0.052781444
6	0xee	-0.055886235
7	0xc5	-0.18318266
8	0xbe	-0.2049162
9	0x1b	0.08382935
10	0x13	0.058991026
11	0x46	0.21733536
12	0xe8	-0.07451498
13	0x0e	0.04346707
14	0x48	0.22354494
15	0x4d	0.2390689
16	0xeb	-0.065200604
17	0xd8	-0.124191634
18	0xd5	-0.133506
19	0xd2	-0.14282037
20	0x19	0.07761977
21	0xd8	-0.124191634
22	0x0b	0.034152698
23	0xc3	-0.18939224
24	0x32	0.15523954
25	0x0b	0.034152698
26	0xe4	-0.08693414
27	0x13	0.058991026
28	0x0f	0.046571862
29	0x15	0.065200604
30	0xdd	-0.10866768
31	0xd8	-0.124191634
32	0x3b	0.18318266
33	0xae	-0.25459284
34	0x1e	0.093143724
35	0x10	0.049676653
36	0x04	0.012419163
37	0x24	0.11177247
38	0x46	0.21733536
39	0xee	-0.055886235
40	0x1d	0.09003893
41	0x13	0.058991026
42	0x05	0.015523954
43	0x47	0.22044015
44	0xc2	-0.19249703
45	0xf9	-0.021733535
46	0x47	0.22044015
47	0x4e	0.24217369
48	0xea	-0.068305396
49	0x0e	0.04346707
50	0x21	0.1024581
51	0xfa	-0.018628744
52	0xca	-0.1676587
53	0xf2	-0.04346707
54	0xea	-0.068305396
55	0xf9	-0.021733535
56	0xf4	-0.03725749
57	0xdf	-0.1024581
58	0x01	0.0031047908
59	0xac	-0.26080242
60	0xc4	-0.18628745
61	0x4d	0.2390689
62	0x10	0.049676653
63	0x36	0.1676587
64	0xad	-0.25769764
65	0xbb	-0.21423057
66	0x0c	0.03725749
67	0x1b	0.08382935
68	0xfa	-0.018628744
69	0x26	0.11798205
70	0xe4	-0.08693414
71	0xed	-0.058991026
72	0xe0	-0.099353306
73	0x45	0.21423057
74	0xea	-0.068305396
75	0xd8	-0.124191634
76	0xb9	-0.22044015
77	0xe7	-0.07761977
78	0x0d	0.04036228
79	0x21	0.1024581
80	0x31	0.15213475
81	0x44	0.21112578
82	0xc3	-0.18939224
83	0x04	0.012419163
84	0xab	-0.26390722
85	0xfd	-0.009314372
86	0xf7	-0.027943118
87	0x06	0.018628744
88	0xe9	-0.07141019
89	0xd4	-0.13661079
90	0xb9	-0.22044015
91	0xfd	-0.009314372
92	0x0a	0.031047909
93	0x52	0.25459284
94	0xdf	-0.1024581
95	0xf4	-0.03725749
96	0x03	0.009314372
97	0xe4	-0.08693414
98	0x07	0.021733535
99	0x2c	0.13661079
100	0x44	0.21112578
101	0xf5	-0.034152698
102	0x09	0.027943118
103	0xdb	-0.11487726
104	0xf7	-0.027943118
105	0x2f	0.14592516
106	0xb4	-0.2359641
107	0x16	0.068305396
108	0xca	-0.1676587
109	0xde	-0.10556289
110	0x5e	0.29185033
111	0x2d	0.13971558
112	0x11	0.052781444
113	0x15	0.065200604
114	0x90	-0.34773657
115	0xed	-0.058991026
116	0xfe	-0.0062095816
117	0xff	-0.0031047908
118	0xa1	-0.29495513
119	0x16	0.068305396
120	0x42	0.2049162
121	0xc6	-0.18007787
122	0xd1	-0.14592516
123	0xcf	-0.15213475
124	0xe3	-0.09003893
125	0x20	0.099353306
126	0xc8	-0.17386828
127	0x35	0.16455391
128	0xef	-0.052781444
129	0x05	0.015523954
130	0x39	0.17697307
131	0x17	0.07141019
132	0x6d	0.3384222
133	0x3e	0.19249703
134	0x51	0.25148806
135	0xf8	-0.024838326
136	0x0a	0.031047909
137	0xf7	-0.027943118
138	0xf4	-0.03725749
139	0x23	0.10866768
140	0xf0	-0.049676653
141	0xb2	-0.24217369
142	0x04	0.012419163
143	0x45	0.21423057
144	0x1e	0.093143724
145	0x02	0.0062095816
146	0xbf	-0.2018114
147	0xc9	-0.1707635
148	0xe0	-0.099353306
149	0xf7	-0.027943118
150	0xd9	-0.12108684
151	0x01	0.0031047908
152	0x0c	0.03725749
153	0xc4	-0.18628745
154	0xcd	-0.15834433
155	0xa3	-0.28874555
156	0xd7	-0.12729642
157	0x53	0.25769764
158	0xb4	-0.2359641
159	0xfb	-0.015523954
160	0x06	0.018628744
161	0xb2	-0.24217369
162	0x0b	0.034152698
163	0xdf	-0.1024581
164	0xfa	-0.018628744
165	0x10	0.049676653
166	0x11	0.052781444
167	0xe7	-0.07761977
168	0xc3	-0.18939224
169	0x32	0.15523954
170	0xbd	-0.20802099
171	0x41	0.2018114
172	0xb7	-0.22664973
173	0xb3	-0.2390689
174	0xf9	-0.021733535
175	0xe2	-0.093143724
176	0x56	0.267012
177	0x27	0.12108684
178	0xcd	-0.15834433
179	0xdc	-0.11177247
180	0xdb	-0.11487726
181	0xc0	-0.19870661
182	0xc3	-0.18939224
183	0xec	-0.062095817
184	0x23	0.10866768
185	0x14	0.062095817
186	0x09	0.027943118
187	0x0e	0.04346707
188	0xd2	-0.14282037
189	0x4d	0.2390689
190	0x1a	0.08072456
191	0x39	0.17697307
192	0xb0	-0.24838327
193	0xb3	-0.2390689
194	0x37	0.1707635
195	0x08	0.024838326
196	0xef	-0.052781444
197	0x55	0.26390722
198	0x6b	0.33221263
199	0xc3	-0.18939224
200	0xc6	-0.18007787
201	0x22	0.10556289
202	0x96	-0.32910782
203	0xf3	-0.04036228
204	0xd7	-0.12729642
205	0x9a	-0.31668866
206	0x08	0.024838326
207	0x55	0.26390722
208	0xee	-0.055886235
209	0x70	0.34773657
210	0xc8	-0.17386828
211	0xcf	-0.15213475
212	0xb4	-0.2359641
213	0xa8	-0.27322158
214	0xfb	-0.015523954
215	0xde	-0.10556289
216	0x1a	0.08072456
217	0x9e	-0.3042695
218	0xa0	-0.2980599
219	0xa0	-0.2980599
220	0xdf	-0.1024581
221	0x61	0.30116472
222	0xf9	-0.021733535
223	0x28	0.124191634
224	0xe6	-0.08072456
225	0xc6	-0.18007787
226	0x27	0.12108684
227	0x41	0.2018114
228	0x48	0.22354494
229	0x67	0.31979346
230	0x17	0.07141019
231	0xd4	-0.13661079
232	0xd2	-0.14282037
233	0x76	0.3663653
234	0xe6	-0.08072456
235	0x50	0.24838327
236	0xbd	-0.20802099
237	0xa7	-0.2763264
238	0x62	0.3042695
239	0x15	0.065200604
240	0x27	0.12108684
241	0x4b	0.23285931
242	0xa8	-0.27322158
243	0xb6	-0.22975452
244	0xca	-0.1676587
245	0x8a	-0.3663653
246	0xb3	-0.2390689
247	0xc8	-0.17386828
248	0x46	0.21733536
249	0xfc	-0.012419163
250	0xac	-0.26080242
251	0xf0	-0.049676653
252	0xd4	-0.13661079
253	0x2d	0.13971558
254	0x87	-0.3756797
255	0x37	0.1707635

model_18/label_model/time_distributed_35/bidirectional_52/forward_lstm_combine_label_words/lstm_cell/MatMul_9 i1 [128, 32] scale=0.0031579023 zero_point=0
0	0x41	0.20526364
1	0x48	0.22736897
2	0x4f	0.24947429
3	0x53	0.26210588
4	0xce	-0.15789512
5	0x03	0.009473707
6	0x41	0.20526364
7	0x5d	0.2936849
8	0xba	-0.22105315
9	0xe0	-0.10105287
10	0x50	0.25263217
11	0x23	0.11052658
12	0x56	0.2715796
13	0xdc	-0.11368448
14	0x27	0.12315819
15	0xb1	-0.24947429
16	0xfc	-0.012631609
17	0xdf	-0.10421077
18	0xe5	-0.085263364
19	0x10	0.050526436
20	0xa8	-0.2778954
21	0x29	0.129474
22	0x4e	0.24631637
23	0xaa	-0.2715796
24	0xbf	-0.20526364
25	0x23	0.11052658
26	0x1b	0.085263364
27	0xe0	-0.10105287
28	0xcd	-0.16105302
29	0x32	0.15789512
30	0x16	0.06947385
31	0x50	0.25263217
32	0x20	0.10105287
33	0x48	0.22736897
34	0x37	0.17368463
35	0x5c	0.29052702
36	0xd9	-0.12315819
37	0x1b	0.085263364
38	0x0d	0.04105273
39	0xf5	-0.034736924
40	0x14	0.06315804
41	0xec	-0.06315804
42	0x01	0.0031579023
43	0x39	0.18000042
44	0x25	0.11684238
45	0x1b	0.085263364
46	0x33	0.16105302
47	0xe6	-0.08210546
48	0x0b	0.034736924
49	0xc5	-0.18631624
50	0xcc	-0.16421092
51	0x23	0.11052658
52	0xcb	-0.16736881
53	0x10	0.050526436
54	0x3a	0.18315834
55	0x1c	0.08842126
56	0xd9	-0.12315819
57	0x04	0.012631609
58	0x22	0.10736868
59	0xe6	-0.08210546
60	0x18	0.07578965
61	0xee	-0.05684224
62	0x23	0.11052658
63	0x39	0.18000042
64	0x3d	0.19263203
65	0xf3	-0.04105273
66	0x44	0.21473736
67	0x48	0.22736897
68	0x03	0.009473707
69	0x20	0.10105287
70	0xfd	-0.009473707
71	0x1c	0.08842126
72	0xb6	-0.23368476
73	0x02	0.0063158046
74	0x14	0.06315804
75	0x37	0.17368463
76	0x19	0.07894756
77	0xf7	-0.02842112
78	0x27	0.12315819
79	0xfc	-0.012631609
80	0xef	-0.05368434
81	0x06	0.018947413
82	0xe1	-0.097894974
83	0x1f	0.097894974
84	0xe2	-0.09473707
85	0x05	0.01578951
86	0x2a	0.1326319
87	0xf3	-0.04105273
88	0xd0	-0.1515793
89	0x28	0.12631609
90	0x1d	0.09157917
91	0xcd	-0.16105302
92	0x07	0.022105316
93	0x36	0.17052673
94	0x50	0.25263217
95	0x04	0.012631609
96	0x30	0.1515793
97	0x07	0.022105316
98	0x40	0.20210575
99	0xe7	-0.07894756
100	0xe4	-0.08842126
101	0x3e	0.19578995
102	0x23	0.11052658
103	0x09	0.02842112
104	0xc5	-0.18631624
105	0x25	0.11684238
106	0x26	0.12000029
107	0x3d	0.19263203
108	0x2d	0.14210561
109	0xdc	-0.11368448
110	0x0e	0.04421063
111	0xff	-0.0031579023
112	0xd4	-0.1389477
113	0xc6	-0.18315834
114	0xfc	-0.012631609
115	0x24	0.11368448
116	0x02	0.0063158046
117	0x21	0.10421077
118	0xdf	-0.10421077
119	0xe5	-0.085263364
120	0xba	-0.22105315
121	0x1c	0.08842126
122	0x08	0.025263218
123	0xdd	-0.11052658
124	0xeb	-0.06631595
125	0x1c	0.08842126
126	0x31	0.1547372
127	0x31	0.1547372
128	0x0f	0.047368534
129	0x0d	0.04105273
130	0x12	0.05684224
131	0x2e	0.14526351
132	0x8c	-0.36631668
133	0x05	0.01578951
134	0x0a	0.03157902
135	0x2e	0.14526351
136	0xcb	-0.16736881
137	0xe7	-0.07894756
138	0x05	0.01578951
139	0x11	0.05368434
140	0x1e	0.09473707
141	0xf6	-0.03157902
142	0xff	-0.0031579023
143	0x18	0.07578965
144	0xe8	-0.07578965
145	0xeb	-0.06631595
146	0x9f	-0.30631652
147	0xfb	-0.01578951
148	0xc8	-0.17684253
149	0x3d	0.19263203
150	0x27	0.12315819
151	0x08	0.025263218
152	0xa3	-0.2936849
153	0x42	0.20842154
154	0x20	0.10105287
155	0xdc	-0.11368448
156	0x00	0.0
157	0x21	0.10421077
158	0xee	-0.05684224
159	0x19	0.07894756
160	0x4f	0.24947429
161	0x21	0.10421077
162	0x3f	0.19894785
163	0x2f	0.1484214
164	0xd7	-0.129474
165	0x32	0.15789512
166	0x27	0.12315819
167	0xf9	-0.022105316
168	0xdf	-0.10421077
169	0xe3	-0.09157917
170	0x12	0.05684224
171	0xf4	-0.037894826
172	0x2b	0.1357898
173	0x03	0.009473707
174	0xfa	-0.018947413
175	0x0d	0.04105273
176	0xde	-0.10736868
177	0xcc	-0.16421092
178	0xd9	-0.12315819
179	0x33	0.16105302
180	0xf3	-0.04105273
181	0xfa	-0.018947413
182	0x19	0.07894756
183	0xf9	-0.022105316
184	0xeb	-0.06631595
185	0x24	0.11368448
186	0x1e	0.09473707
187	0xcf	-0.1547372
188	0x0a	0.03157902
189	0x48	0.22736897
190	0x0d	0.04105273
191	0x03	0.009473707
192	0x0c	0.037894826
193	0x24	0.11368448
194	0x62	0.3094744
195	0x15	0.06631595
196	0xfd	-0.009473707
197	0x23	0.11052658
198	0x54	0.2652638
199	0x1e	0.09473707
200	0xc0	-0.20210575
201	0xcb	-0.16736881
202	0x0d	0.04105273
203	0x05	0.01578951
204	0x1d	0.09157917
205	0xe0	-0.10105287
206	0xfe	-0.0063158046
207	0xff	-0.0031579023
208	0xd8	-0.12631609
209	0xe3	-0.09157917
210	0xd5	-0.1357898
211	0x1e	0.09473707
212	0xe4	-0.08842126
213	0x21	0.10421077
214	0x41	0.20526364
215	0xd7	-0.129474
216	0xcf	-0.1547372
217	0xfc	-0.012631609
218	0x10	0.050526436
219	0x1a	0.08210546
220	0x31	0.1547372
221	0x09	0.02842112
222	0x42	0.20842154
223	0xfb	-0.01578951
224	0x39	0.18000042
225	0x4e	0.24631637
226	0x1a	0.08210546
227	0x38	0.17684253
228	0xcc	-0.16421092
229	0x35	0.16736881
230	0x42	0.20842154
231	0x46	0.22105315
232	0xe1	-0.097894974
233	0xd9	-0.12315819
234	0x19	0.07894756
235	0x26	0.12000029
236	0x4f	0.24947429
237	0xb9	-0.22421107
238	0x75	0.36947456
239	0xc0	-0.20210575
240	0xe4	-0.08842126
241	0xee	-0.05684224
242	0xca	-0.17052673
243	0x23	0.11052658
244	0xe6	-0.08210546
245	0x1f	0.097894974
246	0x29	0.129474
247	0xc6	-0.18315834
248	0xf0	-0.050526436
249	0x42	0.20842154
250	0x62	0.3094744
251	0xc8	-0.17684253
252	0xec	-0.06315804
253	0x22	0.10736868
254	0x30	0.1515793
255	0x3d	0.19263203

model_18/label_model/time_distributed_35/bidirectional_52/forward_lstm_combine_label_words/lstm_cell/MatMul_8 i1 [128, 32] scale=0.0031704395 zero_point=0
0	0x08	0.025363516
1	0xd8	-0.12681758
2	0x62	0.31070307
3	0x16	0.06974967
4	0x1f	0.098283626
5	0x38	0.17754461
6	0x3d	0.1933968
7	0xce	-0.15852198
8	0xf5	-0.034874834
9	0x0a	0.031704396
10	0x9c	-0.31704396
11	0x5b	0.28851
12	0xc8	-0.17754461
13	0xcc	-0.16486286
14	0x2a	0.13315846
15	0xf9	-0.022193076
16	0x2e	0.14584021
17	0x1a	0.08243143
18	0xa7	-0.2821691
19	0xad	-0.2631465
20	0xf9	-0.022193076
21	0xf7	-0.028533956
22	0xe8	-0.076090544
23	0xdf	-0.1046245
24	0x55	0.26948735
25	0xee	-0.057067912
26	0xa1	-0.30119175
27	0xd6	-0.13315846
28	0x9a	-0.32338482
29	0x4f	0.2504647
30	0xf3	-0.041215714
31	0x46	0.22193077
32	0xcc	-0.16486286
33	0xd1	-0.14901066
34	0x17	0.07292011
35	0x09	0.028533956
36	0xf4	-0.038045272
37	0x5a	0.28533956
38	0x3b	0.18705593
39	0xe7	-0.07926099
40	0x16	0.06974967
41	0x46	0.22193077
42	0xec	-0.06340879
43	0x60	0.30436218
44	0x1a	0.08243143
45	0xd9	-0.12364714
46	0x13	0.06023835
47	0x28	0.12681758
48	0xe5	-0.085601866
49	0xff	-0.0031704395
50	0xe2	-0.09511319
51	0xa9	-0.27582824
52	0xfa	-0.019022636
53	0xaa	-0.2726578
54	0x0a	0.031704396
55	0xbe	-0.209249
56	0xe7	-0.07926099
57	0xa7	-0.2821691
58	0x11	0.05389747
59	0xf3	-0.041215714
60	0xd6	-0.13315846
61	0x1b	0.085601866
62	0x1a	0.08243143
63	0x2a	0.13315846
64	0xc9	-0.17437418
65	0xfa	-0.019022636
66	0x0a	0.031704396
67	0x3b	0.18705593
68	0xe9	-0.07292011
69	0xf6	-0.031704396
70	0xf9	-0.022193076
71	0x24	0.114135824
72	0xd3	-0.14266978
73	0xe9	-0.07292011
74	0xe2	-0.09511319
75	0x30	0.15218109
76	0xf8	-0.025363516
77	0xce	-0.15852198
78	0x41	0.20607857
79	0x19	0.07926099
80	0xe1	-0.098283626
81	0x2c	0.13949934
82	0xb4	-0.2409534
83	0xb5	-0.23778297
84	0xdc	-0.114135824
85	0xf2	-0.044386152
86	0xbf	-0.20607857
87	0x0d	0.041215714
88	0x0b	0.034874834
89	0x1f	0.098283626
90	0xbc	-0.21558988
91	0xb4	-0.2409534
92	0xbe	-0.209249
93	0x10	0.050727032
94	0xbe	-0.209249
95	0x2a	0.13315846
96	0xaa	-0.2726578
97	0xea	-0.06974967
98	0x2b	0.1363289
99	0x06	0.019022636
100	0x43	0.21241945
101	0x15	0.06657923
102	0x17	0.07292011
103	0xbb	-0.21876033
104	0xbc	-0.21558988
105	0x53	0.2631465
106	0xe6	-0.08243143
107	0x2f	0.14901066
108	0xb3	-0.24412385
109	0xc2	-0.19656725
110	0x42	0.209249
111	0xfb	-0.015852198
112	0x49	0.23144208
113	0xe2	-0.09511319
114	0xba	-0.22193077
115	0xb5	-0.23778297
116	0xbe	-0.209249
117	0x08	0.025363516
118	0xe6	-0.08243143
119	0xf8	-0.025363516
120	0xea	-0.06974967
121	0xe8	-0.076090544
122	0xa5	-0.28851
123	0xf6	-0.031704396
124	0xbd	-0.21241945
125	0x5f	0.30119175
126	0xac	-0.26631692
127	0xf2	-0.044386152
128	0xd3	-0.14266978
129	0x13	0.06023835
130	0x09	0.028533956
131	0x4d	0.24412385
132	0x57	0.27582824
133	0xf8	-0.025363516
134	0x18	0.076090544
135	0x0e	0.044386152
136	0xac	-0.26631692
137	0x14	0.06340879
138	0xb5	-0.23778297
139	0x49	0.23144208
140	0xea	-0.06974967
141	0xd7	-0.12998801
142	0x5c	0.29168043
143	0xf7	-0.028533956
144	0x2f	0.14901066
145	0x29	0.12998801
146	0xb5	-0.23778297
147	0x01	0.0031704395
148	0xc6	-0.18388548
149	0x08	0.025363516
150	0xb4	-0.2409534
151	0xfe	-0.006340879
152	0x54	0.26631692
153	0xe9	-0.07292011
154	0xd2	-0.14584021
155	0xd1	-0.14901066
156	0xa6	-0.28533956
157	0x08	0.025363516
158	0xf4	-0.038045272
159	0xfc	-0.012681758
160	0xd1	-0.14901066
161	0xcc	-0.16486286
162	0xee	-0.057067912
163	0x25	0.11730626
164	0x1f	0.098283626
165	0x2e	0.14584021
166	0x2f	0.14901066
167	0xf8	-0.025363516
168	0xd3	-0.14266978
169	0xef	-0.05389747
170	0xdb	-0.11730626
171	0xe7	-0.07926099
172	0xff	-0.0031704395
173	0x05	0.015852198
174	0x2c	0.13949934
175	0xfc	-0.012681758
176	0x43	0.21241945
177	0x01	0.0031704395
178	0xa9	-0.27582824
179	0xef	-0.05389747
180	0xcf	-0.15535153
181	0xaa	-0.2726578
182	0xad	-0.2631465
183	0x14	0.06340879
184	0x19	0.07926099
185	0xd7	-0.12998801
186	0xcc	-0.16486286
187	0xff	-0.0031704395
188	0xd8	-0.12681758
189	0x40	0.20290813
190	0x19	0.07926099
191	0x30	0.15218109
192	0x1a	0.08243143
193	0x0a	0.031704396
194	0xea	-0.06974967
195	0xfb	-0.015852198
196	0xda	-0.1204767
197	0xf4	-0.038045272
198	0x59	0.2821691
199	0x1a	0.08243143
200	0x1e	0.09511319
201	0x50	0.25363517
202	0xce	-0.15852198
203	0xdc	-0.114135824
204	0xb1	-0.2504647
205	0xdb	-0.11730626
206	0x08	0.025363516
207	0x36	0.17120373
208	0x0f	0.047556594
209	0x54	0.26631692
210	0xa5	-0.28851
211	0xfe	-0.006340879
212	0xe6	-0.08243143
213	0xc5	-0.18705593
214	0x0c	0.038045272
215	0xeb	-0.06657923
216	0x0d	0.041215714
217	0x1c	0.088772304
218	0xe9	-0.07292011
219	0xb9	-0.2251012
220	0x12	0.057067912
221	0x05	0.015852198
222	0x0f	0.047556594
223	0x05	0.015852198
224	0x8e	-0.3614301
225	0xaf	-0.2568056
226	0x41	0.20607857
227	0x47	0.2251012
228	0x25	0.11730626
229	0x14	0.06340879
230	0x54	0.26631692
231	0xb4	-0.2409534
232	0xb9	-0.2251012
233	0x3c	0.19022638
234	0x95	-0.33923703
235	0x36	0.17120373
236	0xcd	-0.16169241
237	0xd4	-0.13949934
238	0x5b	0.28851
239	0x56	0.2726578
240	0x36	0.17120373
241	0x59	0.2821691
242	0x86	-0.3867936
243	0xb4	-0.2409534
244	0x9b	-0.3202144
245	0x9e	-0.31070307
246	0x9c	-0.31704396
247	0x03	0.009511318
248	0xf4	-0.038045272
249	0xbf	-0.20607857
250	0x9a	-0.32338482
251	0xb4	-0.2409534
252	0xbb	-0.21876033
253	0x5c	0.29168043
254	0xfc	-0.012681758
255	0x45	0.21876033

model_18/bidirectional_53/backward_lstm_6/lstm_cell/MatMul_39 i1 [128, 32] scale=0.0025189251 zero_point=0
0	0x04	0.0100757005
1	0x39	0.14357874
2	0x2e	0.11587056
3	0x08	0.020151401
4	0xc7	-0.14357874
5	0x0a	0.02518925
6	0x0d	0.03274603
7	0xff	-0.0025189251
8	0x5f	0.23929788
9	0xe0	-0.080605604
10	0x04	0.0100757005
11	0xc1	-0.15869229
12	0xee	-0.045340654
13	0xfa	-0.015113551
14	0xd4	-0.110832706
15	0x34	0.13098411
16	0xe7	-0.06297313
17	0x11	0.042821728
18	0x25	0.09320023
19	0x2e	0.11587056
20	0xd6	-0.105794854
21	0x3a	0.14609766
22	0xe2	-0.07556775
23	0x1d	0.07304883
24	0xfc	-0.0100757005
25	0xdc	-0.09068131
26	0xf4	-0.030227102
27	0x45	0.17380583
28	0xf2	-0.03526495
29	0xc6	-0.14609766
30	0x1a	0.06549206
31	0x08	0.020151401
32	0xdf	-0.083124526
33	0x61	0.24433574
34	0xcc	-0.13098411
35	0x08	0.020151401
36	0x20	0.080605604
37	0x2b	0.10831378
38	0x18	0.060454205
39	0x20	0.080605604
40	0x08	0.020151401
41	0x22	0.085643455
42	0x12	0.045340654
43	0x1d	0.07304883
44	0x27	0.09823808
45	0xe0	-0.080605604
46	0xf7	-0.022670327
47	0x02	0.0050378502
48	0x59	0.22418433
49	0x1c	0.0705299
50	0x20	0.080605604
51	0x14	0.0503785
52	0xf6	-0.02518925
53	0xfe	-0.0050378502
54	0x15	0.052897427
55	0xdb	-0.09320023
56	0xcc	-0.13098411
57	0xcb	-0.13350303
58	0xca	-0.13602196
59	0xfa	-0.015113551
60	0x25	0.09320023
61	0x26	0.09571915
62	0x0c	0.030227102
63	0x4b	0.18891938
64	0xed	-0.047859576
65	0xe1	-0.07808668
66	0xe5	-0.06801098
67	0xe3	-0.07304883
68	0xec	-0.0503785
69	0xb9	-0.17884368
70	0x0f	0.037783876
71	0xbf	-0.16373013
72	0x0d	0.03274603
73	0xbe	-0.16624905
74	0x11	0.042821728
75	0xe8	-0.060454205
76	0x3b	0.14861658
77	0x0d	0.03274603
78	0x04	0.0100757005
79	0x0f	0.037783876
80	0xe6	-0.06549206
81	0xd5	-0.10831378
82	0x02	0.0050378502
83	0x13	0.047859576
84	0xee	-0.045340654
85	0xe6	-0.06549206
86	0x02	0.0050378502
87	0xf6	-0.02518925
88	0x3c	0.1511355
89	0xb1	-0.19899508
90	0x3e	0.15617336
91	0xe6	-0.06549206
92	0x0a	0.02518925
93	0x39	0.14357874
94	0x2e	0.11587056
95	0x0f	0.037783876
96	0x2c	0.110832706
97	0xf0	-0.040302802
98	0x0e	0.03526495
99	0xee	-0.045340654
100	0x06	0.015113551
101	0xfe	-0.0050378502
102	0xd0	-0.12090841
103	0x1d	0.07304883
104	0x1e	0.07556775
105	0x0b	0.027708177
106	0xaf	-0.20403293
107	0xfe	-0.0050378502
108	0x15	0.052897427
109	0xc9	-0.13854088
110	0x12	0.045340654
111	0xf0	-0.040302802
112	0x04	0.0100757005
113	0x3f	0.15869229
114	0xdc	-0.09068131
115	0x29	0.10327593
116	0x1f	0.07808668
117	0x24	0.09068131
118	0x09	0.022670327
119	0xff	-0.0025189251
120	0x1d	0.07304883
121	0x27	0.09823808
122	0x2a	0.105794854
123	0x25	0.09320023
124	0xef	-0.042821728
125	0x1a	0.06549206
126	0xf2	-0.03526495
127	0x36	0.13602196
128	0x00	0.0
129	0x0d	0.03274603
130	0x24	0.09068131
131	0xd5	-0.10831378
132	0x06	0.015113551
133	0x0c	0.030227102
134	0x23	0.08816238
135	0x35	0.13350303
136	0x3f	0.15869229
137	0xe0	-0.080605604
138	0xf8	-0.020151401
139	0xea	-0.055416353
140	0xf7	-0.022670327
141	0x3c	0.1511355
142	0x4c	0.1914383
143	0x0e	0.03526495
144	0xdd	-0.08816238
145	0xf1	-0.037783876
146	0x30	0.12090841
147	0xc9	-0.13854088
148	0xe8	-0.060454205
149	0x02	0.0050378502
150	0xd1	-0.11838948
151	0xd0	-0.12090841
152	0x07	0.017632475
153	0x0e	0.03526495
154	0xd7	-0.10327593
155	0x1f	0.07808668
156	0x06	0.015113551
157	0xd3	-0.11335163
158	0xc8	-0.1410598
159	0x05	0.012594625
160	0xcf	-0.12342733
161	0xfb	-0.012594625
162	0x04	0.0100757005
163	0xf6	-0.02518925
164	0xdf	-0.083124526
165	0x03	0.0075567756
166	0xfa	-0.015113551
167	0xff	-0.0025189251
168	0x17	0.05793528
169	0xe8	-0.060454205
170	0xc3	-0.15365443
171	0x19	0.06297313
172	0x21	0.083124526
173	0xe1	-0.07808668
174	0xf0	-0.040302802
175	0x1d	0.07304883
176	0xef	-0.042821728
177	0xf2	-0.03526495
178	0x04	0.0100757005
179	0xf3	-0.03274603
180	0xf1	-0.037783876
181	0x05	0.012594625
182	0xf8	-0.020151401
183	0xeb	-0.052897427
184	0x19	0.06297313
185	0x0a	0.02518925
186	0xa5	-0.22922218
187	0x08	0.020151401
188	0x18	0.060454205
189	0xc9	-0.13854088
190	0x31	0.12342733
191	0xda	-0.09571915
192	0xf8	-0.020151401
193	0x25	0.09320023
194	0x29	0.10327593
195	0x10	0.040302802
196	0xdd	-0.08816238
197	0xdd	-0.08816238
198	0x30	0.12090841
199	0xf5	-0.027708177
200	0x33	0.12846518
201	0xcb	-0.13350303
202	0xf3	-0.03274603
203	0x03	0.0075567756
204	0xfe	-0.0050378502
205	0xe9	-0.05793528
206	0xe5	-0.06801098
207	0x9e	-0.24685466
208	0x21	0.083124526
209	0x2e	0.11587056
210	0xf8	-0.020151401
211	0x33	0.12846518
212	0xe4	-0.0705299
213	0x29	0.10327593
214	0x0e	0.03526495
215	0xb7	-0.18388154
216	0x07	0.017632475
217	0xd6	-0.105794854
218	0x44	0.17128691
219	0x0b	0.027708177
220	0x1a	0.06549206
221	0xf6	-0.02518925
222	0x0a	0.02518925
223	0xff	-0.0025189251
224	0xf9	-0.017632475
225	0x05	0.012594625
226	0xe3	-0.07304883
227	0xe5	-0.06801098
228	0x1d	0.07304883
229	0x17	0.05793528
230	0x06	0.015113551
231	0xe5	-0.06801098
232	0xf5	-0.027708177
233	0x13	0.047859576
234	0x06	0.015113551
235	0x2b	0.10831378
236	0xd0	-0.12090841
237	0xc7	-0.14357874
238	0xdf	-0.083124526
239	0xfd	-0.0075567756
240	0x24	0.09068131
241	0xdc	-0.09068131
242	0x39	0.14357874
243	0xf7	-0.022670327
244	0xf0	-0.040302802
245	0x22	0.085643455
246	0xd3	-0.11335163
247	0xf5	-0.027708177
248	0xea	-0.055416353
249	0xcf	-0.12342733
250	0x13	0.047859576
251	0x62	0.24685466
252	0xee	-0.045340654
253	0x02	0.0050378502
254	0xf9	-0.017632475
255	0x44	0.17128691
