components/test/data/segmentation_platform/adder.tflite (tflite, 3988 bytes, 5 tensors)

dense_13/bias f4 [20]
00000000: 0000 0000 d105 af3c 0000 0000 0000 0000
00000010: 72d6 803c 931f c43c 0000 0000 0000 0000
00000020: 0000 0000 0000 0000 0000 0000 2779 debd
00000030: 0000 0000 0000 0000 34aa d43c e79b 933c
00000040: 0000 0000 4d94 973c c720 0ebd fa11 2dbd
0.0 0.021365078 0.0 0.0 0.015727255 0.023940837 0.0 0.0
0.0 0.0 0.0 -0.10862952 0.0 0.0 0.025960065 0.018018676
0.0 0.018503333 -0.034699228 -0.042253472

dense_12/bias f4 [20]
00000000: abbd 20be e574 703b 19c1 8cbc dafe e339
00000010: d039 f1bd 0000 0000 0000 0000 0000 0000
00000020: f4b1 32bd 0000 0000 0000 0000 0000 0000
00000030: 0566 a43c 5be8 07bc 0000 0000 0000 0000
00000040: 0000 0000 5a5b 7e3c 5642 55bc a179 d2bd
-0.15697353 0.0036690768 -0.01718192 0.00043486693 -0.11778605 0.0 0.0 0.0
-0.04362674 0.0 0.0 0.0 0.020068178 -0.008295144 0.0 0.0
0.0 0.01552471 -0.013016304 -0.10277105

sequential_5/dense_12/MatMul f4 [20, 2]
00000000: fb05 013e 9485 03be 35e0 d13e 9626 debc
00000010: 5b0b 46be 45e4 373e 71c0 d43d cd2f 163f
00000020: 52e5 10bc 46e4 e63e b4e7 083e da15 1ebe
00000030: 9060 37be b0bf 97be 62f4 7ebe 9836 b43d
00000040: 4355 8fbd 4b75 a43e b813 ee3d e0df dabe
00000050: 8da9 eabe 00eb 7a3b 0c79 eebe 961e f0be
00000060: 344e d93e 459f 713b ea14 c73e 145c e43d
00000070: 96f5 d7be b517 e3be a9fe 03bf 9207 e23e
00000080: ac50 83be 604b f03d cf20 ee3d 8c47 b23e
00000090: 3c33 bb3e 9ac2 c0be fdc5 af3e 6e1a cebd
0.12599938 -0.12843925 0.4099137 -0.027118009 -0.1934027 0.17958172 0.10388268 0.5866669
-0.008843737 0.45096034 0.13369638 -0.15438023 -0.1790793 -0.29638433 -0.24897912 0.087994754
-0.06998684 0.32120737 0.11624855 -0.42748928 -0.45832482 0.0038287044 -0.46576726 -0.46898335
0.42442477 0.0036868614 0.38883144 0.11150375 -0.42179555 -0.44354025 -0.51560456 0.441464
-0.25647485 0.11733127 0.116273515 0.3482021 0.36562526 -0.3764847 0.3433074 -0.10063635

sequential_5/dense_13/MatMul f4 [20, 20]
00000000: d672 adbe e1c4 3bbe 5c98 993e 15ae 53be
00000010: 14e7 aebd a010 bdbe b183 7abe 9c6a 073e
00000020: c419 283e 5441 81be 2482 133e 44c2 393e
00000030: 58c7 76bd 91d1 2abe bc17 973d 8845 3c3d
00000040: ec4e 6a3e b0cc e0bc c83f 5dbd 96aa 8ebe
00000050: 0439 0abe 641c e83e 8ead 0fbe 6440 353d
00000060: d168 c83e 53f7 35be 64d3 d63d d360 55be
00000070: 7233 4e3e 0411 8d3e 4086 c8bc c0a3 d0bc
00000080: 4897 af3e f800 bd3e bc9a 07be 3887 febd
00000090: 380f 9d3e 93d0 703e 26fb 4dbd 7df4 d13e
000000a0: 40e4 703e 063d b03e 8a76 4abe 6e58 05be
000000b0: a4f8 543e a031 19bd e86a c1be e00f a33e
000000c0: fc4e 8e3d 785d 71bd e841 773e 9059 09bd
000000d0: b071 84bd a8eb 68be 948d f5bd b008 4fbe
000000e0: c003 03be e0b9 ddbc d4e5 3b3e 7878 37be
000000f0: b4ee 943e bda3 79be e3a9 79be e6f1 1dbe
00000100: be9e 95be 8a6e 90be 4062 16bc cbdc acbe
00000110: 0cf3 1b3e 0b76 bebe 6030 3b3c 967f 8cbe
00000120: 707e 503e d459 a6bd d667 993e e897 c0bd
00000130: 8480 89be 409d 8c3c 746f d13d e088 a4be
00000140: 0c03 ce3d 52b4 8d3e 8fee a2be 6252 303e
00000150: 4543 d73e 389e 8c3d d8da f5bd f85e 7dbd
00000160: 2183 a3bd f283 893e 5c19 373e f08d 853e
00000170: d3d9 7cbe 911f 59be 1f5d bbbe 8049 203b
00000180: bd6d a1be dfad 8c3e fc04 9abe af9f d53e
00000190: 5a3b 21be e29c ea3d badf 373e cea0 f43e
000001a0: 8167 ca3d 0889 543e 06e4 b6be 804b 9dbb
000001b0: 6b5d 7a3d 14d2 25be 28bd 333e 4c5e 883e
000001c0: f9fe df3e cf4a 4d3e 4a72 96be a9a5 b9be
000001d0: 909c 09bd c484 9f3e 45e6 6f3e e7f7 d93d
000001e0: 40f1 0b3e c729 81be a0d4 80bd d63d 1fbe
000001f0: 2a18 23be 383e 8a3e b04f a83c a445 cabd
00000200: 7594 78be 4c64 2a3e 0422 053e 941f 033e
00000210: 9c96 da3d 688a 433e 90ef b83c 1407 243e
00000220: 0cd7 433e 0f2e 76be c044 6abd 1132 a9be
00000230: 0027 d1bc ccd3 65be bcdd c43d 5a2b 32be
00000240: ecf4 663e 4057 5dbc ac37 e6bd 750b 34be
00000250: 308b 84bc 0809 2d3e f087 a6be 27ef 8fbe
00000260: b84d b03e 0e2e 4dbe e032 763e 2056 483e
00000270: d03c 4e3d 4c35 5fbe 6c32 4f3e 7046 f0bd
00000280: c468 5b3e a816 ae3d d4cb debd dc02 d13d
00000290: 7055 aabd acef 1c3e 0e66 bf3e 7a2f c6be
000002a0: 66c8 9b3e e825 b63e 0e9d c53e 8074 1dbb
000002b0: 697f aabe 8aeb b8be c4d0 a63e dea1 c1be
000002c0: 5c07 a4be 368d 70be b847 61bd 3857 9dbd
000002d0: 12fe a5be 0020 273e f8e2 63be 08eb c0bd
000002e0: 94a0 cfbd f40e 693e e0b2 263e 9fb8 a4be
000002f0: 2801 9abe 097c 67be 063c 8c3e 7ef3 c13e
00000300: 96b7 1dbe 23e8 27be d45d 963d c0c1 bcbb
00000310: f0d4 a3bc b8a8 8a3e dc0b b63d 14ae 46be
00000320: a85b 58be 118c 7abe d6d7 a4be 30c1 a33c
00000330: 1ce9 78be 3807 d03d 9a82 c03e 6c34 9a3e
00000340: c805 153e 28ac aa3e 308d b9be f851 0d3e
00000350: dcea 173e 94c4 5bbe 7ead 9abe 3cd1 e5bd
00000360: 14f4 b5bd 4f58 abbe b43a 603e 828d 0abe
00000370: 3dd6 2fbe 8071 4a3e 70ee 2d3b fb88 c03d
00000380: 9ec6 68bd d8e5 a5be 7866 293d 043b 4f3e
00000390: 99e4 78be ae0b a1be 6ef9 a13e b568 36be
000003a0: 53f6 653e 1799 c8be a8d6 e4bd fd03 20be
000003b0: aa16 c63e 955d 093e a962 293e e968 c4be
000003c0: a026 533e 7195 1fbe 40b0 893e 50b0 37bd
000003d0: ccfe 103e 9589 aebe bc60 1e3e 70da 0cbd
000003e0: 0835 623d 7cee 8bbe e0ef 82be f054 bbbe
000003f0: 6081 b2bd 805b 05bb 9c37 9ebd 14c5 823e
-0.33876675 -0.18336822 0.29999053 -0.20671876 -0.085401684 -0.36926746 -0.24464299 0.13224262
0.16416079 -0.25245154 0.14405113 0.18140513 -0.060248703 -0.16681506 0.07377574 0.045964748
0.22881669 -0.027441353 -0.054015905 -0.27864522 -0.13498312 0.4533416 -0.1403105 0.04425086
0.3914247 -0.17770128 0.10489538 -0.20837717 0.20136812 0.27552044 -0.024478078 -0.025468707
0.34295106 0.36914802 -0.1324262 -0.12428135 0.30675673 0.23517065 -0.050288342 0.41006842
0.2352457 0.34421557 -0.19771782 -0.13022014 0.20797974 -0.03740084 -0.37776875 0.3184805
0.06948659 -0.05892703 0.24146235 -0.03353268 -0.06466997 -0.22746146 -0.119898945 -0.20218158
-0.127944 -0.027066171 0.18349391 -0.17917049 0.29088366 -0.24378867 -0.24381213 -0.15424308
-0.29222673 -0.28209335 -0.009178698 -0.33762202 0.15229434 -0.37199435 0.011425108 -0.2744109
0.20360732 -0.08122602 0.29962033 -0.09403974 -0.26855862 0.017164826 0.10226336 -0.32135677
0.10059175 0.27676636 -0.3182263 0.17218927 0.4204351 0.06866115 -0.12004632 -0.061858147
-0.07983995 0.2685848 0.17880768 0.26084852 -0.24692468 -0.21203448 -0.36594483 0.0024457872
-0.31529036 0.27476403 -0.30081928 0.4172339 -0.15745297 0.11455704 0.17956439 0.47778934
0.09883023 0.20755398 -0.35720843 -0.00480026 0.061124247 -0.1619342 0.17552626 0.26634443
0.43749216 0.20048068 -0.2938407 -0.362592 -0.033596575 0.3115598 0.23427685 0.10642987
0.13666248 -0.25227186 -0.06290555 -0.15550932 -0.15927187 0.27000594 0.02054581 -0.09876564
-0.24275382 0.16639823 0.13001257 0.12805015 0.10673258 0.19095767 0.02257517 0.16018325
0.19125003 -0.24041007 -0.05719447 -0.3304601 -0.025531292 -0.22444075 0.09612605 -0.1739935
0.22554368 -0.013509572 -0.11241087 -0.17582496 -0.016179651 0.16897976 -0.32525587 -0.28112146
0.34434295 -0.200371 0.24042845 0.19564104 0.050350964 -0.21797675 0.20234078 -0.11732185
0.21426684 0.08500415 -0.10878721 0.102056235 -0.08317077 0.15325803 0.3738255 -0.38708097
0.3042633 0.35575795 0.38596386 -0.0024025738 -0.3330033 -0.36117202 0.3258115 -0.37818807
-0.32036865 -0.23491368 -0.055000037 -0.07682651 -0.32420403 0.16320801 -0.2225455 -0.09419829
-0.1013805 0.2275961 0.16279173 -0.32172105 -0.30079007 -0.2260591 0.27389544 0.37881082
-0.15402064 -0.16397147 0.07342115 -0.0057604015 -0.019998997 0.27081847 0.08888981 -0.19402343
-0.21128714 -0.24467494 -0.3219592 0.01998958 -0.24307674 0.10157627 0.3759964 0.3011812
0.14552987 0.3333447 -0.3624053 0.138008 0.14835685 -0.21461707 -0.3021049 -0.11221549
-0.08884445 -0.33465812 0.21897393 -0.13530543 -0.17171569 0.1976986 0.0026539825 0.09401127
-0.05683004 -0.3240192 0.041357487 0.20237356 -0.24305953 -0.31454223 0.31635612 -0.1781338
0.22457246 -0.39179298 -0.11173755 -0.15626521 0.38689166 0.13414605 0.16541542 -0.3836129
0.20620203 -0.15584351 0.2689228 -0.04484588 0.14159697 -0.34089342 0.15466589 -0.034388006
0.055226356 -0.27330387 -0.25573635 -0.3658824 -0.087160826 -0.0020348728 -0.077254504 0.25540984

sequential_5/dense_14/MatMul f4 [1, 20]
00000000: a6a3 d8be c48d cd3e 8caa afbe 2e38 cebe
00000010: 1926 6d3e 2a52 023f 4811 edbe 2aa4 e93e
00000020: 0050 ce3e 4c73 3e3e 958f e8be 8798 7ebe
00000030: 94e5 8cbe 74a9 b3be ee93 1f3f fc2f 6c3e
00000040: 6e3c b33e 1d06 9e3e 215a bcbd 3d1d dfbe
-0.42312354 0.4014722 -0.34309804 -0.40277237 0.23159064 0.5090662 -0.46302247 0.4563306
0.4029541 0.1859867 -0.45422044 -0.24862872 -0.27518904 -0.3509022 0.623351 0.2306518
0.35007042 0.3086404 -0.09196878 -0.43576995
