components/test/data/optimization_guide/simple_test.tflite (tflite, 167384 bytes, 4 tensors)

sequential/dense/BiasAdd/ReadVariableOp/resource f4 [10]
0.0 0.0 0.0 0.0 0.0 0.0 0.0 0.0
0.0 0.0
00000000: 0000 0000 0000 0000 0000 0000 0000 0000
00000010: 0000 0000 0000 0000 0000 0000 0000 0000
00000020: 0000 0000 0000 0000

sequential/dense/MatMul f4 [10, 4096]
0.028777234 0.036981314 0.026997969 -0.035872146 0.021325566 -0.018349491 0.004707422 -0.030278975
-0.018526237 0.0167884 -0.008191347 -0.011483239 0.033982635 0.028698161 0.012614999 -0.028340358
-0.021844296 0.03640815 0.023938406 0.022891313 -0.020641591 0.016567148 0.030739784 -0.0074321087
0.015402041 -0.0105387885 -0.012387004 0.025142476 -0.00701325 0.0078090243 -0.0013475493 -0.030322012
0.01399482 -0.03567978 -0.029144034 0.03592486 0.031960443 -0.013568737 0.011910893 0.012761835
-0.010898862 -0.030967524 -0.023476502 -0.023915702 -0.032881353 -0.005394753 0.03174808 0.008842573
-0.018573493 0.009701051 -0.008548368 0.0074092895 0.010328513 -0.0071122367 0.022814147 0.025603645
-0.03652693 -0.009260166 0.013915092 -0.0018163621 -0.0051101334 0.027762853 -0.015469922 0.013471626
-0.02648351 -0.011526611 -0.023254476 -0.022575296 0.034439534 -0.0012931786 0.036273398 0.030685522
-0.0004340522 -0.023504984 0.014193643 0.016524743 -0.02002342 0.021431632 0.010358524 0.0053080954
0.027632222 -0.021081913 0.008475099 -0.0312351 0.0110611245 0.025238968 0.0007771738 -0.036350984
-0.002524726 -0.015720684 -0.030897956 -0.011523176 -0.023731992 0.014991432 -0.016857529 0.031202361
0.03071028 0.03598617 -0.034785118 0.006130155 0.0062876903 0.028257258 0.02910383 0.02227892
-0.0107650515 -0.018290596 0.011313401 0.012167495 -0.033939097 0.017573275 -0.038216654 0.020638585
0.0012390763 -0.035131246 -0.0070309862 0.010581713 -0.029130299 -0.00076156855 0.03486935 0.0015475638
-0.03390135 0.036803715 0.022736907 -0.033111203 0.018510561 0.0066030324 -0.016288072 0.029078826
-0.009744663 -0.03307865 0.01742141 -0.01819419 -0.028671859 0.036683224 0.0101649165 0.020975437
-0.018156858 -0.00066383183 0.032734 -0.018264832 0.03282901 -0.0023185238 -0.037477504 0.016106375
0.033991538 -0.017940238 -0.0042573027 0.031339817 0.01611941 -0.008235995 -0.009361194 0.032006465
-0.029129945 -0.0049938187 0.029343508 -0.030326394 -0.0017912909 -0.008793987 0.0052008703 0.025676891
0.0018859953 -0.026948495 0.03727048 0.030684628 0.014608391 -0.023560543 0.018073611 0.022131603
0.021585185 -0.01876874 -0.0012598857 -0.032293692 0.0025461726 -0.0014518127 -0.0020177886 0.03154654
0.0139957145 0.027132496 -0.018176135 -0.01477709 -0.01671629 -0.024449207 0.007819004 0.035410732
0.022583071 0.02522976 0.028650753 0.010453507 0.028243601 0.0012072586 -0.027226806 -0.0040436536
-0.020462696 -0.021071032 0.02668377 -0.026406307 -0.036036998 -0.024197534 -0.0041888505 -0.0043417104
0.03760401 -0.03172327 0.032098018 0.010990702 0.032937147 0.026824005 -0.007839777 -0.011344433
-0.032773744 -0.034623556 0.031348243 -0.022932937 0.011910554 -0.03267892 0.025492921 -0.03288366
0.03553102 -0.01929324 -0.03453989 -0.0015138239 0.01581486 -0.036181074 -0.012549687 -0.004143562
0.036620863 0.024694234 0.037255436 0.0036050826 -0.028695619 -0.00956922 -0.010828283 -0.015172215
0.0036663935 0.004621107 0.016502723 -0.003396839 -0.004420124 0.009925485 0.0039675348 -0.01297879
-0.03812709 -0.019184336 -0.007421199 -0.0066025406 -0.03780471 0.03710594 0.003676299 0.03127642
-0.027385563 -0.0115497615 -0.036521714 -0.026251215 0.037165448 0.0099208355 0.0031738952 0.032799415
00000000: 3cbe eb3c b879 173d d82a dd3c acee 12bd
00000010: f4b2 ae3c ac51 96bc b840 9a3b 9d0b f8bc
00000020: 56c4 97bc d487 893c 0035 06bc 3224 3cbc
00000030: 6031 0b3d 6818 eb3c 24af 4e3c 0a2a e8bc
00000040: cff2 b2bc b620 153d 7a1a c43c 9086 bb3c
00000050: 8e18 a9bc d4b7 873c 00d2 fb3c 0c89 f3bb
00000060: d858 7c3c e2aa 2cbc dcf2 4abc 98f7 cd3c
00000070: 68cf e5bb d8e2 ff3b 40a0 b0ba de65 f8bc
00000080: 884a 653c f624 12bd 78bf eebc f225 133d
00000090: f4e8 023d 684f 5ebc e825 433c 0417 513c
000000a0: 2491 32bc 9baf fdbc cb51 c0bc ddea c3bc
000000b0: 99ae 06bd 78c6 b0bb 460a 023d 70e0 103c
000000c0: 7027 98bc 28f1 1e3c 740e 0cbc a0c9 f23b
000000d0: ec38 293c c40d e9bb bce4 ba3c bcbe d13c
000000e0: 439d 15bd f4b7 17bc 20fc 633c 0013 eeba
000000f0: e872 a7bb ec6e e33c 8e75 7dbc 18b8 5c3c
00000100: f2f3 d8bc 1cda 3cbc 2c80 bebc d4ef b8bc
00000110: 7810 0d3d e07f a9ba 6a93 143d 3460 fb3c
00000120: 8091 e3b9 868d c0bc 748c 683c e65e 873c
00000130: 2808 a4bc 6491 af3c ccb6 293c 88ef ad3b
00000140: f85c e23c fab3 acbc 24db 0a3c c1e0 ffbc
00000150: b839 353c f4c1 ce3c 40bb 4b3a c5e4 14bd
00000160: e075 25bb aac8 80bc b61d fdbc b4cb 3cbc
00000170: 9869 c2bc a09e 753c cd18 8abc 189c ff3c
00000180: 2094 fb3c 3c66 133d d77a 0ebd 78df c83b
00000190: f808 ce3b c47b e73c 286b ee3c 4882 b63c
000001a0: e65f 30bc 29d6 95bc d85b 393c 2c5a 473c
000001b0: b903 0bbd d4f5 8f3c 1189 1cbd 4012 a93c
000001c0: 8068 a23a c8e5 0fbd 3064 e6bb ec5e 2d3c
000001d0: aaa2 eebc 00a4 47ba 2ad3 0e3d a0d7 ca3a
000001e0: 24dc 0abd 7ebf 163d c042 ba3c 9d9f 07bd
000001f0: 76a3 973c 405e d83b 906e 85bc b836 ee3c
00000200: 14a8 1fbc 7a7d 07bd 58b7 8e3c fb0b 95bc
00000210: 3fe1 eabc 2641 163d c08a 263c aed4 ab3c
00000220: b1bd 94bc 0005 2eba 1614 063d 21a0 95bc
00000230: b677 063d 60f2 17bb 0382 19bd 84f1 833c
00000240: b63a 0b3d 68f7 92bc d880 8bbb 2e5e 003d
00000250: da0c 843c 44f0 06bc b25f 19bc 3619 033d
00000260: eca1 eebc 30a3 a3bb cc61 f03c 0f6f f8bc
00000270: c0c9 eaba a814 10bc 106c aa3b 5858 d23c
00000280: 8033 f73a 17c3 dcbc eea8 183d 545e fb3c
00000290: 0858 6f3c 0a02 c1bc 1c0f 943c 564d b53c
000002a0: 6ad3 b03c e7c0 99bc c022 a5ba 6446 04bd
000002b0: b0dd 263b c04a beba e03c 04bb f236 013d
000002c0: 484e 653c f844 de3c 1ee6 94bc 9c1b 72bc
000002d0: 9af0 88bc b449 c8bc 481b 003c d80a 113d
000002e0: 2200 b93c a4ae ce3c fcb4 ea3c 3045 2b3c
000002f0: 205f e73c e03c 9e3a c00a dfbc a080 84bb
00000300: 62a1 a7bc 289d acbc ec97 da3c 0a52 d8bc
00000310: 889b 13bd e839 c6bc a042 89bb e844 8ebb
00000320: aa06 1a3d 42f0 01bd 3679 033d 5812 343c
00000330: 1ae9 063d 04be db3c 6872 00bc 00de 39bc
00000340: c33d 06bd 6ed1 0dbd 0467 003d dbdd bbbc
00000350: 7c24 433c 55da 05bd 88d6 d03c 04b1 06bd
00000360: fa88 113d db0c 9ebc b379 0dbd 806b c6ba
00000370: 2a8e 813c 9b32 14bd 349d 4dbc b8c6 87bb
00000380: c2ff 153d 904b ca3c 2899 183d 4043 6c3b
00000390: 1313 ebbc 38c8 1cbc 1c69 31bc e294 78bc
000003a0: e047 703b a86c 973b b830 873c 809d 5ebb
000003b0: b0d6 90bb 809e 223c 1802 823b fea4 54bc
000003c0: 272b 1cbd 7828 9dbc 882d f3bb 205a d8bb
000003d0: 1dd9 1abd 66fc 173d 10ee 703b b41b 003d
000003e0: b057 e0bc 363b 3dbc cb97 15bd ca0c d7bc
000003f0: cc3a 183d 008b 223c 2001 503b ae58 063d

sequential/conv2d/Conv2D f4 [16]
0.0 0.0 0.0 0.0 0.0 0.0 0.0 0.0
0.0 0.0 0.0 0.0 0.0 0.0 0.0 0.0
00000000: 0000 0000 0000 0000 0000 0000 0000 0000
00000010: 0000 0000 0000 0000 0000 0000 0000 0000
00000020: 0000 0000 0000 0000 0000 0000 0000 0000
00000030: 0000 0000 0000 0000 0000 0000 0000 0000

sequential/conv2d/Conv2D1 f4 [16, 3, 3, 3]
-0.03272307 0.1601547 -0.022627205 -0.15157732 0.17896375 0.16915473 -0.020945042 -0.15914583
-0.027066216 -0.18261582 0.083539575 -0.07719418 0.009756893 0.13549906 0.033555835 -0.17610008
0.025580153 0.022152916 -0.039484084 0.14690661 0.10760614 0.049341723 -0.12550206 0.13748565
-0.10707861 0.047698334 0.14661226 0.0010987222 0.14577368 0.13422754 0.10923272 0.09753618
0.15974027 -0.15420279 0.10544583 -0.13267748 -0.097984426 -0.0883432 -0.044054613 0.015933707
-0.1052033 -0.045848653 -0.13311556 0.12698162 -0.031210259 -0.13937646 0.0030404925 -0.010382175
0.012924075 0.03771457 0.05219178 -0.094762035 0.068965286 -0.13496089 0.021185443 0.051339358
0.029769659 -0.156756 0.02299288 0.07659525 0.09501013 -0.07936143 0.08467108 -0.023150846
0.0136098415 0.0021176785 -0.18040636 -0.02543725 0.104369015 0.0078087 -0.025205195 0.020810038
-0.15437822 -0.06049387 -0.1153435 -0.15238692 0.040871352 0.088811725 0.09572896 0.094548166
-0.024392113 0.044524163 -0.18680367 -0.15372422 -0.04676588 -0.16901773 0.08778903 -0.05066289
-0.043567687 -0.1694855 -0.16556957 0.17729062 0.11929688 0.041976184 0.058443725 0.0775297
-0.13897894 -0.007918239 0.010615438 0.08424893 0.17707646 -0.1639224 0.094171554 0.040494725
-0.098822296 0.020868003 0.109264076 -0.16987127 -0.101743855 -0.11122573 0.14416337 -0.1856467
-0.16751045 -0.17586279 0.00028675795 0.0140358955 0.04816091 0.18193829 -0.049748525 0.11343819
0.14916325 -0.05678442 -0.06549114 0.027813643 -0.08761712 -0.025294334 0.047767192 -0.12872432
0.015660256 -0.059782892 -0.17936051 -0.11406516 0.0028200895 0.13122207 -0.14229548 0.0008504987
-0.045588642 -0.08670557 -0.1546799 0.15478095 0.089707464 0.15234128 -0.08050803 0.033220887
-0.15453993 -0.16783705 -0.02416104 0.018027008 -0.009923518 0.11807433 0.112490505 0.06106776
-0.026918754 0.10049921 0.13075393 -0.13112587 0.015967473 -0.07076186 0.16344273 0.113892764
-0.1507762 0.1592732 0.14393947 -0.18333359 0.10544914 0.16355065 -0.124778934 -0.0066556633
0.11153111 -0.17303386 -0.027323276 -0.12282596 0.16232958 -0.18607655 0.0132483095 -0.08108218
0.17489511 -0.13439813 -0.09692845 0.14257902 0.053555787 0.18194816 -0.14010076 -0.18020897
0.06757721 -0.15871987 -0.10183969 0.077224195 -0.11790024 0.011532038 -0.096639626 -0.056627095
-0.12928931 -0.021831721 0.09593439 -0.13198766 -0.050415933 -0.050203517 0.061348215 -0.01443921
0.123099536 -0.011287436 0.08102757 -0.07041007 0.07916644 -0.17197417 0.16929796 -0.098836765
0.049853608 -0.0947285 -0.079526626 0.1683355 0.15372854 0.013066858 0.08948091 0.04278636
-0.11487815 -0.032084823 -0.16463709 0.17558023 0.16661793 0.13997674 0.058063895 0.14196539
-0.09910043 -0.15476961 -0.097035855 0.14284724 0.04787956 0.056054816 0.11073241 -0.17276616
-0.17277256 0.0757446 0.14991137 0.17622316 -0.1169183 0.18062493 -0.124054104 0.068988055
0.074507535 -0.058938995 0.04675895 -0.057320207 -0.1274944 0.18535835 -0.038360834 0.08663157
0.07540792 -0.06243953 0.054196566 -0.01162608 0.1510393 -0.18441977 -0.16726571 -0.10133731
00000000: a008 06bd 98ff 233e b05c b9bc 1637 1bbe
00000010: 4642 373e e636 2d3e f094 abbc 20f7 22be
00000020: f8b9 ddbc a4ff 3abe cc16 ab3d fb17 9ebd
00000030: 60db 1f3c 44c0 0a3e d871 093d 9453 34be
00000040: 788d d13c 087a b53c 10ba 21bd b06e 163e
00000050: 9c60 dc3d 8c1a 4a3d 9d83 00be 0ac9 0c3e
00000060: 084c dbbd 545f 433d 8621 163e 0003 903a
00000070: b245 153e f272 093e 68b5 df3d 0cc1 c73d
00000080: f492 233e 56e7 1dbe fcf3 d73d 9bdc 07be
00000090: 0fac c8bd 48ed b4bd 9c72 34bd 6887 823c
000000a0: d474 d7bd cccb 3bbd 724f 08be 7807 023e
000000b0: a8ac ffbc b4b8 0ebe 0043 473b 001a 2abc
000000c0: 80bf 533c 987a 1a3d 0cc7 553d 9912 c2bd
000000d0: ac3d 8d3d 3033 0abe 188d ad3c 3849 523d
000000e0: 80df f33c a584 20be 905b bc3c f8dd 9c3d
000000f0: ac94 c23d 3f88 a2bd 0868 ad3d d8a6 bdbc
00000100: d0fb 5e3c c0c8 0a3b 72bc 38be c861 d0bc
00000110: 6cbf d53d 20e0 ff3b 207b cebc d079 aa3c
00000120: 5315 1ebe 6cc8 77bd 3739 ecbd 510b 1cbe
00000130: b868 273d ece2 b53d 8c0d c43d 78a2 c13d
00000140: f8d1 c7bc f85e 363d 7649 3fbe e269 1dbe
00000150: 948d 3fbd fc12 2dbe bcca b33d e483 4fbd
00000160: 0874 32bd 9b8d 2dbe 128b 29be ac8b 353e
00000170: ec51 f43d 38ef 2b3d b062 6f3d e4c7 9e3d
00000180: 7f50 0ebe 80bb 01bc 60ec 2d3c b48a ac3d
00000190: 8853 353e 46db 27be 04dd c03d ccdd 253d
000001a0: 5863 cabd 60f3 aa3c d8c5 df3d bcf2 2dbe
000001b0: 155f d0bd 51ca e3bd 909f 133e 2b1a 3ebe
000001c0: dc87 2bbe 6015 34be 0058 9639 d0f6 653c
000001d0: 6044 453d 084e 3a3e 1cc5 4bbd 4852 e83d
000001e0: 40be 183e c896 68bd 3820 86bd 70d9 e33c
000001f0: 9b70 b3bd 1036 cfbc 88a7 433d 4fd0 03be
00000200: f049 803c e8de 74bd 48aa 37be ff9a e9bd
00000210: 40d1 383b 145f 063e e8b5 11be 00f4 5e3a
00000220: 28bb 3abd b192 b1bd 6864 1ebe e67e 1e3e
00000230: 8cb8 b73d 5aff 1b3e 65e1 a4bd a012 083d
00000240: b73f 1ebe 7add 2bbe 60ed c5bc 60ad 933c
00000250: 4096 22bc f4d0 f13d 6c61 e63d 3022 7a3d
00000260: b884 dcbc 88d2 cd3d 5ce4 053e dc45 06be
00000270: 38ce 823c 98eb 90bd 885d 273e 9c40 e93d
00000280: 1465 1abe 8418 233e de64 133e cdbb 3bbe
00000290: b8f5 d73d d279 273e 198c ffbd c017 dabb
000002a0: 6c6a e43d ca2f 31be 10d5 dfbc 2d8c fbbd
000002b0: ba39 263e da8a 3ebe 700f 593c 6a0e a6bd
000002c0: b417 333e aa9f 09be 6c82 c6bd 3c00 123e
000002d0: 505d 5b3d 9e50 3a3e 9376 0fbe b388 38be
000002e0: ec65 8a3d 7687 22be 5491 d0bd b827 9e3d
000002f0: ae75 f1bd e0f0 3c3c ffea c5bd d0f1 67bd
00000300: 6b64 04be 70d8 b2bc 4079 c43d c627 07be
00000310: f080 4ebd 34a2 4dbd 4448 7b3d 7092 6cbc
00000320: 9c1b fc3d f0ee 38bc c8f1 a53d 2833 90bd
00000330: 0422 a23d ff19 30be 725c 2d3e ee6a cabd
00000340: 4c33 4c3d 0401 c2bd dbde a2bd 2460 2c3e
00000350: 046b 1d3e 6016 563c c441 b73d c040 2f3d
00000360: 3c45 ebbd 606b 03bd a096 28be 4ecb 333e
00000370: e49d 2a3e 1056 0f3e 68d4 6d3d 605f 113e
00000380: 2bf5 cabd ed7b 1ebe bcba c6bd 8c46 123e
00000390: 5c1d 443d bc99 653d acc7 e23d 9de9 30be
000003a0: 4aeb 30be fc1f 9b3d 5e82 193e d873 343e
000003b0: dd72 efbd bef5 383e 1410 febd 9c49 8d3d
000003c0: 6897 983d 046a 71bd 5086 3f3d 98c8 6abd
000003d0: e48d 02be 94ce 3d3e 4020 1dbd e46b b13d
000003e0: 786f 9a3d 98c0 7fbd 38fd 5d3d 507b 3ebc
000003f0: 0caa 1a3e 89d8 3cbe b447 2bbe f089 cfbd
