components/test/data/autofill_assistant/model/model.tflite (tflite, 319176 bytes, 7 tensors)

model/hierarchical_model/role_outputs/BiasAdd/ReadVariableOp/resource f4 [18]
0.9543255 -0.011915878 -0.023578208 -0.0070948517 -0.057907887 -0.046868715 -0.034424048 -0.0062226825
-0.0145969195 -0.05877767 -0.030018253 0.00027170943 0.00040281625 -0.005603837 0.0010785297 -0.048011634
-0.042477638 0.008782451
00000000: ad4e 743f d13a 43bc 1627 c1bc ee7b e8bb
00000010: d230 6dbd 69f9 3fbd 3b00 0dbd a5e7 cbbb
00000020: eb27 6fbc dbc0 70bd d7e8 f5bc 3974 8e39
00000030: 1531 d339 64a0 b7bb 745d 8d3a d9a7 44bd
00000040: 08fd 2dbd 45e4 0f3c

model/hierarchical_model/dense_2/BiasAdd/ReadVariableOp/resource f4 [4]
0.102014266 0.056566883 0.05326415 0.030196056
00000000: dbec d03d adb2 673d 822b 5a3d b85d f73c

model/hierarchical_model/dense/BiasAdd/ReadVariableOp/resource f4 [2]
0.20594314 0.15549308
00000000: c2e2 523e 9439 1f3e

model/hierarchical_model/dense/MatMul f4 [2, 3019]
0.0068152263 0.15674852 0.038778216 0.003601167 0.0 0.010728276 0.0 -0.0043484275
0.0 0.0 -0.00024029685 0.0 -0.0015539005 0.0 0.018174006 0.011879852
0.02534775 0.0 0.0 0.008705034 0.0 0.0 0.0 0.0
0.0 0.0 0.0 0.0 0.0 0.0 0.011292478 -0.0011216336
0.000990958 0.00036621848 -0.0021680314 -0.003986312 0.0062050074 2.4826159e-05 0.0 0.0
0.0 0.0 0.0 0.0 0.0 0.0 0.0 0.0
0.0 0.0 0.0 0.0 0.0 0.0 0.0 0.0
0.0 0.0 0.0 0.0 0.0 0.0 0.0 0.0
-0.0020101818 0.0 0.0 0.0 0.0 0.0 0.0 0.0
0.0 -0.0014232226 -0.002173543 -0.002173543 -0.005741491 -0.002173543 -0.002173543 0.0012719373
-0.002173543 -0.0027451846 -0.001025817 -0.002173543 -0.0070643937 -0.00064739824 0.0 -0.0005573519
0.0 0.0 0.0181977 -0.0060414057 0.0035225018 0.017565813 -0.0028135953 0.0
0.0 0.0029402361 0.051623117 0.0168243 0.014273102 0.0009522431 0.0018137187 0.015993109
-0.009206563 0.0026714343 -0.0013365591 0.0003740852 0.0024550199 -0.0003240023 -0.004440685 0.004141651
0.010120339 0.008546453 0.0025779319 0.0 0.0110087 0.004671752 0.012849095 -0.0028933454
0.011894523 0.0034642909 0.0034642909 0.004868181 -0.0062290663 -0.0015580974 0.011888118 0.011591174
0.0021629285 0.004469728 0.01492546 -0.005610217 -0.0056381975 0.0 0.0002700995 0.0
0.0 0.01649036 1.9887799e-05 -0.007149793 -0.00082760846 0.0 -0.00952559 -0.00022446096
-0.0003240023 0.010622201 -0.0007848162 0.008131919 0.0034642909 0.0037407046 0.007941881 0.0034642909
0.0027815804 -0.0010756442 0.0 0.0 0.016379772 -0.0015911699 1.9887799e-05 -0.00089899596
0.0033256146 0.0 0.00028491294 -0.0072905594 -0.0039308453 0.002362511 0.0026174225 -0.0027919095
0.010505018 -0.0062819915 0.025991246 0.00034306434 0.010770064 -0.0008748369 0.0036999185 0.0
0.0034642909 -0.009468678 0.005159766 -0.002988242 0.0034642909 0.010014507 0.03939681 0.06562039
0.0 0.0097995065 -0.001105667 -0.0016257537 -0.0013489994 0.0 0.0 0.0
0.0 -0.0015051499 0.0015534203 -0.0026913981 0.005757993 0.00044561227 0.0 0.0032226115
-0.0024376663 0.010092502 0.0032284681 0.0068152263 0.0075315097 0.0015916233 -0.000540456 0.0038728458
0.0022506984 0.008546453 0.004245794 -0.00030246822 -0.0028168696 -0.0037648068 -0.0030623307 0.0003777569
0.004311336 0.013840431 0.0024816522 0.0035882539 -0.0057132733 -0.00022446096 0.004252801 -0.0011142475
0.013322078 -0.0014498614 0.0 -0.009322199 0.007085329 0.0 0.0 0.0
0.0 0.0 -0.010524771 -5.3706055e-05 0.01653687 0.0028994991 0.00034306434 0.0
0.007403608 0.0 0.0 0.0 0.0 0.002369803 -0.004220636 0.0034642909
0.0 0.0018619909 -0.0013680672 0.0 -0.00050404866 0.00028491294 0.0 5.183394e-05
00000000: 4352 df3b af82 203e e8d5 1e3d 8e01 6c3b
00000010: 0000 0000 a7c5 2f3c 0000 0000 417d 8ebb
00000020: 0000 0000 0000 0000 32f8 7bb9 0000 0000
00000030: 40ac cbba 0000 0000 a7e1 943c b6a3 423c
00000040: 16a6 cf3c 0000 0000 0000 0000 8f9f 0e3c
00000050: 0000 0000 0000 0000 0000 0000 0000 0000
00000060: 0000 0000 0000 0000 0000 0000 0000 0000
00000070: 0000 0000 0000 0000 1604 393c c703 93ba
00000080: 08e3 813a 0301 c039 8815 0ebb 9c9f 82bb
00000090: 6053 cb3b c541 d037 0000 0000 0000 0000
000000a0: 0000 0000 0000 0000 0000 0000 0000 0000
000000b0: 0000 0000 0000 0000 0000 0000 0000 0000
000000c0: 0000 0000 0000 0000 0000 0000 0000 0000
000000d0: 0000 0000 0000 0000 0000 0000 0000 0000
000000e0: 0000 0000 0000 0000 0000 0000 0000 0000
000000f0: 0000 0000 0000 0000 0000 0000 0000 0000
00000100: 41bd 03bb 0000 0000 0000 0000 0000 0000
00000110: 0000 0000 0000 0000 0000 0000 0000 0000
00000120: 0000 0000 6d8b baba 0072 0ebb 0072 0ebb
00000130: 1e23 bcbb 0072 0ebb 0072 0ebb 22b7 a63a
00000140: 0072 0ebb 8ee8 33bb b574 86ba 0072 0ebb
00000150: 6e7c e7bb 29b6 29ba 0000 0000 411b 12ba
00000160: 0000 0000 0000 0000 5813 953c fcf6 c5bb
00000170: c6d9 663b 2ee6 8f3c 4c64 38bb 0000 0000
00000180: 0000 0000 fab0 403b c372 533d 1dd3 893c
00000190: bbd9 693c f49f 793a 4dba ed3a fb03 833c
000001a0: 20d7 16bc 3b13 2f3b 7b2f afba de20 c439
000001b0: 66e4 203b dade a9b9 2a83 91bb b0b6 873b
000001c0: c7cf 253c 6c06 0c3c 85f2 283b 0000 0000
000001d0: d65d 343c 7f15 993b 0385 523c 489e 3dbb
000001e0: 3fe1 423c 2809 633b 2809 633b 4385 9f3b
000001f0: 321d ccbb 1339 ccba 62c6 423c e8e8 3d3c
00000200: ebbf 0d3b cc76 923b eb89 743c e9d5 b7bb
00000210: a1c0 b8bb 0000 0000 249c 8d39 0000 0000
00000220: 0000 0000 cb16 873c b9d4 a637 d048 eabb
00000230: ddf3 58ba 0000 0000 3811 1cbc 485d 6bb9
00000240: dade a9b9 bd08 2e3c 20bc 4dba be3b 053c
00000250: 2809 633b 9c26 753b aa1e 023c 2809 633b
00000260: 2d4b 363b a1fc 8cba 0000 0000 0000 0000
00000270: df2e 863c cd8e d0ba b9d4 a637 99aa 6bba
00000280: 8ef2 593b 0000 0000 5e60 9539 a5e5 eebb
00000290: 52ce 80bb 5bd4 1a3b 1089 2b3b 78f8 36bb
000002a0: 3d1d 2c3c 2ad9 cdbb 98eb d43c 51dd b339
000002b0: ec74 303c 4f55 65ba 557a 723b 0000 0000
000002c0: 2809 633b 8422 1bbc 4113 a93b 62d6 43bb
000002d0: 2809 633b e313 243c 8d5e 213d fc63 863d
000002e0: 0000 0000 1c8e 203c 07ec 90ba 3e17 d5ba
000002f0: e9d0 b0ba 0000 0000 0000 0000 0000 0000
00000300: 0000 0000 7348 c5ba 239c cb3a 2b62 30bb
00000310: 8cad bc3b 11a1 e939 0000 0000 7332 533b
00000320: 41c1 1fbb 065b 253c b594 533b 4352 df3b
00000330: e2ca f63b 049e d03a 63ad 0dba 92cf 7d3b
00000340: 7480 133b 6c06 0c3c 4d20 8b3b 9994 9eb9
00000350: 3b9b 38bb faba 76bb 62b1 48bb ac0d c639
00000360: 1c46 8d3b fac2 623c 37a3 223b e928 6b3b
00000370: 6936 bbbb 485d 6bb9 155b 8b3b f10b 92ba
00000380: d844 5a3c 4709 beba 0000 0000 23bc 18bc
00000390: 0c2c e83b 0000 0000 0000 0000 0000 0000
000003a0: 0000 0000 0000 0000 1770 2cbc 7042 61b8
000003b0: 5478 873c 8605 3e3b 51dd b339 0000 0000
000003c0: f799 f23b 0000 0000 0000 0000 0000 0000
000003d0: 0000 0000 b24e 1b3b 434d 8abb 2809 633b
000003e0: 0000 0000 0c0e f43a b850 b3ba 0000 0000
000003f0: 2222 04ba 5e60 9539 0000 0000 4568 5938

model/hierarchical_model/dense_1/MatMul f4 [1, 3019]
0.23253691 0.23062977 0.20428081 0.100904204 0.023358937 0.0 0.0 0.016469376
0.020752365 0.00018712349 0.0 0.0 0.0072069424 0.0 9.451511e-05 0.035029985
0.08068047 0.0 0.0 0.015512146 0.0017589394 0.007501413 0.0073147733 0.0073147733
0.0073147733 0.0073147733 0.0074132094 0.0073147733 0.0074132094 0.007101493 0.027704833 0.018809859
0.012950093 0.015892815 0.0010753145 0.0015080114 0.01973458 0.0045221215 0.005308863 0.011325153
0.010002984 0.009881832 0.009881832 0.009881832 0.009881832 0.009881832 0.009881832 0.009680225
0.009150849 0.006405885 0.0038185725 0.0035010336 0.0032045064 0.0031133993 0.0025180548 0.0020121557
0.0019099575 0.0018154408 0.0018154408 0.0012170312 0.00057432766 0.0004817193 0.0004817193 0.00038911044
0.0037418436 0.0032402268 0.0033665497 0.003459471 0.004046226 0.0029104163 0.0028309384 0.0028119816
0.0031110863 0.019061364 0.007775835 0.002750912 0.0023017118 0.0023352734 0.0033546938 0.0025224797
0.004205753 0.003706061 0.01671039 0.00236869 0.015860511 0.002488523 0.00072692294 0.017036907
0.0135029685 0.016289627 0.023783462 0.000121153746 0.034499824 0.000386618 0.0 0.0038525353
9.451511e-05 0.019294247 0.01957436 0.0011324049 0.0014080284 0.0 0.0 0.000386618
0.00079556595 0.0019303551 0.0007029569 0.00029019616 0.00029019616 0.0016354243 9.212992e-05 0.0015299652
0.00079556595 0.0004656596 0.00094526506 0.008303001 0.0005856242 0.0045816493 0.0005030187 0.0044712066
0.014292726 0.00022335195 0.00022335195 0.00094526506 0.00091671915 0.00082411105 0.00058180327 0.00079556595
0.00030541368 0.00039754368 0.000386618 0.0006982337 0.00038184773 0.00084851513 0.0 0.0013836514
0.0043637636 0.00041564138 0.00038471154 0.0017906256 0.0011300032 0.001424357 0.0015716759 0.0016354243
0.0016354243 0.003263106 0.00082411105 0.0008876958 0.00022335195 0.000871233 0.00021328367 0.00022335195
0.000554158 0.00047298882 0.0013836514 0.0043637636 0.0029362205 0.00185827 0.00029019616 0.001008849
0.0 0.00061611255 0.00019758788 0.0007029569 0.0011300032 0.0009162414 0.00079508737 0.00079556595
0.00039754368 9.212992e-05 0.0 0.0011597694 0.00082411105 0.0021641613 0.001037394 0.0015210927
0.00022335195 0.0007029569 0.0009162414 0.0007029569 0.00022335195 0.0 0.002363528 0.0013804237
0.0 0.0012542122 0.0 0.000121153746 0.0 0.00040850334 0.0 0.0
0.00030779882 0.0 9.451511e-05 0.0007029569 0.001037394 0.00039754368 0.000107956475 0.00082411105
0.00082411105 0.00058180327 0.0011605014 0.006616363 0.0013723101 0.00030541368 9.260831e-05 0.00175042
0.0008876958 0.00022335195 0.000121153746 0.0017523338 0.0007029569 0.000121153746 0.0007029569 0.0024882273
0.008518888 0.0011751145 0.0011007766 0.00079508737 0.0007029569 0.0018777323 0.0009162414 0.0007029569
0.0069760513 0.000121153746 0.0008422093 0.0007029569 0.025576355 0.00030554444 0.000107956475 0.003837713
0.0009369327 0.0004635134 0.00024230749 0.0034974592 0.016580405 0.0008896018 0.002925002 0.00041135013
0.00061178405 0.00038423276 0.0008797645 0.0010836025 0.0004873054 0.0014071616 0.0007029569 0.00022335195
0.0019385894 0.00021566893 0.0072313724 0.0 0.00019758788 0.00019758788 0.0 0.00022335195
00000000: 281e 6e3e 362a 6c3e fd2e 513e dda6 ce3d
00000010: 3e5b bf3c 0000 0000 0000 0000 c9ea 863c
00000020: dd00 aa3c 9436 4439 0000 0000 0000 0000
00000030: 3728 ec3b 0000 0000 6a36 c638 9a7b 0f3d
00000040: cd3b a53d 0000 0000 0000 0000 a826 7e3c
00000050: 368c e63a 6ace f53b c4b0 ef3b c4b0 ef3b
00000060: c4b0 ef3b c4b0 ef3b 82ea f23b c4b0 ef3b
00000070: 82ea f23b a4b3 e83b 3ff5 e23c 2217 9a3c
00000080: a02c 543c a631 823c 91f1 8c3a 77a8 c53a
00000090: 6aaa a13c 4e2e 943b f8f5 ad3b 228d 393c
000000a0: 8ee3 233c 68e7 213c 68e7 213c 68e7 213c
000000b0: 68e7 213c 68e7 213c 68e7 213c ce99 1e3c
000000c0: 71ed 153c 75e8 d13b 0441 7a3b 9971 653b
000000d0: b202 523b 2c0a 4c3b f305 253b 5fde 033b
000000e0: 8a57 fa3a 16f4 ed3a 16f4 ed3a ca84 9f3a
000000f0: 7a8e 163a 458f fc39 458f fc39 8501 cc39
00000100: b839 753b fc59 543b 55a1 5c3b 4bb8 623b
00000110: 3496 843b afbc 3e3b 4487 393b 3949 383b
00000120: 5ee3 4b3b 9426 9c3c 6fcc fe3b a548 343b
00000130: 51d8 163b 630b 193b 6cda 5b3b 3050 253b
00000140: 6ad0 893b 63e1 723b 3ae4 883c 063c 1b3b
00000150: e7ed 813c 7d16 233b f98e 3e3a fc90 8b3c
00000160: 8e3b 5d3c d371 853c 89d5 c23c ec13 fe38
00000170: b04f 0d3d fdb2 ca39 0000 0000 d17a 7c3b
00000180: 6a36 c638 f80e 9e3c 695a a03c 346d 943a
00000190: 988d b83a 0000 0000 0000 0000 fdb2 ca39
000001a0: 878d 503a f803 fd3a a446 383a 7825 9839
000001b0: 7825 9839 bc5b d63a e035 c138 1d89 c83a
000001c0: 878d 503a c623 f439 aacb 773a 4f09 083c
000001d0: 9384 193a a921 963b 03dd 033a 3383 923b
000001e0: 0a2c 6a3c 9533 6a39 9533 6a39 aacb 773a
000001f0: fb4f 703a 2809 583a 2884 183a 878d 503a
00000200: ee1f a039 696d d039 fdb2 ca39 ac09 373a
00000210: bc32 c839 e36e 5e3a 0000 0000 a35b b53a
00000220: e7fd 8e3b 71ea d939 1cb3 c939 6db3 ea3a
00000230: 9e1c 943a 7db1 ba3a b100 ce3a bc5b d63a
00000240: bc5b d63a d6d9 553b 2809 583a 42b4 683a
00000250: 9533 6a39 7563 643a e6a4 5f39 9533 6a39
00000260: ea44 113a 7cfb f739 a35b b53a e7fd 8e3b
00000270: 9b6d 403b 3291 f33a 7825 9839 5b3b 843a
00000280: 0000 0000 9d82 213a 982f 4f39 a446 383a
00000290: 9e1c 943a eb2f 703a 696d 503a 878d 503a
000002a0: 696d d039 e035 c138 0000 0000 6703 983a
000002b0: 2809 583a 9ad4 0d3b 2bf9 873a 675f c73a
000002c0: 9533 6a39 a446 383a eb2f 703a a446 383a
000002d0: 9533 6a39 0000 0000 6be5 1a3b 55ef b43a
000002e0: 0000 0000 6164 a43a 0000 0000 ec13 fe38
000002f0: 0000 0000 642c d639 0000 0000 0000 0000
00000300: 0f60 a139 0000 0000 6a36 c638 a446 383a
00000310: 2bf9 873a 696d d039 b166 e238 2809 583a
00000320: 2809 583a 2884 183a f71b 983a 13ce d83b
00000330: 16df b33a ee1f a039 b536 c238 596e e53a
00000340: 42b4 683a 9533 6a39 ec13 fe38 91ae e53a
00000350: a446 383a ec13 fe38 a446 383a 8711 233b
00000360: ce92 0b3c 4d06 9a3a ef47 903a 696d 503a
00000370: a446 383a 3e1e f63a eb2f 703a a446 383a
00000380: 5c97 e43b ec13 fe38 b6c7 5c3a a446 383a
00000390: 8185 d13c 7b31 a039 b166 e238 2482 7b3b
000003a0: 7d9c 753a b703 f339 ec13 7e39 a135 653b
000003b0: a1d3 873c 2b34 693a 64b1 3f3b 7baa d739
000003c0: 2260 203a d972 c939 ff9f 663a ab07 8e3a
000003d0: 067d ff39 8270 b83a a446 383a 9533 6a39
000003e0: 4418 fe3a 3025 6239 26f5 ec3b 0000 0000
000003f0: 982f 4f39 982f 4f39 0000 0000 9533 6a39

model/hierarchical_model/dense_2/MatMul f4 [4, 3019]
0.02789884 0.07411546 0.0 0.0 0.0 -0.0017880133 0.0 0.0
0.0 0.0 0.0 0.0 0.0 0.0 0.0 0.0
0.041752033 0.0 0.0 -0.006506402 0.0 0.0 0.0 0.0
0.0 0.0 0.0 0.0 0.0 0.0 -0.007550697 0.0
0.0 0.0 0.0 0.0 -0.0024829688 -0.00257451 0.0 0.0
0.0 0.0 0.0 0.0 0.0 0.0 0.0 0.0
0.0 0.0 0.0 0.0 0.0 0.0 0.0 0.0
0.0 0.0 0.0 0.0 0.0 0.0 0.0 0.0
0.0 0.0 0.0 0.0 0.0 0.0 0.0 0.0
0.0 0.0 0.0 0.0 0.0 0.0 0.0 0.0
0.0 0.0 0.0 0.0 0.0 -0.007427321 0.0 0.0
0.0 0.0 0.034992363 -0.0078392755 0.004329444 0.0 0.0 0.0
-0.008214208 0.0 -0.008952033 0.0 0.0 0.0 0.0 0.0
0.0 0.0 0.0 0.0 0.0 0.0 0.0 0.0
0.0 0.0 0.0 0.0 0.0 0.0 0.0 -0.008214208
0.010493608 0.0 0.0 0.0 0.0 0.0 0.0 0.0
0.0 0.0 0.0 0.0 0.0 0.0 0.013761503 0.0
0.0 0.0 0.0 0.0 0.0 0.0 0.0 0.0
0.0 0.0 0.0 0.0 0.0 0.015168687 0.0 0.0
0.0024788554 0.0 0.0 0.0 0.0 0.0 0.0 0.0
0.0 0.0 0.0 0.0 0.0 0.0 0.0 0.0
0.0 0.0 -0.00514902 0.007611829 0.0 0.0 0.0 0.0
0.0 0.0 0.0 0.0 0.0 -0.0045516174 -0.0060298853 -0.021534355
0.0 -0.0007903549 0.0 0.0 0.0 0.0 -0.009979488 -0.0100765135
0.0 0.0 0.0 0.0 0.0 0.0 0.0 0.0
0.0 0.0 0.0 0.010887794 0.0 0.0 0.0 0.0
0.0 0.0 0.0 0.0 0.0 0.0 0.0 0.0
0.0 0.0 0.0 0.0 0.0 0.0 0.0 0.0
0.0 0.0 0.007611829 0.0 0.20516874 0.22200729 0.114830874 0.0
0.0 0.0 0.0 0.0 -0.0062031006 0.0 0.0076889554 0.0
-0.0054343 0.0 0.0 0.0 0.0 0.0 0.0 0.0
0.0 0.0 -0.007119058 0.0 0.0 0.0 0.0 0.0
00000000: 1c8c e43c d9c9 973d 0000 0000 0000 0000
00000010: 0000 0000 c55b eaba 0000 0000 0000 0000
00000020: 0000 0000 0000 0000 0000 0000 0000 0000
00000030: 0000 0000 0000 0000 0000 0000 0000 0000
00000040: 2e04 2b3d 0000 0000 0000 0000 a833 d5bb
00000050: 0000 0000 0000 0000 0000 0000 0000 0000
00000060: 0000 0000 0000 0000 0000 0000 0000 0000
00000070: 0000 0000 0000 0000 d66b f7bb 0000 0000
00000080: 0000 0000 0000 0000 0000 0000 0000 0000
00000090: 4eb9 22bb 1cb9 28bb 0000 0000 0000 0000
000000a0: 0000 0000 0000 0000 0000 0000 0000 0000
000000b0: 0000 0000 0000 0000 0000 0000 0000 0000
000000c0: 0000 0000 0000 0000 0000 0000 0000 0000
000000d0: 0000 0000 0000 0000 0000 0000 0000 0000
000000e0: 0000 0000 0000 0000 0000 0000 0000 0000
000000f0: 0000 0000 0000 0000 0000 0000 0000 0000
00000100: 0000 0000 0000 0000 0000 0000 0000 0000
00000110: 0000 0000 0000 0000 0000 0000 0000 0000
00000120: 0000 0000 0000 0000 0000 0000 0000 0000
00000130: 0000 0000 0000 0000 0000 0000 0000 0000
00000140: 0000 0000 0000 0000 0000 0000 0000 0000
00000150: 0000 0000 e260 f3bb 0000 0000 0000 0000
00000160: 0000 0000 0000 0000 2754 0f3d 4e70 00bc
00000170: 02de 8d3b 0000 0000 0000 0000 0000 0000
00000180: e394 06bc 0000 0000 8cab 12bc 0000 0000
00000190: 0000 0000 0000 0000 0000 0000 0000 0000
000001a0: 0000 0000 0000 0000 0000 0000 0000 0000
000001b0: 0000 0000 0000 0000 0000 0000 0000 0000
000001c0: 0000 0000 0000 0000 0000 0000 0000 0000
000001d0: 0000 0000 0000 0000 0000 0000 e394 06bc
000001e0: 62ed 2b3c 0000 0000 0000 0000 0000 0000
000001f0: 0000 0000 0000 0000 0000 0000 0000 0000
00000200: 0000 0000 0000 0000 0000 0000 0000 0000
00000210: 0000 0000 0000 0000 ed77 613c 0000 0000
00000220: 0000 0000 0000 0000 0000 0000 0000 0000
00000230: 0000 0000 0000 0000 0000 0000 0000 0000
00000240: 0000 0000 0000 0000 0000 0000 0000 0000
00000250: 0000 0000 1686 783c 0000 0000 0000 0000
00000260: 4b74 223b 0000 0000 0000 0000 0000 0000
00000270: 0000 0000 0000 0000 0000 0000 0000 0000
00000280: 0000 0000 0000 0000 0000 0000 0000 0000
00000290: 0000 0000 0000 0000 0000 0000 0000 0000
000002a0: 0000 0000 0000 0000 1cb9 a8bb a66c f93b
000002b0: 0000 0000 0000 0000 0000 0000 0000 0000
000002c0: 0000 0000 0000 0000 0000 0000 0000 0000
000002d0: 0000 0000 bc25 95bb 5896 c5bb d168 b0bc
000002e0: 0000 0000 d22f 4fba 0000 0000 0000 0000
000002f0: 0000 0000 0000 0000 0281 23bc f617 25bc
00000300: 0000 0000 0000 0000 0000 0000 0000 0000
00000310: 0000 0000 0000 0000 0000 0000 0000 0000
00000320: 0000 0000 0000 0000 0000 0000 b862 323c
00000330: 0000 0000 0000 0000 0000 0000 0000 0000
00000340: 0000 0000 0000 0000 0000 0000 0000 0000
00000350: 0000 0000 0000 0000 0000 0000 0000 0000
00000360: 0000 0000 0000 0000 0000 0000 0000 0000
00000370: 0000 0000 0000 0000 0000 0000 0000 0000
00000380: 0000 0000 0000 0000 a66c f93b 0000 0000
00000390: c117 523e e155 633e 732c eb3d 0000 0000
000003a0: 0000 0000 0000 0000 0000 0000 0000 0000
000003b0: 6143 cbbb 0000 0000 a2f3 fb3b 0000 0000
000003c0: 3612 b2bb 0000 0000 0000 0000 0000 0000
000003d0: 0000 0000 0000 0000 0000 0000 0000 0000
000003e0: 0000 0000 0000 0000 fd46 e9bb 0000 0000
000003f0: 0000 0000 0000 0000 0000 0000 0000 0000

model/hierarchical_model/role_outputs/MatMul f4 [18, 3019]
0.5505004 0.08180663 0.22720854 0.094810136 -0.12830131 -0.011158682 -0.0022480602 0.13762105
0.22965887 -0.0033587164 -0.005589086 0.0 0.13375695 -0.0021877354 -0.0070061036 -0.30400836
-0.2781907 0.0 -0.0011421641 -0.0014347016 -0.021231033 -0.055132456 -0.050495233 -0.04893254
-0.053807378 -0.05052982 -0.053457417 -0.045965426 -0.03814754 -0.051949657 -0.0088083865 -0.0077818036
-0.05138892 0.008031682 0.0057607926 0.03041233 -0.02723836 0.027760712 -0.01708237 -0.048668724
-0.076760165 -0.079049245 -0.0768036 -0.079049245 -0.079049245 -0.079049245 -0.07790991 -0.07558053
-0.06625275 -0.047616012 -0.027833771 -0.02301294 -0.020098135 -0.017237308 -0.009726103 -0.005856306
-0.005856306 -0.0055225794 -0.0077689933 -0.011044492 -0.0069751963 -0.006873117 -0.006873117 -0.005988372
0.010786467 0.006586926 0.0083239395 0.009747457 0.015062939 0.007739386 0.008017226 0.004973811
0.0050923503 0.02241695 0.04822246 0.0050592814 -0.0022215375 -0.0006197673 0.0075470866 -0.0034757608
0.0019371763 0.0055916756 0.018536005 0.021151636 0.055082563 -0.009669481 -0.01199026 0.05671125
0.06433893 0.070956536 0.013516278 -0.0054300926 0.044013068 0.0039268467 -0.0033577334 0.021150995
0.0033815834 0.041594744 0.0145414565 -0.064108364 -0.06175094 -0.019807603 -0.019780977 0.0030276736
0.0044613215 0.01205618 -0.0050380207 -0.014512434 -0.01451927 -0.008378762 0.0012190428 0.0019327861
-0.010508977 0.0032413914 -0.0016634255 0.019228863 -0.008659973 0.054701 -0.00079539645 0.017219065
0.058203872 -0.009892471 -0.009892471 -0.00024470733 0.0097839255 -0.0020701622 0.01295158 0.00089441304
0.0021236506 0.010320255 0.004341067 -0.025543004 -0.021697555 -0.0315309 -0.0033281317 -0.011271125
-0.007814638 -0.036028333 -0.01265825 0.0068268175 -0.00073938956 0.021618988 0.013567145 -0.004999161
-0.008378762 0.015626162 0.004881058 -0.016854994 -0.009892471 -0.047820102 0.0016271343 -0.009892471
0.009443962 0.006886374 0.017260082 -0.019666024 -0.00922776 -0.004331851 -0.015164961 0.011082181
-0.0028891265 -0.0046733115 0.0035524617 -0.0046023782 0.005608743 0.0042176633 -0.00091740064 0.004817531
0.0053598927 -0.0036960496 -0.018340474 -0.022021364 -0.009669124 0.0044872425 0.010604323 0.0069037685
-0.009892471 0.0003060061 -0.018568141 0.0042737997 -0.009892471 -0.004782612 -0.06888007 -0.03970165
0.0 0.09141205 -0.0007417066 0.0020641629 -0.0014996043 -0.005988846 -0.002063641 -0.0020772782
-0.0029251936 -0.0023119377 0.015555379 -0.008281674 0.0062901387 0.015911357 0.0011396628 -0.015839333
0.005225218 -0.0047882623 -0.0060854857 -0.11757676 -0.0020337729 0.0046902625 -0.008005856 0.0065301037
0.005708216 -0.0011377219 -0.02286954 0.016965074 -0.009571995 -0.013293053 -0.0066260095 0.03323247
0.06969625 -0.01566411 0.021385271 -0.0021614046 -0.004489335 -0.0017087782 0.012105897 -0.012379934
-0.052076492 0.003202003 -0.027681775 -0.0062385416 -0.10612222 -0.019009765 -0.016527595 -0.036362622
0.0044580493 -0.0064002033 0.0061880313 -0.012110565 0.0785435 0.0022619618 0.057157505 -0.011340405
-0.03686968 -0.011018581 -0.0045956112 -0.010430696 -0.016927201 0.013584744 0.0068936213 -0.009892471
0.011347905 0.0037214216 0.19937494 0.0 -0.0052230507 -0.0008748159 0.0 -0.008211197
00000000: 98ed 0c3f 3c8a a73d 5ba9 683e d12b c23d
00000010: 6b61 03be e8d2 36bc 3154 13bb 88ec 0c3e
00000020: b22b 6b3e e91d 5cbb a724 b7bb 0000 0000
00000030: 95f7 083e 1c60 0fbb 7593 e5bb fca6 9bbe
00000040: 036f 8ebe 0000 0000 abb4 95ba 990c bcba
00000050: b4ec adbc 92d2 61bd 17d4 4ebd 7d6d 48bd
00000060: 2065 5cbd 5bf8 4ebd 2af6 5abd 3e46 3cbd
00000070: 9840 1cbd 2ac9 54bd 0d51 10bc 80fe febb
00000080: 307d 52bd 5197 033c 08c5 bc3b 4723 f93c
00000090: fb22 dfbc 6f6a e33c 54f0 8bbc db58 47bd
000000a0: 6f34 9dbd 92e4 a1bd 354b 9dbd 92e4 a1bd
000000b0: 92e4 a1bd 92e4 a1bd 3b8f 9fbd f7c9 9abd
000000c0: 86af 87bd 0209 43bd a603 e4bc a285 bcbc
000000d0: d8a4 a4bc 4135 8dbc 3c5a 1fbc 41e6 bfbb
000000e0: 41e6 bfbb c1f6 b4bb 0a93 febb f5f3 34bc
000000f0: 3090 e4bb e237 e1bb e237 e1bb 1b3a c4bb
00000100: b9b9 303c 24d7 d73b 2261 083c ccb3 1f3c
00000110: 8cca 763c ad9a fd3b af5a 033c 5afb a23b
00000120: bbdd a63b c0a3 b73c ea84 453d 54c8 a53b
00000130: 3797 11bb e177 22ba 8d4d f73b 97c9 63bb
00000140: dae8 fd3a 603a b73b d2d8 973c 3246 ad3c
00000150: 419e 613d be6c 1ebc cc72 44bc 0e4a 683d
00000160: 21c4 833d a951 913d 6173 5d3c ebee b1bb
00000170: 0c47 343d c7ac 803b 6b0d 5cbb da44 ad3c
00000180: 8e9d 5d3b 405f 2a3d 4a3f 6e3c 3f4b 83bd
00000190: 8eee 7cbd 8e43 a2bc b70b a2bc ef6b 463b
000001a0: 4730 923b 4987 453c fb15 a5bb 8fc5 6dbc
000001b0: 3be2 6dbc 1347 09bc 4ac8 9f3a 8a55 fd3a
000001c0: d82d 2cbc 866d 543b 4c07 daba d985 9d3c
000001d0: 8fe2 0dbc 280e 603d 2782 50ba ff0e 8d3c
000001e0: 2f67 6e3d 0814 22bc 0814 22bc 104c 80b9
000001f0: c24c 203c 8fab 07bb dd32 543c 0b77 6a3a
00000200: f22c 0b3b 4916 293c 823f 8e3b 903f d1bc
00000210: 12bf b1bc 8c26 01bd c91c 5abb 86aa 38bc
00000220: f808 00bc 7292 13bd 8c64 4fbc 7fb3 df3b
00000230: 98d3 41ba 4e1a b13c bb48 5e3c 01d0 a3bb
00000240: 1347 09bc 7002 803c 48f1 9f3b 7c13 8abc
00000250: 0814 22bc 03df 43bd 9145 d53a 0814 22bc
00000260: d9ba 1a3c 18a7 e13b 0465 8d3c a41a a1bc
00000270: 0830 17bc 33f2 8dbb 7576 78bc 0992 353c
00000280: 8057 3dbb 9422 99bb 6bd0 683b 8ccf 96bb
00000290: 8cc9 b73b 5334 8a3b b77d 70ba 61dc 9d3b
000002a0: 0aa2 af3b 6c39 72bb c33e 96bc 2666 b4bc
000002b0: 3f6b 1ebc b809 933b c1bd 2d3c 0239 e23b
000002c0: 0814 22bc 726f a039 371c 98bc 3b0b 8c3b
000002d0: 0814 22bc 75b7 9cbb fe10 8dbd 339e 22bd
000002e0: 0000 0000 3e36 bb3d 166f 42ba e846 073b
000002f0: 5f8e c4ba 153e c4bb 273e 07bb f222 08bb
00000300: 9bb4 3fbb e183 17bb fddb 7e3c dcaf 07bc
00000310: 821d ce3b 8958 823c bd60 953a 7dc1 81bc
00000320: 4e38 ab3b dbe6 9cbb c168 c7bb 16cc f0bd
00000330: 0c49 05bb c6b0 993b fe2a 03bc 7bfa d53b
00000340: fd0b bb3b 9d1f 95ba e758 bbbc 57fa 8a3c
00000350: dbd3 1cbc 1bcb 59bc ff1e d9bb c51e 083d
00000360: e8bc 8e3d 0552 80bc 2a30 af3c 5aa6 0dbb
00000370: 461b 93bb 15f9 dfba d057 463c 35d5 4abc
00000380: 294e 55bd b2d8 513b e4c4 e2bc ae6c ccbb
00000390: 9b56 d9bd 5eba 9bbc e164 87bc f9f0 14bd
000003a0: d414 923b ccb8 d1bb f8c4 ca3b 646b 46bc
000003b0: 6adb a03d 6c3d 143b fd1d 6a3d 1bcd 39bc
000003c0: a904 17bd 4787 34bc c896 96bb 83e5 2abc
000003d0: eaaa 8abc 8c92 5e3c e3e3 e13b 0814 22bc
000003e0: 90ec 393c 18e3 733b f228 4c3e 0000 0000
000003f0: 2026 abbb e753 65ba 0000 0000 4288 06bc
