chrome/test/data/safe_browsing/visual_model_android.tflite (tflite, 886143 bytes, 106 tensors)

dense/BiasAdd/ReadVariableOp f4 [10]
0	0x4079331a	3.893744
1	0xbf2041cf	-0.62600416
2	0xbf1e7b81	-0.619072
3	0xbf221224	-0.6330893
4	0xbf1ee28b	-0.6206443
5	0xbf1e33a4	-0.6179755
6	0xbf1e4c91	-0.6183558
7	0xbf1e636d	-0.6187046
8	0xbf1ecf62	-0.6203519
9	0xbf1e7eb6	-0.61912096

mobile_net/conv2dbn_block/batch_normalization/FusedBatchNormV3 f4 [16]
0	0xc04478f1	-3.0698817
1	0x4062c6bd	3.54338
2	0xc0e4b450	-7.147011
3	0xc0501a16	-3.2515922
4	0x40529a0e	3.2906528
5	0x411811d4	9.504353
6	0xc06514e3	-3.5793998
7	0xbffde40f	-1.9835223
8	0xc1147114	-9.277607
9	0x41426d52	12.15169
10	0xbfffeee5	-1.999478
11	0x40212f19	2.5184996
12	0x3e437335	0.19086917
13	0x3facd868	1.3503542
14	0xbe29890a	-0.16556183
15	0x3fd48375	1.6602618

mobile_net/inverted_bottleneck_block/batch_normalization/FusedBatchNormV3 f4 [16]
0	0xc04b9018	-3.1806698
1	0xbf33f3d0	-0.70293903
2	0xbf5be60e	-0.8589791
3	0xbfa09c22	-1.2547648
4	0x40b46415	5.637217
5	0x3fc7e9d5	1.5618235
6	0x40696cf0	3.647274
7	0xbe36aa82	-0.17838481
8	0x40a3c5d4	5.117899
9	0x40b10db5	5.532923
10	0xbfa3a120	-1.2783546
11	0x3e266554	0.16249591
12	0xbf8382ba	-1.027427
13	0xc023235f	-2.5490339
14	0xbf88e216	-1.0693996
15	0x402e78c6	2.7261214

mobile_net/inverted_bottleneck_block_1/batch_normalization/FusedBatchNormV3 f4 [48]
0	0x3f70aae6	0.9401077
1	0xc0074551	-2.1136057
2	0xc02c07ae	-2.6879687
3	0xc00b925f	-2.1808088
4	0x3fbaf89a	1.4607117
5	0xbfafc924	-1.3733258
6	0x3e85fbb5	0.261686
7	0x3f5ba537	0.8579897
8	0x3da3da23	0.08000591
9	0xbfc0a539	-1.5050422
10	0xbfbcbe6c	-1.4745612
11	0xbfcb1bff	-1.5867919
12	0x3d6ac86d	0.057320047
13	0x3fb0c96e	1.3811471
14	0xbf1d6c4d	-0.6149338
15	0xbf6cf7db	-0.925657
16	0xc0136c92	-2.3035016
17	0x3d6a6af1	0.057230894
18	0x401cebeb	2.4518993
19	0x3e3026bc	0.17202276
20	0xc01bbb12	-2.4332929
21	0x3f3d28c5	0.73890334
22	0x3ea3be5d	0.31981173
23	0xc0009554	-2.0091143
24	0x4006b60d	2.1048615
25	0xbf8c3635	-1.0954043
26	0xc08bda25	-4.370379
27	0x3b7ab8cd	0.0038257123
28	0xc0423a92	-3.0348248
29	0x3fa4b685	1.28682
30	0x3fd1d793	1.6393913
31	0x3df82e51	0.12118209
32	0xc012418b	-2.2852504
33	0xc0395c4b	-2.896258
34	0x3e7fff96	0.24999842
35	0x401da43a	2.4631486
36	0xbec276eb	-0.37981352
37	0xbf8f0e32	-1.1176207
38	0x3fdfa7ef	1.7473124
39	0xbefa7ea1	-0.48924735
40	0x3fbaad47	1.458413
41	0x3eb60a47	0.35554716
42	0xbcd5d692	-0.026103292
43	0xc0222ff0	-2.5341759
44	0xbf726b48	-0.9469495
45	0x3fa04cee	1.2523477
46	0x3f12952a	0.57258856
47	0xbf0c4106	-0.5478672

mobile_net/inverted_bottleneck_block_1/batch_normalization_1/FusedBatchNormV3 f4 [48]
0	0x40755758	3.833456
1	0xc008f704	-2.1400766
2	0x3fad9a05	1.3562628
3	0x3ff82f91	1.9389516
4	0x402b3634	2.6751833
5	0xc00ee1f2	-2.2325406
6	0x400c7db0	2.1951714
7	0x3fe65ee8	1.7997713
8	0xbda98368	-0.08277017
9	0x3fcc298a	1.5950177
10	0xbf1321e4	-0.5747359
11	0x400ef132	2.2334714
12	0xbce3f7c0	-0.027828097
13	0x3efd1e53	0.49437198
14	0xbf88d694	-1.0690484
15	0xbf5c9687	-0.86167186
16	0xbfb06ef3	-1.3783859
17	0xbf4373d2	-0.763486
18	0x41076c7b	8.4639845
19	0xbf1ec510	-0.62019444
20	0xbf13a5c1	-0.57674795
21	0xbee8d125	-0.45472065
22	0xbe82dde4	-0.25559914
23	0xbf895709	-1.0729686
24	0x3ec96388	0.3933375
25	0xbf18fae0	-0.59757805
26	0xbe851a42	-0.25996596
27	0x3fc8408a	1.5644696
28	0x3ef9e1e1	0.48805144
29	0x3fb42b78	1.4075766
30	0x408cf97a	4.4054537
31	0xbf096350	-0.53667164
32	0xbfc3bdb2	-1.5292265
33	0x40bfb9de	5.991439
34	0xbea06ace	-0.31331486
35	0x4098fee6	4.7811155
36	0xbf9b6c33	-1.2142395
37	0xc0224597	-2.5354974
38	0x401dbd45	2.464677
39	0xbf842da5	-1.032643
40	0x3ea56ec0	0.32311058
41	0x4042e3e6	3.0451598
42	0xbf98c7c6	-1.1935966
43	0xbf73792a	-0.95106757
44	0x3f8fd5c0	1.1237106
45	0xbf781140	-0.9690132
46	0x3ea951c2	0.3307019
47	0xbe3b87a0	-0.18313456

mobile_net/inverted_bottleneck_block_2/batch_normalization/FusedBatchNormV3 f4 [96]
0	0x3dbf71c2	0.093478695
1	0x3e45be9d	0.19310994
2	0x3f51a194	0.81887174
3	0x3f0444c4	0.5166743
4	0x3f07340d	0.528138
5	0x3f052cb0	0.5202131
6	0x3eb0813d	0.344736
7	0x3f8425f7	1.0324086
8	0x3ee22b70	0.44173765
9	0xbede5a87	-0.43428442
10	0xc03e02ac	-2.968913
11	0xbe87ce01	-0.26524356
12	0xbe8007bc	-0.250059
13	0xbf10be15	-0.5654004
14	0x3ecc8e8b	0.39952502
15	0xbeb42925	-0.3518764
16	0x3cc8c4a2	0.024507824
17	0xbedb9fda	-0.42895395
18	0xbf180b11	-0.59391886
19	0xbed1c97c	-0.40974033
20	0xbe69b3b4	-0.22822458
21	0x3ee74c67	0.45175478
22	0xbde729b1	-0.11287249
23	0xbe9f297a	-0.31086332
24	0xbe772053	-0.24133424
25	0x3e51b485	0.20479019
26	0x3f93ade9	1.1537448
27	0xbee84509	-0.4536517
28	0xbe0f3674	-0.13985616
29	0x3ef3bf3b	0.47606835
30	0xbe956035	-0.29174963
31	0xbfd0e7e7	-1.6320771
32	0x3f0cd74f	0.55016035
33	0xbf5a30cc	-0.8523071
34	0xbf6fed19	-0.9372116
35	0xbf874d14	-1.0570397
36	0x3e3b0b1e	0.1826596
37	0x3e937f29	0.28807953
38	0x3f7f2f02	0.99681103
39	0xc0281b31	-2.6266596
40	0xbf7c278d	-0.9849785
41	0xbcc5cedb	-0.024146488
42	0xbf39fd48	-0.726521
43	0xbe770193	-0.24121694
44	0x3f6cdbce	0.92522895
45	0xbd779cf4	-0.060452417
46	0xbf6b832c	-0.9199703
47	0x3f57eac7	0.84342617
48	0x3eb61d23	0.35569105
49	0xbe94d7ac	-0.29070795
50	0xbdc095b7	-0.09403556
51	0x3c4edba3	0.012625608
52	0xbe961e43	-0.29319963
53	0xbe22eafe	-0.15909955
54	0xbe5ad3fb	-0.21369927
55	0xbf4c2334	-0.79741216
56	0xbd8e1263	-0.06937101
57	0xbdb5406b	-0.088501774
58	0xbf2dec13	-0.67938346
59	0x3fbfda0b	1.4988416
60	0x3f95557b	1.1666712
61	0xbe94408a	-0.2895549
62	0x3f211c10	0.62933445
63	0xbdd5d0a0	-0.10440183
64	0xbfd45ff6	-1.6591785
65	0xbe8943e7	-0.26809618
66	0x3fab0958	1.3362226
67	0xbe5579ff	-0.20847319
68	0x3dfb85ae	0.12281357
69	0x3ead7ea0	0.3388567
70	0xbcb9cd45	-0.022680888
71	0x3ef5eff2	0.48034626
72	0x3db02bf5	0.08602134
73	0xbddfabd6	-0.10921447
74	0x3edbacbe	0.4290523
75	0xbfe13ccc	-1.7596679
76	0x3f22d63d	0.6360815
77	0x3f6c36aa	0.9227091
78	0xbf2ecd95	-0.68282443
79	0x3f4e7d05	0.80659515
80	0x3e5e0b4c	0.21683997
81	0x3e0ebcd5	0.13939221
82	0xbe9e90bf	-0.30969808
83	0x3e8a70c2	0.27039152
84	0xbf52da77	-0.823646
85	0xbf680f4b	-0.90648335
86	0xbd26484f	-0.040596303
87	0xbe3e9767	-0.18612443
88	0xbe046ad2	-0.12931374
89	0xbe4c6038	-0.1995858
90	0xbede4159	-0.4340923
91	0x3d2e3db3	0.04253931
92	0x3f81afae	1.0131738
93	0x3f14aa97	0.580728
94	0x3f69d6ce	0.9134339
95	0xbf4cd0f3	-0.8000633

mobile_net/inverted_bottleneck_block_2/batch_normalization_1/FusedBatchNormV3 f4 [96]
0	0x3f0fa14e	0.56105506
1	0x3f916d54	1.1361489
2	0x3ff2f49c	1.8980899
3	0xbf8c3011	-1.0952169
4	0x3e9b1de4	0.30296242
5	0x3feb8882	1.8401034
6	0x3ef86352	0.48513275
7	0x3f96be2a	1.1776783
8	0x3f13f822	0.57800496
9	0x3fa7678e	1.3078477
10	0xbffb2bb5	-1.9622713
11	0x3e50b06b	0.20379798
12	0x3f852120	1.0400734
13	0xbe8d79c0	-0.2763195
14	0xbf7e09c4	-0.9923365
15	0xbebe657f	-0.3718681
16	0xbf400d17	-0.75019974
17	0xbd511078	-0.051041096
18	0xbe337f58	-0.17529047
19	0xbf0ca0dc	-0.5493295
20	0x3f30399a	0.68837893
21	0x3f10a8f6	0.56507814
22	0x3fac1b4a	1.3445828
23	0x3f0db99b	0.55361336
24	0x3f0d4a3c	0.551914
25	0xbf890e57	-1.0707501
26	0x3f20674d	0.62657624
27	0x4028fb0e	2.6403232
28	0xbef94925	-0.48688617
29	0x3f690aa3	0.91031855
30	0xbf9b5538	-1.2135382
31	0xbf858fc0	-1.0434494
32	0xbf64369a	-0.89145815
33	0x3f02999d	0.51015645
34	0x3f85512f	1.04154
35	0xbeea8307	-0.4580309
36	0xbf023d06	-0.50874364
37	0xbedc05e4	-0.42973244
38	0x3f89904d	1.0747162
39	0xbf63c416	-0.8897108
40	0x3e281ebc	0.16417974
41	0x3ffc6d9a	1.9720948
42	0xbf32ed8b	-0.6989371
43	0x3eb30ece	0.34972233
44	0x40040f1c	2.0634222
45	0xbeab2860	-0.3342924
46	0x3f86826b	1.050855
47	0xbe2fb77d	-0.17159839
48	0xbe549220	-0.20758867
49	0x3d9a9e5c	0.07549736
50	0x3e908813	0.28228816
51	0x3f78b8ae	0.971568
52	0xbdc9779a	-0.09837265
53	0x401550b5	2.333051
54	0x3f97fd74	1.1874223
55	0x3fa84868	1.3147097
56	0x3f093cdc	0.5360849
57	0x3f5dcb9d	0.86638814
58	0xbd7d536c	-0.061847135
59	0x3fd2a1f8	1.6455679
60	0x3f0f38a2	0.5594579
61	0x3efb4722	0.49077708
62	0xc028b7d2	-2.6362195
63	0xbe93bd0c	-0.2885517
64	0xbf903aea	-1.1267979
65	0x3e29b053	0.16571169
66	0xbe731978	-0.23740184
67	0xbefa5df8	-0.48899817
68	0x3f6b4a59	0.9191032
69	0xbe585d48	-0.21129334
70	0xbee548ce	-0.44782108
71	0x3e7267e6	0.23672447
72	0xbd7053d0	-0.05867368
73	0xbf348b93	-0.70525473
74	0xbd013f40	-0.03155446
75	0x3eac78b3	0.33685836
76	0x3f88b03c	1.0678782
77	0xbe113fba	-0.14184466
78	0xbf024214	-0.5088208
79	0xbf9022f3	-1.1260666
80	0x3f26d5db	0.6517007
81	0xbd344d68	-0.044019133
82	0x3f9f2f37	1.2436284
83	0x3d2fc2c0	0.042910337
84	0x3fcda3c8	1.6065607
85	0x3f7c3eb3	0.9853317
86	0x3f75206d	0.957526
87	0x3f758bf2	0.95916665
88	0xbdcd8aa3	-0.100362085
89	0x3f7586a2	0.9590856
90	0x3f579b82	0.8422166
91	0x3f8322cb	1.0244993
92	0xbf43eb9d	-0.7653139
93	0x3f9a3fda	1.2050736
94	0xbfb67eaa	-1.4257405
95	0xbf203615	-0.6258252

mobile_net/inverted_bottleneck_block_3/batch_normalization/FusedBatchNormV3 f4 [96]
0	0xbdfc1999	-0.1230957
1	0xbe6c93fe	-0.2310333
2	0xbd29d825	-0.041465897
3	0xbf8b80ae	-1.0898645
4	0xbfa4c52a	-1.287267
5	0xbfb9e921	-1.452427
6	0xbf3e8f23	-0.7443716
7	0xbf648135	-0.89259654
8	0xbfad7352	-1.3550818
9	0xbfe86d38	-1.8158331
10	0x3f5e5344	0.86845803
11	0xbf0b0b3d	-0.54314023
12	0xbf632464	-0.887274
13	0xbe4f05ee	-0.20217106
14	0xc028a66c	-2.6351576
15	0xbf69799b	-0.9120118
16	0x3f7c7cf6	0.98628175
17	0xbf8a60c0	-1.0810776
18	0xbfcc4abf	-1.5960311
19	0xbe887adb	-0.2665623
20	0xbfd2971d	-1.6452366
21	0xbef447e9	-0.47711113
22	0xc05afe43	-3.421769
23	0xbf99de43	-1.2020954
24	0xc004ecd9	-2.076956
25	0xbee79bc3	-0.45236024
26	0xbf76ae9d	-0.9636019
27	0xbf6190fc	-0.88111854
28	0xbe344ee7	-0.17608224
29	0x3e084e3b	0.13311093
30	0x3f57d6b0	0.8431196
31	0xbafdfd26	-0.0019377812
32	0xbf1e0b66	-0.6173614
33	0xbe129b33	-0.14317016
34	0x3ec9984f	0.39374015
35	0xbf40df95	-0.7534116
36	0xbf4fc8a6	-0.8116554
37	0xbff368d3	-1.9016365
38	0xbf207b53	-0.6268818
39	0x3fb39b41	1.4031755
40	0x3da140e7	0.07873707
41	0xc022b1f0	-2.5421104
42	0xbfce7ffc	-1.6132808
43	0x3fb47f2c	1.410131
44	0x3e897093	0.268437
45	0xbf247112	-0.6423503
46	0xbf507b75	-0.8143838
47	0x3fa2d8db	1.2722429
48	0x3f7a519f	0.97780794
49	0xc038fbb1	-2.890362
50	0xbf56919b	-0.83815926
51	0x3f14abfe	0.5807494
52	0xbf7b6e00	-0.9821472
53	0x3eb98473	0.36233863
54	0xbeb8a92d	-0.3606657
55	0x3ed6290d	0.41828194
56	0xbf363c2b	-0.7118556
57	0x3f6d2a50	0.9264269
58	0xbfc1d959	-1.5144454
59	0xbf66461e	-0.8995074
60	0xbec7f31c	-0.39052665
61	0xbf3c8ac3	-0.73649234
62	0xbef070e6	-0.46961135
63	0x3f9a6111	1.2060872
64	0x3ea39be7	0.31954882
65	0xbf6082ca	-0.8769957
66	0x3ea7369e	0.32658857
67	0xbf9f27a3	-1.2433971
68	0xbfa51c1c	-1.2899203
69	0x3f66d3db	0.90167016
70	0xbf661683	-0.898781
71	0x3f7fd978	0.99941206
72	0x3f758059	0.9589897
73	0x3df17a67	0.117909245
74	0xbe3181c8	-0.17334664
75	0xbf3363ec	-0.70074344
76	0x3faa3389	1.3296977
77	0xc05c7fd0	-3.445301
78	0x3e341488	0.17585957
79	0xbf4d7051	-0.80249506
80	0x3f0c593e	0.5482367
81	0xbe691136	-0.22760472
82	0x3f40984c	0.75232387
83	0xbee14ab5	-0.4400231
84	0xbf0d6382	-0.5522996
85	0xbf50264b	-0.8130843
86	0xbf853953	-1.0408119
87	0x3e587aba	0.21140566
88	0xbf26836b	-0.6504428
89	0xbeda274a	-0.426081
90	0xbf860591	-1.0470449
91	0x3ec506bb	0.38481697
92	0xbf44d72c	-0.76890826
93	0x3ef362ee	0.47536415
94	0x3d8f2d44	0.069910556
95	0xbfc931ff	-1.5718383

mobile_net/inverted_bottleneck_block_3/batch_normalization_1/FusedBatchNormV3 f4 [96]
0	0xbf1bb060	-0.60816
1	0xbf6ac24d	-0.9170273
2	0xbfaef935	-1.3669802
3	0x3d036890	0.03208214
4	0x3f960937	1.1721562
5	0x3caab4c0	0.020838141
6	0x3faa2255	1.3291727
7	0x3e53c910	0.20682168
8	0xbf3b4001	-0.7314454
9	0xbf540e49	-0.828343
10	0x3f5e2866	0.86780393
11	0x3fff313e	1.9936903
12	0xbf59df1c	-0.8510606
13	0xbf883762	-1.0641901
14	0x3df0286b	0.11726459
15	0x3fed043d	1.8516918
16	0x3fd3d63d	1.6549755
17	0x3bf86880	0.0075808167
18	0xbc9f63e8	-0.019456819
19	0x3f7185d0	0.94344807
20	0x3eaa997e	0.3332023
21	0xbf4be283	-0.79642504
22	0x3d6dc56b	0.0580496
23	0x3fbc34c2	1.47036
24	0x3da74a72	0.08168496
25	0x3fd28816	1.644778
26	0x3fac8648	1.3478479
27	0x3e83c6aa	0.25737506
28	0x3fbf392f	1.4939326
29	0x3f4b9f48	0.7953992
30	0x3d368b6c	0.044566557
31	0x3f99601c	1.1982455
32	0x3f9e5c36	1.237189
33	0x3f98af16	1.1928432
34	0xbd172bc2	-0.036906965
35	0x3fd657aa	1.6745503
36	0x3fddbc2a	1.7323048
37	0xbe9282a3	-0.28615293
38	0xbc450da0	-0.012027174
39	0x3e5d9bce	0.21641466
40	0x3a514e00	0.000798434
41	0x3e80e9df	0.2517843
42	0xbe531970	-0.20615172
43	0x4001d323	2.0285118
44	0xbe427ee8	-0.18993723
45	0xbc24b470	-0.010052785
46	0xbfec8e29	-1.8480884
47	0x3ff9bd33	1.9510864
48	0x3fc10dff	1.5082396
49	0x3d947684	0.072491676
50	0x3f805f7c	1.002914
51	0xbdf49fec	-0.11944565
52	0x3fc5a41d	1.5440708
53	0xbe523a52	-0.2053006
54	0x3fa1e58c	1.2648177
55	0x3e29d058	0.16583383
56	0x3e03854c	0.12843817
57	0xbe8f25de	-0.27958578
58	0xbdb6830f	-0.08911716
59	0x3f8819a1	1.0632821
60	0x3fd584a0	1.6681099
61	0x3fecb159	1.8491622
62	0x3f26d1bf	0.651638
63	0xbe308b50	-0.17240644
64	0xbd1500c3	-0.03637768
65	0xbe826061	-0.25464156
66	0xbd49e8b3	-0.049294185
67	0x3c283480	0.010266423
68	0x3fef39e2	1.868954
69	0x400c3ad0	2.1910896
70	0x3fa20de2	1.2660487
71	0xbf92e8ca	-1.1477292
72	0x3e636888	0.22207844
73	0x3fd37dc8	1.652276
74	0x3fd5ad26	1.6693466
75	0xbcb0b650	-0.021571308
76	0x3fac106b	1.344251
77	0x3fb64ee7	1.4242829
78	0xbf4985de	-0.7871989
79	0xbd9295a0	-0.07157445
80	0xbfbaf171	-1.4604932
81	0x3fd580e4	1.6679959
82	0x3fc8cb5d	1.5687062
83	0xbea48228	-0.3213055
84	0x3f718484	0.9434283
85	0x3ddfb3e0	0.1092298
86	0x3f77fd9e	0.96871364
87	0xbb623420	-0.0034515932
88	0x3d97cdf4	0.07412329
89	0x4006af19	2.104437
90	0x40118f58	2.274374
91	0x3f982f58	1.1889448
92	0xbed63cb0	-0.41843176
93	0x3f391646	0.7229961
94	0xbeea044c	-0.45706403
95	0xbefebb06	-0.49752063

mobile_net/inverted_bottleneck_block_4/batch_normalization/FusedBatchNormV3 f4 [96]
0	0x3ecec468	0.4038422
1	0xbe510665	-0.20412596
2	0x3e2a2d49	0.16618837
3	0xbf5320ba	-0.8247181
4	0xbf1421a0	-0.5786381
5	0x3f197b7c	0.5995405
6	0xbdba2ea5	-0.09090928
7	0x3e6ce599	0.2313446
8	0xbe9be078	-0.30444694
9	0xbf3455ca	-0.70443404
10	0x3ef93238	0.48671126
11	0x3f48c363	0.78423136
12	0xbec08e27	-0.37608454
13	0xbf847bda	-1.0350296
14	0xbe774a3c	-0.24149412
15	0xbe4aa860	-0.19790792
16	0xbf276efd	-0.6540373
17	0xbe87e9e8	-0.26545644
18	0x3f9f1819	1.2429229
19	0xbefd9b15	-0.4953238
20	0x3ec0ff4f	0.37694785
21	0xbd2beb4a	-0.041972436
22	0xbf9d3ff1	-1.2285138
23	0xbf835f58	-1.0263472
24	0x3eb497b1	0.3527198
25	0x3ed7d75f	0.42156503
26	0xbfb71047	-1.4301842
27	0x3ee48042	0.44629103
28	0xbeeb633c	-0.45974147
29	0x3e9f937e	0.31167215
30	0x3f6326c2	0.88731015
31	0x3ea23be5	0.3168632
32	0xbe06ba00	-0.13156891
33	0x3e10bb90	0.1413405
34	0x3f5ad06a	0.85474265
35	0x3e909579	0.2823904
36	0x3e097960	0.13425207
37	0x3e6423c0	0.22279263
38	0xbf067a0e	-0.5252999
39	0x3f13b090	0.5769129
40	0x3e5113aa	0.20417657
41	0xbf388c56	-0.72089136
42	0xbe2ac419	-0.16676368
43	0xbf132ed3	-0.57493323
44	0x3f1340ec	0.5752094
45	0xbf012e12	-0.5046092
46	0xbf17ede2	-0.59347355
47	0xbda5e5ad	-0.08100448
48	0x3ddcc0f6	0.10778992
49	0x3fe09159	1.7544357
50	0x3edc92cd	0.4308075
51	0x3db04975	0.08607761
52	0xbf4193ce	-0.7561616
53	0xbef8589b	-0.485051
54	0xbf80ab9a	-1.0052369
55	0xbe849438	-0.25894332
56	0xbf9d56dc	-1.2292132
57	0x3e71c57c	0.2361049
58	0xbe1fdad1	-0.15610816
59	0x3e45ff85	0.19335754
60	0xbf306eed	-0.6891926
61	0x3f706e46	0.93918264
62	0xbffc6a3e	-1.9719923
63	0xbeae8460	-0.3408537
64	0xbf439269	-0.7639528
65	0xbf00ed94	-0.50362515
66	0xbf9578ff	-1.167755
67	0xbf908684	-1.1291051
68	0x3e780151	0.24219252
69	0xbc9d063a	-0.019168008
70	0x3f91467d	1.1349636
71	0xbecd6a06	-0.40119952
72	0x3f23bda3	0.6396124
73	0x3f031cc9	0.512158
74	0x3e2326be	0.15932748
75	0xbf894cda	-1.0726578
76	0x3dc63b62	0.09679295
77	0xbd4622fc	-0.048373207
78	0xbe5323d3	-0.20619135
79	0xbf0842e0	-0.53227043
80	0x3f86caee	1.0530679
81	0xbd9af4c8	-0.075662196
82	0x3ee3010e	0.44336742
83	0xbeb64cf0	-0.35605574
84	0x3f321275	0.69559413
85	0x3f4ac338	0.7920413
86	0xbd15f6a8	-0.036612183
87	0x3e5383c7	0.20655738
88	0xbe34f878	-0.17672908
89	0xbeb6ab88	-0.35677743
90	0x3e900867	0.2813141
91	0xbe737e81	-0.23778726
92	0xbe926b0a	-0.2859729
93	0xbd1ec42c	-0.038761303
94	0xbf2b6f49	-0.6696668
95	0xbd23ac67	-0.039959338

mobile_net/inverted_bottleneck_block_4/batch_normalization_1/FusedBatchNormV3 f4 [96]
0	0xbabdd300	-0.0014482439
1	0x3e7752b7	0.24152647
2	0x3ee16702	0.440239
3	0xbf875680	-1.0573273
4	0x3f83b71f	1.0290259
5	0x3f92da05	1.1472784
6	0xbead405e	-0.3383817
7	0xbebac5b7	-0.3647897
8	0x3f0bead5	0.546552
9	0x3f3115d3	0.69173926
10	0xbd9aea82	-0.0756426
11	0x3f35a0f9	0.7094875
12	0x3f545421	0.8294087
13	0xbf40eeec	-0.75364566
14	0x3f15bfaa	0.5849558
15	0x3f8b8200	1.0899048
16	0x3d2e07a0	0.04248774
17	0x3ee82552	0.45340973
18	0x3e1e3220	0.15448809
19	0xbf4626fa	-0.77403224
20	0x3f0f6cd7	0.5602545
21	0x3e51b48c	0.2047903
22	0xbf3f17b2	-0.7464553
23	0x3ed8f0f5	0.42371336
24	0x3f935168	1.1509218
25	0x3ddb79e6	0.1071661
26	0xbf3a9b5e	-0.7289332
27	0xbefede0b	-0.4977878
28	0x3f31a5d0	0.69393635
29	0x3fa6da50	1.3035374
30	0x3e7a8ca0	0.24467707
31	0xbd0883d4	-0.033328846
32	0xbeba3cbc	-0.36374462
33	0x3e858ae6	0.26082534
34	0x3fb753aa	1.4322407
35	0xbe46e19c	-0.19422
36	0xbfaceb9f	-1.3509406
37	0x3f21b5d2	0.6316806
38	0x3f5b92fa	0.85771143
39	0xbd597920	-0.05309403
40	0xbf802576	-1.0011432
41	0xbe9938c6	-0.29926127
42	0xbf1a7f58	-0.6035056
43	0x3c66c700	0.014085531
44	0xbfc994a2	-1.5748484
45	0x3b8520c0	0.004062742
46	0x3fb0b0d6	1.3803966
47	0xbe12aaf4	-0.14323026
48	0x3dc4ccd8	0.09609383
49	0x4032b5c4	2.792344
50	0xbd1c2cb0	-0.038128555
51	0x3fa28bd0	1.2698917
52	0xbe01a46e	-0.12660381
53	0xbec3e39a	-0.38259584
54	0x3e911152	0.28333527
55	0x3f16a6c8	0.5884824
56	0xbcf9cae6	-0.030492257
57	0x3f5a8938	0.8536563
58	0x3f926e9e	1.1440008
59	0xbef746ea	-0.4829629
60	0x3f75edb6	0.96065843
61	0xbd838b28	-0.06423026
62	0xbf8e678b	-1.1125349
63	0x3f2f70c3	0.68531436
64	0xbfa72fce	-1.3061464
65	0x3f64e12a	0.89406073
66	0x3e49b700	0.19698715
67	0x3d609461	0.054829005
68	0xbf32afea	-0.69799674
69	0x3f6d2d38	0.92647123
70	0x400c3c90	2.1911964
71	0xbfc15630	-1.5104427
72	0xbf2b9f09	-0.67039543
73	0x3f58e2b8	0.84720945
74	0x3f79dcac	0.97602344
75	0x3ea28a75	0.3174626
76	0xbf2c8b74	-0.6740029
77	0x3fb518ca	1.414819
78	0xbd84ed8c	-0.06490621
79	0x3fc7d8af	1.5613002
80	0x3c80dca0	0.015730202
81	0xbe5dc498	-0.21657026
82	0x3cecf8e0	0.028927267
83	0x3f8d60ba	1.1045144
84	0x3fb73352	1.4312537
85	0x3ee77271	0.452045
86	0x3f350dfe	0.70724475
87	0x3fa50b54	1.2894082
88	0x3f5f4129	0.872088
89	0x3f5ac552	0.85457337
90	0x3edb3fa4	0.4282199
91	0xbea6a284	-0.32545865
92	0x3f70d722	0.94078267
93	0xbf1d973c	-0.6155889
94	0x3f271678	0.6526866
95	0xbe895698	-0.26823878

mobile_net/inverted_bottleneck_block_5/batch_normalization/FusedBatchNormV3 f4 [96]
0	0xbfa27603	-1.2692264
1	0xbf21db3a	-0.6322514
2	0xbfafcd2a	-1.3734486
3	0x3eab07c4	0.33404362
4	0xbe175311	-0.14777781
5	0xbf60cbdb	-0.8781106
6	0x3f26f2c9	0.6521421
7	0xbe6faf3c	-0.2340669
8	0xbe2ecdee	-0.17070743
9	0x3c2cb973	0.010542261
10	0xbec898eb	-0.39179167
11	0xbc01853b	-0.0079053
12	0xbd16e741	-0.036841635
13	0xbf3d2341	-0.7388192
14	0x3f469ec7	0.77586025
15	0xbf04f156	-0.5193075
16	0xbec70e71	-0.38878205
17	0xbf08ab8a	-0.5338675
18	0x3e10e3d1	0.14149405
19	0xbee0b4e6	-0.43888015
20	0x3eb17ce7	0.34665605
21	0xbe387bfa	-0.18016043
22	0x3e554ee9	0.20830883
23	0xbf41d619	-0.7571731
24	0xbd6b22f1	-0.05740637
25	0xbf7ee241	-0.99563986
26	0xbfbdf4d2	-1.4840338
27	0x3f4c1342	0.79716885
28	0xbebd20b5	-0.36939016
29	0x3e9f75e0	0.3114462
30	0x3ed61459	0.418124
31	0xbd9479e9	-0.07249815
32	0xbfe0e8ee	-1.7571084
33	0x3f8a8aef	1.0823649
34	0xbe1e813f	-0.15478991
35	0xbf250b69	-0.64470536
36	0x3dec3648	0.11533791
37	0xbf34ef34	-0.70677495
38	0x3f54a696	0.8306669
39	0xbe5b966b	-0.21444099
40	0xbed2d06e	-0.41174644
41	0xbd91399f	-0.070910685
42	0x3ec7dd5d	0.39036074
43	0x3d591885	0.0530019
44	0xbf2fdd39	-0.68696934
45	0xbfd47730	-1.6598873
46	0xbe938454	-0.28811896
47	0xbf07fdbf	-0.5312156
48	0x3e569b59	0.20957698
49	0xbe17b9e5	-0.14817007
50	0xc00c8de7	-2.196161
51	0xbfbaf309	-1.4605418
52	0xbe3570ba	-0.17718783
53	0xbf1520b2	-0.58253014
54	0xbcb0b0c8	-0.02156867
55	0xbe5a176d	-0.21297999
56	0x3f252229	0.6450525
57	0xbdcbcc99	-0.09951133
58	0xbe0b82ca	-0.13624111
59	0xbf03ec4b	-0.5153243
60	0xbf08a407	-0.53375286
61	0xbf90d347	-1.1314477
62	0xbec87841	-0.39154246
63	0xbfb2cbe7	-1.3968476
64	0xbf0f46f0	-0.5596762
65	0xbed0f2b1	-0.4081016
66	0xbfebf39c	-1.8433719
67	0x3ed736ed	0.42034093
68	0xbe1aaa90	-0.15104127
69	0xbeba0f45	-0.36339775
70	0xbea35e43	-0.31907853
71	0xbfb4b03b	-1.4116281
72	0xbf23245e	-0.63727367
73	0xbfac60a3	-1.3466991
74	0xbf1244b4	-0.5713608
75	0xbf27fa27	-0.6561608
76	0x3edcc8da	0.43121988
77	0xbf718bd5	-0.9435399
78	0xbe903ff8	-0.28173804
79	0x3bff419e	0.0077898046
80	0x3e04ed63	0.12981181
81	0x3e96f8de	0.29486746
82	0xbd2b910b	-0.04188637
83	0xbf48304f	-0.78198713
84	0xbf3040ea	-0.6884905
85	0xbf955875	-1.166762
86	0x3e658829	0.22415222
87	0xbf0db9eb	-0.55361813
88	0xbf8a88a8	-1.0822954
89	0x3e73aec5	0.23797138
90	0xbf87cea5	-1.0609938
91	0xbec42776	-0.38311356
92	0x3ecad618	0.39616466
93	0xbf6631be	-0.8991965
94	0xbccc263f	-0.02492058
95	0xbf308651	-0.6895495

mobile_net/inverted_bottleneck_block_5/batch_normalization_1/FusedBatchNormV3 f4 [96]
0	0x3eef8736	0.46782845
1	0xbd7cf1d2	-0.061754055
2	0xbf0b6c3c	-0.5446203
3	0xbeadc575	-0.3393971
4	0x3fb75fd2	1.4326117
5	0x3c306910	0.010767236
6	0x3f827e9e	1.019489
7	0xbeea0a15	-0.45710817
8	0x3efd3958	0.49457812
9	0x3e05d6d4	0.13070232
10	0x3f4d003e	0.80078495
11	0xbfb5bcd4	-1.4198251
12	0xbf21947c	-0.63117194
13	0xbeaa73fa	-0.33291608
14	0x3e0aa0a2	0.13537839
15	0xbf223f6a	-0.6337801
16	0x3f548cb1	0.8302718
17	0x3f4083ce	0.7520112
18	0x3bf9ba80	0.0076211095
19	0xbf97cf84	-1.1860204
20	0xbfd3d4cf	-1.6549319
21	0xbed6527a	-0.418598
22	0xbf040f60	-0.5158596
23	0xbed30ac0	-0.4121914
24	0x3eee71a3	0.46571073
25	0xbce42ba8	-0.027852848
26	0x3e92a1ec	0.28639162
27	0x3f0c0802	0.5469972
28	0x3f15177c	0.5823896
29	0x3e9b020d	0.30275002
30	0xbf467352	-0.77519715
31	0xbe3eb7d4	-0.18624812
32	0xbeee5fc4	-0.46557438
33	0xbcedbc60	-0.029020488
34	0xbf08d0b4	-0.53443456
35	0x3e62bffc	0.22143549
36	0xbee02f8f	-0.43786284
37	0x3f523def	0.82125753
38	0x3f39d714	0.7259381
39	0x3caf93e0	0.021432817
40	0xbedb5c87	-0.4284403
41	0x3de23920	0.11046052
42	0xbe936c70	-0.2879367
43	0xbf3337f1	-0.70007235
44	0x3f3c6e1a	0.736055
45	0x3fbf006b	1.4922003
46	0xbdbd615c	-0.092470855
47	0xbe8a5206	-0.27015704
48	0x3e323e9f	0.174067
49	0x3e4302b4	0.19044
50	0xbc989b46	-0.018628728
51	0xbf9ef725	-1.2419173
52	0xbf23cd98	-0.63985586
53	0xbd18e430	-0.03732699
54	0xbe14d1f8	-0.14533222
55	0xbee5b9b4	-0.44868243
56	0x3f8c160d	1.0944229
57	0xbebcfb41	-0.36910442
58	0xbec652c0	-0.38735008
59	0xbed16374	-0.4089619
60	0x3e01c460	0.12672567
61	0xbfc6e270	-1.5537853
62	0x3ec280f2	0.37989002
63	0xbe5fa44c	-0.21840018
64	0x3f91637e	1.1358488
65	0xbfe1d121	-1.7641946
66	0xc01af623	-2.421273
67	0xbd16c3d2	-0.036807843
68	0x3c9e3d40	0.019316316
69	0x3f3cae02	0.73703015
70	0xc00010af	-2.0010183
71	0xbf5e6401	-0.86871344
72	0x3f0d6ece	0.552472
73	0xbe9e67db	-0.3093861
74	0xbf5918bb	-0.8480336
75	0xbf4e584c	-0.8060348
76	0x3e8a3b43	0.26998338
77	0xbe99b7ba	-0.30022985
78	0xbf3acde0	-0.7297039
79	0x3f0ce30a	0.55033934
80	0x3f051f7b	0.5200116
81	0xbd9a5100	-0.07534981
82	0x3ee048b8	0.4380548
83	0xbe5eca8f	-0.21756957
84	0xbef539c4	-0.47895634
85	0x3f155ce5	0.5834487
86	0xbbb04c00	-0.0053801537
87	0xbe9468b4	-0.28986132
88	0x3f51814e	0.8183793
89	0x3f741622	0.9534627
90	0xbd81dc4c	-0.063408464
91	0x3f641049	0.8908735
92	0x3ca6b3e0	0.020349443
93	0xbeac48be	-0.33649248
94	0x3f08042c	0.53131366
95	0x3f1ddcc2	0.61664975

mobile_net/inverted_bottleneck_block_6/batch_normalization/FusedBatchNormV3 f4 [96]
0	0xbe05a573	-0.13051395
1	0x3e40f5d6	0.18843779
2	0x3f6631de	0.8991984
3	0xbf25553d	-0.6458319
4	0xbda96f25	-0.08273152
5	0x3e2a16c8	0.16610253
6	0x3f36e88a	0.71448576
7	0xbe8300c4	-0.25586522
8	0xbe0cbb64	-0.13743359
9	0xbf4a92e4	-0.7913039
10	0x3f5cc82a	0.86242926
11	0xbe875a55	-0.26436105
12	0xbfb92f9d	-1.4467655
13	0x3f5b2365	0.8560088
14	0x3f76216a	0.96144736
15	0xbfcebf39	-1.6152107
16	0x3d1b57c2	0.03792549
17	0xbf99dc98	-1.2020445
18	0xbfe2aae8	-1.7708406
19	0xbefa7c7b	-0.48923096
20	0xbfc1ab02	-1.5130312
21	0xbfe8b7db	-1.8181108
22	0x3e00faff	0.12595747
23	0xbb58f82e	-0.003310691
24	0x3ee307fc	0.4434203
25	0xbf8436b6	-1.0329196
26	0xbf0d7133	-0.55250853
27	0xbfcae8d4	-1.5852304
28	0xbf2bf406	-0.67169225
29	0xbed03dd1	-0.40672162
30	0xbecd7228	-0.40126157
31	0x3ee1a824	0.44073594
32	0xbf17c2d2	-0.5928165
33	0xbf4cc918	-0.79994345
34	0x3f8b86c2	1.09005
35	0xbf57c111	-0.8427897
36	0xbfe3e63e	-1.7804639
37	0xbf0d7436	-0.5525545
38	0xbf21ab12	-0.6315166
39	0xbf1756c5	-0.59116775
40	0x3ea26495	0.31717363
41	0x3cf52e35	0.02992926
42	0xbef8dc6e	-0.48605675
43	0x3e081e12	0.13292721
44	0x3f0c89f1	0.5489798
45	0x3ece2195	0.40259996
46	0x3dd27072	0.102753535
47	0xbf9d738e	-1.230089
48	0x3e32538d	0.17414685
49	0xbf44b7be	-0.7684287
50	0x3e3dc0da	0.18530598
51	0x3ec6c7ed	0.38824406
52	0xbf50b2ca	-0.8152281
53	0x3f21b0d4	0.63160443
54	0xbef960e4	-0.48706734
55	0xbf459088	-0.7717366
56	0xbf34dc36	-0.70648515
57	0xbf3f99fc	-0.74844337
58	0x3e9c6e20	0.3055277
59	0xbf91f1b0	-1.1401882
60	0x3f820b00	1.0159607
61	0xbf82fc2e	-1.0233209
62	0x3e6a2282	0.22864726
63	0xbf7d695b	-0.98988885
64	0xbfd26ac6	-1.6438835
65	0xbe9d5b85	-0.30733886
66	0xbf331b05	-0.69963104
67	0xbeefca3c	-0.4683398
68	0x3efb73e1	0.49111846
69	0x3ea73978	0.32661033
70	0x3ef51960	0.47870922
71	0x3eee1baa	0.4650548
72	0xbf7d09a2	-0.98842824
73	0xbf1182d2	-0.5684024
74	0xbf39bc6d	-0.7255314
75	0xbf8df2cb	-1.108972
76	0x3ceb3053	0.028709566
77	0xbf4c6f51	-0.79857355
78	0xbd9a7ec1	-0.07543708
79	0x3f77f342	0.96855557
80	0xbfaa0c7a	-1.3285058
81	0xbee5f5ce	-0.44914097
82	0xbfcc2aec	-1.5950599
83	0xbf845f59	-1.0341598
84	0xbf81655e	-1.010906
85	0xbe724f60	-0.23663092
86	0xbf61eaca	-0.88248885
87	0x3f5290df	0.82252306
88	0xbcdc9b64	-0.026929565
89	0x3e2005a6	0.15627155
90	0xbec03475	-0.37540022
91	0xbf1e662e	-0.61874664
92	0xbfa2262f	-1.2667903
93	0xbf32766d	-0.69711953
94	0xbf44e60d	-0.7691353
95	0xbe05b2d7	-0.13056503

mobile_net/inverted_bottleneck_block_6/batch_normalization_1/FusedBatchNormV3 f4 [96]
0	0xbde3a06e	-0.11114584
1	0xbe9826ba	-0.29717046
2	0xbeefe2d0	-0.46852732
3	0x3c693dc0	0.014235914
4	0xbccf75df	-0.02532476
5	0xbf302c94	-0.6881802
6	0x4002ef58	2.0458584
7	0x3ea01672	0.31267124
8	0xbcacde90	-0.02110222
9	0x401326da	2.2992463
10	0x3f5cc4e5	0.8623794
11	0x3d8542c8	0.06506878
12	0x3d270ecc	0.040785596
13	0x3e4e5034	0.20147783
14	0xbe0199d9	-0.12656344
15	0x401b6b57	2.4284265
16	0x40154d84	2.3328562
17	0xbeed5a8a	-0.46358138
18	0x3cf6a420	0.030107558
19	0x400e64fe	2.224914
20	0x3be527c0	0.006993264
21	0xbeffe3ac	-0.49978387
22	0x3feba3b3	1.8409332
23	0xbf23f048	-0.64038515
24	0x400939b2	2.1441464
25	0xbbd959c0	-0.0066330135
26	0x3d998760	0.07496524
27	0xbd12cc3c	-0.035839304
28	0x3abd2a00	0.0014432073
29	0xbb6df230	-0.0036307685
30	0xbd1c3940	-0.038140535
31	0x401607d9	2.344229
32	0x3d8f3608	0.069927275
33	0x400aeb8a	2.1706262
34	0x4035e149	2.8418753
35	0x3e514eb8	0.20440185
36	0xbdcd1426	-0.10013609
37	0x40118579	2.2737715
38	0x3fdd8a72	1.7307875
39	0x3f1565c4	0.5835841
40	0x3f21ba5b	0.6317498
41	0xbe9304ca	-0.2871459
42	0x401b9da6	2.431497
43	0x3feb96a4	1.8405347
44	0x3f95a728	1.1691637
45	0x3f07ed84	0.53096795
46	0xbd52f9b8	-0.05150768
47	0x3c88627e	0.016648527
48	0x3fe234b1	1.767233
49	0xbce326a0	-0.027728379
50	0xbea7cbb4	-0.327726
51	0x401e98f5	2.4780858
52	0x3d29b8e0	0.041436076
53	0x3fe50821	1.7893106
54	0xbf207ce8	-0.6269059
55	0x3dce41d0	0.100711465
56	0x40091d3c	2.1424093
57	0x3e37913c	0.17926496
58	0x400411c3	2.063584
59	0xbe81f570	-0.25382566
60	0x3ff46c65	1.9095579
61	0x404abde2	3.1678395
62	0x3fd846f9	1.6896659
63	0xbcb41b40	-0.02198565
64	0xbe98a59d	-0.29813853
65	0x4001b69f	2.0267713
66	0xbf27c3b5	-0.65533
67	0x4006e084	2.1074533
68	0xbf86a1d3	-1.0518135
69	0x3d7f9b28	0.062403828
70	0x3f5a7b6c	0.85344577
71	0x3ffc6ac5	1.9720083
72	0xbf0b350d	-0.54377824
73	0x3d9f76a0	0.07786298
74	0x3b80f900	0.003935933
75	0x3ed97e5f	0.42479226
76	0x3fdc70f1	1.7221967
77	0xbf09ca18	-0.53823996
78	0x3feb997c	1.8406215
79	0x3d251260	0.040300727
80	0xbf40eec1	-0.7536431
81	0xbdc0bdc8	-0.09411198
82	0x3e666ad4	0.22501689
83	0xbebb78d3	-0.3661562
84	0x3fd668ca	1.6750729
85	0x3e5cd5d0	0.21565938
86	0xbed1e549	-0.40995243
87	0x3f02e4d8	0.5113044
88	0x3fdcf4a6	1.7262161
89	0x402941ea	2.644648
90	0x400bb006	2.1826186
91	0xbb54ae00	-0.0032452345
92	0xbf6e1a9d	-0.9300936
93	0x3d393290	0.045214236
94	0x4002dd1a	2.044745
95	0xbf136d94	-0.5758908

mobile_net/inverted_bottleneck_block_7/batch_normalization/FusedBatchNormV3 f4 [192]
0	0x3d8cfaec	0.06883797
1	0x3f267bcc	0.6503265
2	0xbf4ae873	-0.7926094
3	0xbe8d8f4a	-0.27648383
4	0x3e1a7d05	0.15086754
5	0xbc48b5b1	-0.01225035
6	0xbeeab983	-0.4584466
7	0x3e31204c	0.17297477
8	0xbf4203d4	-0.7578709
9	0xbfaac555	-1.3341471
10	0xbee3653d	-0.44413176
11	0xbf2be930	-0.6715269
12	0xbe4837c2	-0.1955252
13	0xbe97b408	-0.2962954
14	0x3ecd736c	0.40127122
15	0xbe8dbcc9	-0.27683094
16	0xbed62bd3	-0.4183031
17	0xbf3de83e	-0.741825
18	0xbfab98ca	-1.3406003
19	0x3e053b2b	0.13010852
20	0x3d88dd84	0.06682876
21	0xbeeafc11	-0.45895436
22	0xbf35cf31	-0.71019274
23	0xbea632ef	-0.32460734
24	0xbeca2a69	-0.3948548
25	0xbf33ff86	-0.7031177
26	0x3e97403e	0.295412
27	0xbf7a9afd	-0.97892743
28	0xbf955c61	-1.1668817
29	0xbe04a484	-0.12953383
30	0xbebd8cba	-0.37021428
31	0xbe718e2a	-0.23589388
32	0xbe5709de	-0.20999858
33	0xbef51e26	-0.47874564
34	0x3d5db0eb	0.0541238
35	0x3e0d0086	0.13769731
36	0xbe0a1551	-0.13484694
37	0xbe57e8c7	-0.21084891
38	0xbcf7655d	-0.030199701
39	0xbe7c04ce	-0.24611208
40	0x3e8c8650	0.27446222
41	0x3cab4d62	0.020910922
42	0xbe7a61d9	-0.24451388
43	0xbe63615d	-0.2220511
44	0xbe8fbe85	-0.28075042
45	0xbe2de8b9	-0.16983308
46	0xbf5d9096	-0.86548746
47	0xbf0d1895	-0.55115634
48	0xbe79309d	-0.24334951
49	0xbef18771	-0.47173646
50	0x3e69d1ad	0.22833891
51	0x3e15092b	0.14554279
52	0xbd904f3e	-0.07046364
53	0xbec47dd9	-0.38377264
54	0xbea24586	-0.31693667
55	0xbe570570	-0.20998168
56	0xbf0656ef	-0.524764
57	0xbd9ec16e	-0.077517375
58	0xbe7a78f9	-0.2446021
59	0xbeb2779b	-0.34856877
60	0x3ce19d5d	0.027540857
61	0x3cb58819	0.022159623
62	0xbcc69d50	-0.024244934
63	0xbe22b6eb	-0.1589009
64	0xbecf3441	-0.40469554
65	0xbf01b8b5	-0.50672466
66	0xbf3edb18	-0.7455306
67	0xbf230f46	-0.6369518
68	0xbecf3238	-0.40468
69	0x3e6ab35a	0.2291998
70	0x3efe209b	0.4963425
71	0x3d22090b	0.039559405
72	0xbe6a4660	-0.22878408
73	0xbf584ebb	-0.84495133
74	0x3e49cfba	0.19708148
75	0xbd4f3fd9	-0.050598
76	0xbcd34a39	-0.025792228
77	0xbf8b52f4	-1.088469
78	0x3ddc68b5	0.10762159
79	0xbec2d8c9	-0.3805602
80	0xbe193e35	-0.14965136
81	0xbcdc88d4	-0.026920713
82	0x3f44b952	0.76845276
83	0x3db19dd5	0.08672682
84	0xbef8003f	-0.48437688
85	0xbd1d7264	-0.03843917
86	0xbf1d51bf	-0.6145286
87	0xbf39afcb	-0.72533864
88	0xbe8ebfe8	-0.27880788
89	0x3c1ae1aa	0.009453217
90	0xbd0d8ef1	-0.034560148
91	0x3c0fdb17	0.008780262
92	0xbe9e4291	-0.3091016
93	0xbe41f974	-0.18942815
94	0xbeb9fd94	-0.36326277
95	0xbd95a276	-0.073063776
96	0x3c38d9cf	0.011282398
97	0x3f5fce95	0.87424594
98	0xbecbe863	-0.39825734
99	0xbe483a67	-0.19553529
100	0xbe065a60	-0.13120413
101	0x3f39022a	0.7226893
102	0xbf8e2859	-1.1106063
103	0xbf1c4025	-0.61035377
104	0xbf50b3c9	-0.8152433
105	0xbd168048	-0.036743432
106	0xbe8875f8	-0.26652503
107	0xbd430674	-0.047613576
108	0x3ed4855e	0.41508
109	0xbf618d11	-0.88105875
110	0xbe98516e	-0.29749626
111	0x3e0349bb	0.12821095
112	0x3f1fda7c	0.62442756
113	0x3e9314fc	0.28726947
114	0x3c4cb715	0.012494822
115	0xbe5af240	-0.21381474
116	0x3d9137eb	0.07090744
117	0xbd6e5882	-0.058189876
118	0xbe36677c	-0.17812914
119	0xbf3184c4	-0.6934321
120	0xbf5f7b24	-0.8729727
121	0x3f08446d	0.5322941
122	0xbd616c0c	-0.055034682
123	0xbdf2842b	-0.11841615
124	0xbf5d2514	-0.863847
125	0xbe890ae7	-0.2676613
126	0xbe4abd96	-0.19798884
127	0xbe9c1f54	-0.3049265
128	0xbe2fee37	-0.17180716
129	0xbd1cfe21	-0.038328294
130	0xbf32f62a	-0.69906867
131	0xbf43a042	-0.7641641
132	0x3db50560	0.08838916
133	0xbf340b42	-0.7032968
134	0xbf13e916	-0.57777536
135	0x3dc3f210	0.09567654
136	0xbeeefdc5	-0.46677986
137	0xbedc3cd1	-0.4301515
138	0xbe9f0f0a	-0.3106616
139	0x3d8c1b94	0.068411976
140	0xbd815200	-0.063144684
141	0x3f5a31c6	0.852322
142	0xbf1b112b	-0.6057307
143	0x3ec0bfc2	0.376463
144	0xbebce330	-0.3689208
145	0xbd29f380	-0.041491985
146	0xbe99447f	-0.2993507
147	0xbdf9b8bc	-0.121934384
148	0xbe8a29c0	-0.26984978
149	0xbd3c4083	-0.04595996
150	0xbf28a0d8	-0.6587043
151	0x3e4d04a0	0.20021296
152	0x3bafa9a8	0.005360801
153	0x3f270ba1	0.6525212
154	0xbf46ae39	-0.7760959
155	0xbe0bb0d7	-0.13641678
156	0x3f09be82	0.53806317
157	0xbf226d4b	-0.6344802
158	0xbea9b4b9	-0.33145693
159	0xbe0cdd9b	-0.13756411
160	0x3e398472	0.1811693
161	0xbec0a4bd	-0.37625685
162	0x3d372f7c	0.04472302
163	0x3f2751de	0.65359294
164	0xbde81c1e	-0.11333488
165	0x3e13b0fb	0.14422981
166	0x3e8dee44	0.27720845
167	0x3dd105c6	0.10206179
168	0x3e2dfa82	0.16990092
169	0xbea2e30f	-0.31813857
170	0xbf0d1335	-0.5510743
171	0x3f61a9d6	0.88149774
172	0xbc6f38da	-0.014600957
173	0x3e0a6f60	0.13519049
174	0xbef4fc0b	-0.47848544
175	0xbdbd20c4	-0.09234765
176	0xbd331a5d	-0.043726314
177	0x3eef4b3b	0.46737084
178	0x3e22f611	0.1591418
179	0xbe6f3208	-0.23358929
180	0xbeb815e4	-0.359542
181	0xbe0fb875	-0.14035209
182	0xbf0b57f6	-0.5443109
183	0x3f7c63e3	0.98589915
184	0xbec9eb0f	-0.39437148
185	0xbe27bb3b	-0.16380017
186	0xbec9ac35	-0.39389196
187	0xbeafb1d4	-0.3431536
188	0xbe1734d9	-0.14766254
189	0xbf320752	-0.6954242
190	0xbeb57cb1	-0.35446694
191	0xbf8bda88	-1.0926065

mobile_net/inverted_bottleneck_block_7/batch_normalization_1/FusedBatchNormV3 f4 [192]
0	0x3efc5b04	0.4928819
1	0x3f1cb436	0.6121248
2	0xbf247b44	-0.6425059
3	0x3ea4511e	0.32093138
4	0x3e9a8f02	0.3018723
5	0xbec97ec0	-0.39354515
6	0x3effcc1d	0.49960414
7	0x3e98e41e	0.2986154
8	0xbf2785ff	-0.65438837
9	0xbfb1b4c4	-1.388329
10	0x3ef932f8	0.486717
11	0x3eae6216	0.3405921
12	0x3e83f7f4	0.2577511
13	0x3f351704	0.70738244
14	0x3dd7a4c8	0.105294764
15	0xbf789ab4	-0.9711106
16	0x3f5d6151	0.8647662
17	0xbd495867	-0.049156573
18	0xbec2fd2b	-0.38083777
19	0xbd9b4ba2	-0.07582785
20	0x3f5e55a0	0.86849403
21	0xbf80e866	-1.0070922
22	0xbfadbc05	-1.3573004
23	0xbe583eb0	-0.21117663
24	0xbf8528a7	-1.0403031
25	0xbdab5db0	-0.08367479
26	0x3dabc3dc	0.083869666
27	0x3f3c8ec6	0.73655355
28	0xbfe0b681	-1.7555696
29	0x3f04da1f	0.51895326
30	0x3eb46274	0.35231364
31	0x3ece7ef2	0.40331227
32	0x3f209f73	0.627433
33	0xbe9af5d2	-0.3026567
34	0xbc54d040	-0.012989104
35	0x3e17016c	0.14746636
36	0x3ed94ef6	0.42443055
37	0x3f22d2ca	0.6360289
38	0x3ed3b186	0.41346377
39	0xbdf70634	-0.1206173
40	0xbf5893ac	-0.8460033
41	0x3ea4b00c	0.32165563
42	0x3f00911e	0.5022143
43	0x3ee333f7	0.44375584
44	0x3e3e2442	0.18568519
45	0xbe1e8376	-0.15479836
46	0x3d5a5794	0.053306177
47	0x3f1820cd	0.5942505
48	0x3c463c00	0.012099266
49	0xbf827dce	-1.0194643
50	0x3f644dad	0.89181024
51	0x3eedc3e0	0.46438503
52	0x3e48ec9f	0.19621514
53	0xbf383929	-0.7196222
54	0x3ef02f8d	0.46911278
55	0xbd75b3c8	-0.059985906
56	0xbe4db32d	-0.20087881
57	0xbd8cdc82	-0.06877996
58	0xbf4cf2a5	-0.80057746
59	0xbf1f2342	-0.62163174
60	0xbf3f3758	-0.7469382
61	0x3f36c8d1	0.7140017
62	0xbedeba80	-0.43501663
63	0x3eda2e11	0.4261327
64	0x3e4c39a4	0.19943863
65	0x3ec621c8	0.38697648
66	0x3f372d16	0.7155317
67	0x3f8b5c1a	1.0887482
68	0x3eb097e8	0.34490895
69	0xbe6dae9b	-0.23211138
70	0x3dba36a0	0.0909245
71	0x3ecd55e2	0.40104586
72	0xbf2cbd24	-0.67476106
73	0xbfc5436d	-1.5411202
74	0x3ef3f2b4	0.47646105
75	0xbf8fa8f8	-1.122344
76	0xbdbe97b8	-0.09306282
77	0xbf4088cc	-0.75208735
78	0x3d8662b0	0.06561792
79	0x3eb0e8bb	0.3455256
80	0xbeaecac4	-0.34139073
81	0x3de250e4	0.11050585
82	0x3f4af977	0.79286903
83	0x3ef16829	0.4714978
84	0x3f52f7c2	0.824093
85	0xbf03ab6c	-0.51433444
86	0xbf0e7d9b	-0.5566041
87	0xbef245c4	-0.47318852
88	0xbf65a9f4	-0.8971245
89	0xbce77200	-0.028252602
90	0xbdd3cc78	-0.10341734
91	0xbeec0e8b	-0.46104845
92	0x3f0069ee	0.50161636
93	0xbd3c73a8	-0.046008736
94	0x3f046ac4	0.5172541
95	0xbee7b63e	-0.45256227
96	0xbeddbc98	-0.43307948
97	0x3f99b6a4	1.2008862
98	0x3f008259	0.50198895
99	0x3e9c6457	0.30545303
100	0xbd65fb50	-0.056147873
101	0x3ef468f6	0.4773633
102	0xbf35e044	-0.7104533
103	0xbf669175	-0.900657
104	0xbfb22337	-1.3916997
105	0x3e6bb35e	0.23017642
106	0xbe26a220	-0.16272783
107	0xbf46fe8d	-0.77732164
108	0x3eb20ebc	0.34776866
109	0x3f87cf16	1.0610073
110	0xbf7efc35	-0.9960359
111	0x3f20ec12	0.62860215
112	0x3ecf6c58	0.40512347
113	0x3eddca79	0.43318537
114	0x3eb38a8c	0.3506664
115	0x3f5877ae	0.84557617
116	0x3ec8a97d	0.3919181
117	0x3f0a81ed	0.541045
118	0x3e056c4a	0.1302959
119	0xbe8cd5c0	-0.27506828
120	0xbf758012	-0.95898545
121	0xbf48a30c	-0.7837379
122	0xbf40841e	-0.75201595
123	0x3f3f4e2b	0.7472865
124	0xbea4b95c	-0.32172668
125	0x3eea15ac	0.4571966
126	0xbf05d0b0	-0.52271557
127	0x3f6782c3	0.904339
128	0xbf49cb2c	-0.7882564
129	0x3f0cef0c	0.55052257
130	0xbeda310e	-0.4261555
131	0x3f1938bd	0.598522
132	0x3e6174d4	0.22017223
133	0xbf92258d	-1.141771
134	0xbf1d6d56	-0.6149496
135	0x3f258b54	0.6466572
136	0xbf2429f9	-0.64126545
137	0x3f0e945b	0.5569512
138	0x3ec2f448	0.38076997
139	0x3ec6e696	0.38847798
140	0x3e9c58c0	0.3053646
141	0x3f204e06	0.62619054
142	0x3f5e54e8	0.86848307
143	0xbe2538b4	-0.16134912
144	0x3f30eb8c	0.69109416
145	0x3f00eef4	0.50364614
146	0xbf620b2c	-0.88298297
147	0xbf77da6a	-0.9681765
148	0xbf86cf51	-1.0532018
149	0x3f1d8c84	0.61542535
150	0x3edb709d	0.42859355
151	0x3f9457fc	1.1589351
152	0x3e8395fc	0.25700366
153	0xbf7e112c	-0.9924495
154	0x3eb60de4	0.35557473
155	0x3e83db14	0.2575308
156	0x3ec092e9	0.37612084
157	0xbf0f7bb1	-0.56048113
158	0x3ecdca66	0.4019348
159	0xbf84a43e	-1.0362623
160	0x3e538336	0.20655522
161	0xbf70d3c4	-0.9407313
162	0x3dbd5050	0.09243834
163	0x3c419d40	0.0118172765
164	0xbe048cb0	-0.12944293
165	0x3de625d0	0.11237681
166	0x3ebead92	0.372418
167	0xbe4bc306	-0.19898614
168	0xbf90f83e	-1.1325758
169	0xbf08f3cb	-0.53497
170	0x3f82cd1d	1.0218846
171	0x3f3e34e2	0.7429944
172	0x3f5da890	0.8658533
173	0x3bcb3000	0.0062007904
174	0xbe786dc2	-0.2426062
175	0xbd9ba1c0	-0.07599211
176	0xbf3ca118	-0.7368331
177	0x3cc5a200	0.0241251
178	0x3c433d60	0.011916488
179	0x3e57ef9c	0.21087497
180	0xbf8b20ac	-1.0869346
181	0x3f2c648e	0.67340934
182	0xbf0a19c2	-0.53945553
183	0x3eeb740a	0.45986968
184	0xbf9030d8	-1.1264906
185	0xbf2c8de9	-0.6740404
186	0xbf6251b6	-0.8840593
187	0x3ecdd46b	0.40201125
188	0x3f7b4b26	0.9816154
189	0xbfa09eb0	-1.2548428
190	0xbe2fd894	-0.17172462
191	0xbfa7b652	-1.3102515

mobile_net/inverted_bottleneck_block_8/batch_normalization/FusedBatchNormV3 f4 [192]
0	0xbefbab95	-0.49154344
1	0x3e2550ec	0.1614415
2	0x3e5e10a7	0.2168604
3	0xbf2dd985	-0.67910033
4	0x3f438e99	0.7638946
5	0x3beb0ce8	0.0071731694
6	0xbe98aab8	-0.29817748
7	0xbe7fa081	-0.24963571
8	0x3f3a187c	0.7269361
9	0xbe01bfcd	-0.12670822
10	0xbecb4486	-0.39700717
11	0x3c5899ee	0.013220293
12	0xbe80a3a4	-0.25124848
13	0xbe84aaca	-0.25911552
14	0xbd68ec7c	-0.056866154
15	0xbe08b558	-0.13350427
16	0xbdb5700b	-0.08859261
17	0xbf30cceb	-0.6906268
18	0x3d8909c7	0.06691318
19	0x3ed8366e	0.42229027
20	0x3d34f4b2	0.044178672
21	0x3d1f1a6c	0.038843557
22	0xbe929a7d	-0.2863349
23	0x3f28a8ee	0.65882766
24	0xbdb5bdfc	-0.08874127
25	0x3f43beaf	0.76462835
26	0xbf2b53f1	-0.6692496
27	0xbf6ee9bb	-0.93325394
28	0xbd9770ac	-0.07394537
29	0xbf85c0ca	-1.044946
30	0xbefefc20	-0.4980173
31	0x3d6dc808	0.058052093
32	0xbecc19dc	-0.3986348
33	0xbe45ce20	-0.19316912
34	0xbf3fb9d6	-0.7489294
35	0xbc4ab088	-0.01237119
36	0x3d4b25d2	0.049596615
37	0xbe599bb9	-0.2125081
38	0x3e2bb1c5	0.16767032
39	0x3d95cd89	0.07314593
40	0xbe3f519e	-0.18683478
41	0xbed575a9	-0.4169133
42	0xbf75db6f	-0.96037954
43	0xbe2cfc23	-0.16893058
44	0xbe5cc63b	-0.21559994
45	0xbead6b76	-0.3387105
46	0xbf84cc1c	-1.0374789
47	0xbf4c0f0a	-0.7971045
48	0xbe1095c3	-0.1411963
49	0x3ec8cc50	0.39218378
50	0xbf216678	-0.6304698
51	0xbf4b901a	-0.79516757
52	0xbeff1f4d	-0.49828568
53	0xbf960b27	-1.1722153
54	0xbea22c25	-0.31674305
55	0x3e9e9cca	0.30978996
56	0xbf511510	-0.81672764
57	0xbe192dbb	-0.14958851
58	0xbf806516	-1.0030849
59	0x3e4089b5	0.18802531
60	0xbe8501ae	-0.25977844
61	0xbe0905e7	-0.13381158
62	0x3e57fa01	0.21091463
63	0x3d8680bf	0.06567525
64	0xbf175fd3	-0.5913059
65	0xbdf0bc0e	-0.117546186
66	0xbf1cbe1a	-0.6122757
67	0xbf5578e2	-0.8338758
68	0xbf910ad8	-1.1331434
69	0xbe1d4f98	-0.15362394
70	0x3c80da34	0.015729047
71	0xbecbbdc3	-0.39793214
72	0x3f1208a7	0.5704445
73	0xbf25107c	-0.6447828
74	0xbddd79df	-0.10814261
75	0xbebbd971	-0.36689332
76	0xbea6135d	-0.32436648
77	0xbf129929	-0.57264954
78	0x3d08b5bd	0.033376444
79	0xbe6af176	-0.22943673
80	0xbee8b5d8	-0.45451236
81	0xbf0fb9ba	-0.5614277
82	0x3e7fb27a	0.24970427
83	0xbe2b91de	-0.16754863
84	0xbedc381a	-0.43011552
85	0x3e13878c	0.14407176
86	0xbf2c8642	-0.6739236
87	0xbf324347	-0.6963391
88	0x3ef3119a	0.47474366
89	0x3ee41b41	0.44552043
90	0xbf018844	-0.5059855
91	0xbeeafc02	-0.45895392
92	0x3ce195c8	0.027537242
93	0x3d01adb1	0.031659786
94	0xbecc295e	-0.3987531
95	0x3c8e1126	0.017342161
96	0xbea0d24c	-0.31410444
97	0xbc3ad141	-0.011402429
98	0xbf0b6c76	-0.54462373
99	0xbef11162	-0.47083575
100	0xbdb7406e	-0.08947836
101	0xbee0dfbb	-0.43920693
102	0xbe4c0031	-0.19921948
103	0xbe89fc38	-0.2695024
104	0xbe1ec720	-0.15505648
105	0xbf60ee83	-0.8786394
106	0xbca75382	-0.020425562
107	0xbf70f0d8	-0.941175
108	0xbf719657	-0.94370025
109	0xbdc49bbe	-0.09600018
110	0xbdd51e43	-0.104061626
111	0xbf641264	-0.8909056
112	0xbf8d8ddc	-1.1058917
113	0xbef88fa3	-0.48547086
114	0xbd85c6d8	-0.06532067
115	0xbed564ca	-0.41678458
116	0xbf557589	-0.8338247
117	0x3e56506e	0.20929119
118	0x3e32db2c	0.1746642
119	0xbf9b09e3	-1.2112392
120	0xbf3e57cc	-0.7435272
121	0x3dea84a1	0.11451078
122	0xbe3f20be	-0.18664834
123	0xbf76cd07	-0.96406597
124	0x3f3be437	0.73395103
125	0xbead0f41	-0.338007
126	0xbea70efb	-0.32628617
127	0xbee97836	-0.45599526
128	0x3d31e739	0.0434334
129	0x3eba17e6	0.36346358
130	0xbf32c8a7	-0.6983742
131	0xbeb4c11f	-0.3530359
132	0x3e41983c	0.18905729
133	0xbc56d80b	-0.013113032
134	0xbecab226	-0.3958904
135	0xbcd74ffd	-0.026283259
136	0xbfd619ee	-1.6726663
137	0x3a6a021a	0.0008926705
138	0xbcdb1ad1	-0.026746185
139	0xbeda1cd8	-0.4260013
140	0xbdf246a3	-0.11829879
141	0xbaf78430	-0.0018884
142	0xbd160b42	-0.03663183
143	0xbebecc87	-0.37265417
144	0xbf4d7954	-0.8026326
145	0xbdff369b	-0.12461587
146	0xbca0e36e	-0.019639697
147	0x3cc0b81d	0.023525292
148	0xbf5af622	-0.8553182
149	0xbd2ce8e3	-0.042214286
150	0xbeef2376	-0.46706742
151	0xbf43fada	-0.76554644
152	0xbf4205af	-0.7578992
153	0x3ddfacba	0.10921617
154	0xbe54ed0d	-0.20793553
155	0xbe5a0bca	-0.2129356
156	0xbf7719c7	-0.9652371
157	0xbf20c7e4	-0.6280501
158	0xbfa494a6	-1.2857864
159	0xbee47dfd	-0.4462737
160	0xbf27be9c	-0.6552522
161	0x3e1f2537	0.1554154
162	0xbdf1d112	-0.11807455
163	0xbe150b49	-0.14555086
164	0xbf115214	-0.56765866
165	0xbf1e0a4e	-0.61734474
166	0xbf706b24	-0.93913484
167	0x3f05ccc7	0.5226559
168	0xbe48b06b	-0.19598548
169	0xbdeaef7f	-0.114714615
170	0x3ee8a097	0.4543502
171	0xbe2079c9	-0.15671457
172	0xbfaeda02	-1.3660281
173	0xbd837ccb	-0.06420287
174	0xbe82f4ff	-0.25577542
175	0xbeb80ba4	-0.3594638
176	0xbf99ff73	-1.2031082
177	0xbf8d5571	-1.10417
178	0xbd1af13a	-0.037827708
179	0xbdf56c30	-0.11983526
180	0xbe48ef42	-0.1962252
181	0xbeb38e0f	-0.3506932
182	0xbf41f86e	-0.757697
183	0x3f232875	0.6373361
184	0xbf94e885	-1.1633459
185	0x3cb066e3	0.021533435
186	0xbefa0842	-0.48834425
187	0xbe801bb2	-0.2502113
188	0xbf05347c	-0.5203321
189	0xbf342352	-0.70366395
190	0xbe6e7e3b	-0.2329034
191	0x3ec904fb	0.39261612

mobile_net/inverted_bottleneck_block_8/batch_normalization_1/FusedBatchNormV3 f4 [192]
0	0x3efa5330	0.48891592
1	0xbe2e7c6d	-0.17039652
2	0x3f2ea688	0.68222857
3	0xbf5d99c6	-0.86562765
4	0x3d7b7314	0.061389044
5	0x3f649fd0	0.89306355
6	0x3f100812	0.56262314
7	0x3ed13326	0.40859336
8	0xbf836ace	-1.0266969
9	0xbf216879	-0.6305004
10	0x3ec2a845	0.38019004
11	0x3eacc260	0.33742046
12	0x3e2114b9	0.15730561
13	0xbec4bf4e	-0.38427204
14	0xbea4827c	-0.32130802
15	0x3f108cbd	0.5646475
16	0x3f3e04a0	0.7422581
17	0x3eaf21d2	0.3420549
18	0x3f09c77e	0.53820026
19	0x3ec66a3e	0.3875293
20	0xbeae4e40	-0.34044075
21	0x3f0927fb	0.5357663
22	0x3e972c4e	0.2952599
23	0x3e81e828	0.25372434
24	0x3f11abd0	0.5690279
25	0xbd2f6d90	-0.042829096
26	0xbf31c7ec	-0.6944568
27	0xbf249ff3	-0.64306563
28	0x3e952cf6	0.29135865
29	0xbefcd934	-0.49384463
30	0x3f2a3e76	0.6650156
31	0x3f1a4edc	0.6027658
32	0x3e116e70	0.14202285
33	0x3eb6f47e	0.35733408
34	0xbf700847	-0.9376263
35	0x3f61857f	0.88094324
36	0xbeb96fa0	-0.36217976
37	0xbe1038be	-0.14084145
38	0xbf1e862c	-0.6192348
39	0x3e95fc0e	0.29293865
40	0x3e216c46	0.1576396
41	0xbf859dd4	-1.043879
42	0xbf2578ca	-0.64637434
43	0x3f0c9b34	0.5492432
44	0xbf74f478	-0.9568553
45	0x3ee41f94	0.44555342
46	0xbfb25786	-1.393296
47	0xbf14431d	-0.57914907
48	0x3daa63d4	0.08319822
49	0x3dff60c0	0.124696255
50	0x3f302fb7	0.6882281
51	0xbeb1be1c	-0.34715354
52	0x3ee5411b	0.44776234
53	0x3f1eb06e	0.6198796
54	0xbe0bd128	-0.13654006
55	0xbe825220	-0.2545328
56	0xbf96af05	-1.1772162
57	0x3f416df1	0.7555838
58	0xbf24857e	-0.6426619
59	0xbf7eb6a1	-0.9949742
60	0xbdf7e8dc	-0.12104961
61	0x3d8d0a50	0.068867326
62	0xbd858410	-0.065193295
63	0x3f522019	0.8208023
64	0xbf921b8a	-1.1414654
65	0x3eb64779	0.35601404
66	0x3e4ada7d	0.19809909
67	0x3f3c41ae	0.7353772
68	0xbf7614cf	-0.961255
69	0x3f20f343	0.6287119
70	0xbe3bee92	-0.18352726
71	0xbf7217fd	-0.94567853
72	0x3f49d5d6	0.7884191
73	0x3f2d1825	0.67614967
74	0xbdb1739a	-0.086646274
75	0x3e7254ca	0.23665157
76	0xbe2d3558	-0.1691488
77	0xbf9897fa	-1.192138
78	0x3dbd5920	0.09245515
79	0x3e88c5a1	0.2671328
80	0x3ced6c20	0.028982222
81	0xbef582a0	-0.4795122
82	0xbf02fa86	-0.5116352
83	0xbfb14b01	-1.3851014
84	0xbf663e13	-0.8993847
85	0xbd876d08	-0.06612593
86	0xbf39b857	-0.72546905
87	0xbf460a30	-0.77359295
88	0xbcf8ec50	-0.03038612
89	0x3eeb261a	0.45927507
90	0xbf1a27d7	-0.6021704
91	0x3eebf7ec	0.46087587
92	0x3e1b5e61	0.15172721
93	0xbe39eace	-0.18155977
94	0xbf2d56f8	-0.6771083
95	0xbdc39c54	-0.095513016
96	0x3f0d0ce0	0.5509777
97	0xbc95a9f0	-0.01826951
98	0x3e804c8b	0.25058398
99	0x3e870a5c	0.2637509
100	0x3e07d3d7	0.13264404
101	0xbdef8712	-0.116956845
102	0x3e5114c8	0.20418084
103	0x3f6301fc	0.886749
104	0x3ec0645e	0.37576574
105	0xbf5abd5f	-0.8544521
106	0xbf3773f8	-0.7166133
107	0xbf5782d9	-0.8418403
108	0xbe41f84c	-0.18942374
109	0x3e74e70a	0.2391626
110	0xbf77ad0c	-0.96748424
111	0xbf780b50	-0.9689226
112	0xbf7acde5	-0.9797042
113	0xbc9b39f0	-0.018948525
114	0xbdec272a	-0.115309075
115	0xbf8ac6ea	-1.0841954
116	0x3f1f9bc9	0.62347084
117	0x3f23f334	0.64042974
118	0xbe28636c	-0.16444176
119	0xbf2b80f3	-0.66993636
120	0xbf1c3c60	-0.61029625
121	0x3dd5b64c	0.10435161
122	0xbe4225b1	-0.1895969
123	0x3f7633ce	0.961728
124	0x3f2a0d95	0.66426975
125	0xbf0bee7a	-0.5466076
126	0x3f02e4e5	0.51130515
127	0x3e8afaee	0.2714457
128	0x3e583244	0.21112925
129	0x3f19cc8e	0.6007775
130	0x3f0fda31	0.5619231
131	0xbe898c7c	-0.26864994
132	0x3f7a0809	0.9766851
133	0xbe191ce0	-0.14952421
134	0xbf596110	-0.8491373
135	0x3f29e356	0.6636251
136	0xbf5b56d2	-0.8567935
137	0x3f0a951d	0.5413378
138	0xbe4ff3ea	-0.2030789
139	0x3f183b1e	0.59465206
140	0xbf8fccdc	-1.1234393
141	0xbd5a14a0	-0.053242326
142	0x3eb7f21e	0.35926908
143	0x3ed27054	0.41101325
144	0xbf6256b2	-0.88413537
145	0xbf870d48	-1.0550928
146	0x3f154316	0.5830549
147	0x3ebbf180	0.36707687
148	0xbeadc4c6	-0.3393919
149	0xbd7be8c0	-0.061501265
150	0x3e178329	0.14796127
151	0x3f14e701	0.58164984
152	0x3ee00935	0.43757024
153	0x3f527c8c	0.82221293
154	0xbe806690	-0.2507825
155	0x3f4f4a1e	0.8097247
156	0xbf0b165d	-0.54331
157	0xbeedc2b7	-0.46437618
158	0xbf1064b7	-0.5640368
159	0xbf76aaff	-0.9635467
160	0xbe9905c0	-0.298872
161	0x3f80d74d	1.0065705
162	0x3f16e886	0.5894855
163	0x3ec191a6	0.37806433
164	0x3f190112	0.5976726
165	0x3f288a09	0.65835625
166	0xbf90eee8	-1.1322908
167	0xbe1d9a83	-0.15390973
168	0xbfab4737	-1.3381108
169	0xbf300b84	-0.6876757
170	0x3f140c62	0.57831395
171	0x3f239bcc	0.639096
172	0xbf15c680	-0.5850601
173	0x3f3804b2	0.71882164
174	0x3f6f477f	0.9346847
175	0xbf083c7c	-0.5321729
176	0xbf30018c	-0.6875236
177	0xbf53fdaa	-0.82808936
178	0x3ee9a855	0.4563624
179	0xbda05ed8	-0.0783059
180	0x3e5b9ac8	0.21445763
181	0x3eed28da	0.4632023
182	0xbfa9192d	-1.3210808
183	0x3e11ecee	0.14250538
184	0xbf2bc0a8	-0.67090845
185	0x3eabefd5	0.33581415
186	0xbe55f4ee	-0.20894215
187	0x3dbbc81c	0.09169027
188	0x3f0a5026	0.54028547
189	0xbec169c2	-0.37776
190	0x3f133908	0.575089
191	0xbc961e80	-0.01832509
