chrome/browser/navigation_predictor/test/preloading_heuristics.tflite (tflite, 2096 bytes, 2 tensors)

sequential_3/input_norm/batchnorm/mul_1;sequential_3/input_norm/batchnorm/add_1;sequential_3/dense_0/MatMul;sequential_3/re_lu_4/Relu;sequential_3/dense_0/BiasAdd f4 [3, 17]
0.13180134 -0.46935117 -0.14933501 -0.02206891 0.51242447 -0.31367904 0.2203117 0.40402377
-0.12980829 -0.39190528 -0.05161387 0.51868516 0.51396424 -0.49614626 0.25241593 0.28511533
-0.3038171 0.32425404 -0.008667189 0.47742778 0.3294414 0.4145749 0.1907503 -0.11418258
0.18621218 -0.16517413 0.24486983 -0.22657976 0.26270017 0.10330816 0.37947947 -0.22853786
0.18193251 -0.43594503 -0.15631612 0.029563606 0.0022702788 0.45861405 -0.21216099 -0.0951709
0.50612986 -0.2822367 -0.17764199 0.15653723 0.15497774 -0.49868873 0.44760934 -0.042035542
-0.102550074 0.53360105 0.33711392
00000000: eef6 063e cc4e f0be 47eb 18be dcc9 b4bc
00000010: 402e 033f 8a9a a0be 6499 613e 34dc ce3e
00000020: 77ec 04be cfa7 c8be 1169 53bd 8dc8 043f
00000030: 2993 033f e206 febe a93c 813e a3fa 913e
00000040: ea8d 9bbe a004 a63e d300 0ebc 6a71 f43e
00000050: 8bac a83e 2943 d43e 0c54 433e 8ed8 e9bd
00000060: 68ae 3e3e 6823 29be 28bf 7a3e 8604 68be
00000070: a380 863e 3b93 d33d 224b c23e d405 6abe
00000080: 844c 3a3e 3034 dfbe 5511 20be 602f f23c
00000090: f5c8 143b 76cf ea3e bb40 59be f6e8 c2bd
000000a0: ba91 013f 5481 90be c8e7 35be 4c4b 203e
000000b0: 7cb2 1e3e 2154 ffbe 0d2d e53e 762d 2cbd
000000c0: c605 d2bd 149a 083f 329a ac3e

sequential_3/batch_norm_0/batchnorm/mul_1;sequential_3/batch_norm_0/batchnorm/add_1;sequential_3/output/MatMul;sequential_3/output/BiasAdd f4 [1, 3]
0.49277303 0.31753856 -0.027476167
00000000: bf4c fc3e 6a94 a23e b315 e1bc
