components/test/data/safe_browsing/image_embedding.tflite (tflite, 36438 bytes, 6 tensors)

batch_normalization/FusedBatchNormV3 f4 [32]
0	0x3fa21e0a	1.2665417
1	0x3f229294	0.6350491
2	0x3ef67052	0.4813257
3	0x3f304f98	0.6887145
4	0x3f2630ab	0.6491801
5	0xbf478084	-0.77930474
6	0xbf21ff4a	-0.63280165
7	0x3f424fc6	0.75902975
8	0x3f4dcbdd	0.80389196
9	0x3f6ba2d0	0.9204531
10	0xbf4dfd65	-0.80464774
11	0x3f0188d4	0.5059941
12	0x3f88ba1e	1.0681798
13	0xbf7884ff	-0.97077936
14	0xbef5cb74	-0.48006785
15	0x3f8de7b5	1.1086336
16	0x3f5db1bd	0.8659933
17	0x3ed4e66c	0.41582048
18	0xbf6a3f92	-0.9150325
19	0x3f710b1f	0.94157594
20	0xbf44d3ea	-0.76885855
21	0x3f68e5d4	0.9097569
22	0xbde884e2	-0.113534704
23	0xbf2cc7a4	-0.6749213
24	0x3f5c7ed0	0.86131
25	0xbefda1fa	-0.4953764
26	0x3f512408	0.81695604
27	0xbf319d46	-0.69380605
28	0xbf578ea9	-0.8420206
29	0xbf4e609b	-0.8061616
30	0xbf0a5ffd	-0.54052716
31	0xbf8e4593	-1.1114982

batch_normalization_1/FusedBatchNormV3 f4 [32]
0	0x3cec6420	0.028856337
1	0x3f0da26a	0.5532595
2	0xbe369f32	-0.17834166
3	0xbcb1e484	-0.02171541
4	0xbe1222e8	-0.14271128
5	0xbe0a0efb	-0.13482277
6	0x3e5055ac	0.20345181
7	0xbe327329	-0.17426743
8	0x3d13711c	0.03599654
9	0x3ddbc428	0.10730773
10	0xbe0f199e	-0.13974616
11	0xbdee6ac8	-0.11641461
12	0x3df692af	0.120396964
13	0xbdb1749c	-0.086648196
14	0xbdb53658	-0.08848256
15	0x3ec13a14	0.37739623
16	0x3f5152c9	0.81766945
17	0x3f7de7ea	0.99182
18	0x3de8cd57	0.113672905
19	0xbcce2242	-0.02516282
20	0xbe37624f	-0.17908596
21	0x3d52c01b	0.051452737
22	0xbdc37a84	-0.095448524
23	0x3db6c6fc	0.08924672
24	0xbe1e42aa	-0.15455118
25	0x3f3c5c7a	0.7357861
26	0xbe27342f	-0.163285
27	0x3f00d713	0.5032818
28	0x3dd11c3c	0.102104634
29	0xbde697ea	-0.11259444
30	0x3ec708cb	0.38873896
31	0x3dd2cbe1	0.10292793

batch_normalization_2/FusedBatchNormV3 f4 [64]
0	0x3f472d78	0.77803755
1	0x3e650e48	0.22368729
2	0x3e31a44e	0.17347834
3	0xbda55527	-0.08072882
4	0xbd4cffa4	-0.050048485
5	0x3f335438	0.7005038
6	0xbe138657	-0.14406715
7	0x3daa7b5b	0.083243094
8	0x3d88be30	0.066769004
9	0x3f47e67a	0.78086054
10	0x3d0c5aeb	0.034266394
11	0x3c5d23b0	0.013497278
12	0x3ebbf1a6	0.367078
13	0xbdbacbef	-0.091209285
14	0xbe1e3a1b	-0.15451853
15	0x3eebd0bf	0.46057698
16	0x3ea926e1	0.33037475
17	0x3fb08494	1.379046
18	0x3f0c5970	0.5482397
19	0x3f23b58b	0.6394889
20	0xbc3f33c0	-0.011670053
21	0x38165000	3.5837293e-05
22	0x3e3f8057	0.18701302
23	0x3f3d2593	0.7388546
24	0x3f0ef10e	0.5583657
25	0xbd8c5ce3	-0.06853654
26	0x3dc37268	0.09543306
27	0x3eaabf12	0.333489
28	0x3cdb1a78	0.02674602
29	0x3e701895	0.23446877
30	0x3f0ccf62	0.5500394
31	0xbe31cc0b	-0.17362992
32	0x3f1c9c20	0.6117573
33	0xbe35b496	-0.1774467
34	0xbd89a7d4	-0.06721464
35	0x3e514974	0.20438176
36	0x3f31b96a	0.69423544
37	0xbe5f86c0	-0.21828747
38	0xbe21aee0	-0.15789366
39	0x3f140f6e	0.57836044
40	0xbdf7274b	-0.120680414
41	0x3da1e00d	0.079040624
42	0x3f92244b	1.1417326
43	0xbe5aa0b9	-0.21350373
44	0xbd9f9198	-0.07791442
45	0x3dc83458	0.09775609
46	0x3eae708f	0.3407025
47	0x3e700404	0.23439032
48	0xbd30adaa	-0.04313437
49	0x3efcf4aa	0.49405414
50	0xbe2378e5	-0.15964086
51	0x3ed721da	0.42018014
52	0xbca0bd05	-0.019621382
53	0x3f290302	0.66020215
54	0x3cee44cd	0.029085541
55	0x3e21f650	0.15816617
56	0xbd2cbb6e	-0.042170934
57	0xbe98ceda	-0.29845315
58	0x3db91575	0.09037296
59	0x3ec5b36c	0.3861345
60	0x3f70426b	0.93851346
61	0x3dc405f4	0.09571448
62	0x3e13d2be	0.1443586
63	0xbe2d76ee	-0.169399

conv2d/Conv2D f4 [32, 3, 3, 3]
0	0xbd37755a	-0.04478965
1	0x3dec1b28	0.11528617
2	0xbe5339e2	-0.2062755
3	0xbd0f8fe1	-0.035049323
4	0x3dfef8ff	0.12449836
5	0xbe42482d	-0.18972845
6	0xbcc70299	-0.02429323
7	0x3e07dc13	0.13267545
8	0xbe297bbd	-0.16551109
9	0xbd1afad7	-0.037836876
10	0x3df5fbf5	0.120109476
11	0xbe3b8318	-0.18311727
12	0xbcdbcd3b	-0.02683126
13	0x3e067a90	0.13132691
14	0xbe2853ab	-0.16438167
15	0xbc6e10f7	-0.014530412
16	0x3e106588	0.14101231
17	0xbe0daf04	-0.13836294
18	0xbd21b50d	-0.039479304
19	0x3ded764c	0.11594829
20	0xbe1a0c19	-0.15043677
21	0xbce15292	-0.027505193
22	0x3e035daf	0.12828706
23	0xbe057808	-0.1303407
24	0xbc7d2766	-0.015451288
25	0x3e0d942b	0.13826053
26	0xbdd58afd	-0.104269005
27	0xbe108d7f	-0.14116476
28	0x3d8ace58	0.06777638
29	0xbd76ea81	-0.060282234
30	0xbe176d80	-0.14787865
31	0x3d85d03e	0.0653386
32	0xbd56d5fc	-0.052450165
33	0xbdf56a22	-0.11983134
34	0x3dba4df6	0.09096901
35	0xbce7102e	-0.028205957
36	0xbe04cd7a	-0.12969008
37	0x3d9d89ac	0.076922745
38	0xbd28fa7d	-0.04125451
39	0xbe0ad295	-0.13556893
40	0x3d9939b9	0.07481713
41	0xbd0926e1	-0.033484343
42	0xbddb3522	-0.10703494
43	0x3dcdfdb1	0.100581534
44	0xbc162cd2	-0.009165959
45	0xbdd1f4c9	-0.10251767
46	0x3dca4615	0.09876648
47	0xbcb43349	-0.02199711
48	0xbddc0ea5	-0.10744981
49	0x3dc666df	0.0968759
50	0xbc63b1db	-0.0138973845
51	0xbda102cc	-0.078618616
52	0x3dfab262	0.12241055
53	0x3c268adc	0.010164943
54	0xbd8688b6	-0.06569044
55	0xbc007ce3	-0.007842275
56	0xbd369250	-0.04457313
57	0xbd88dc59	-0.06682653
58	0xbbc43f91	-0.005989023
59	0xbd250412	-0.040287085
60	0xbd2c0636	-0.04199811
61	0x3c90218c	0.017594121
62	0xbca78578	-0.020449385
63	0xbd876027	-0.066101365
64	0xbbfa94d7	-0.0076471376
65	0xbd20cfbe	-0.03926062
66	0xbd8972dd	-0.067113616
67	0xbbc98419	-0.0061497805
68	0xbd121f3f	-0.03567433
69	0xbd2e1a1f	-0.04250538
70	0x3c8bc5e6	0.017062139
71	0xbc85dd44	-0.01634086
72	0xbd1c9046	-0.038223527
73	0x3c9ad67d	0.018901104
74	0xbc8f71bb	-0.017510286
75	0xbd20e318	-0.039279073
76	0x3ca546bd	0.020175332
77	0xbc69c92d	-0.014269155
78	0xbc73f27e	-0.014889358
79	0x3d2f022f	0.04272669
80	0x3b8999a0	0.0041992217
81	0xbd27ddbb	-0.040982943
82	0xbd344b31	-0.04401702
83	0xbd484845	-0.048897047
84	0xbd2ddfca	-0.04244975
85	0xbd2de43b	-0.042453986
86	0xbd41d4b9	-0.04732201
87	0xbc0dbe6d	-0.008651358
88	0xbc13c508	-0.009019144
89	0xbca1101d	-0.019661004
90	0xbd245436	-0.040119372
91	0xbd2bb895	-0.041924078
92	0xbd36bd2d	-0.044614006
93	0xbd2960b1	-0.041351978
94	0xbd264ab9	-0.040598605
95	0xbd32e224	-0.043672696
96	0xbbfd68b6	-0.00773343
97	0xbbf6a2cd	-0.0075267316
98	0xbc879d02	-0.01655436
99	0xbb8ef603	-0.004362823
100	0xbb9609d1	-0.004578807
101	0xbc8df940	-0.017330766
102	0xbbb302e7	-0.0054629925
103	0xbb559698	-0.0032590982
104	0xbc877a70	-0.016537875
105	0x3ce57072	0.02800772
106	0x3cef336a	0.02919932
107	0x3c211a8f	0.009832992
108	0xbe5cf505	-0.21577843
109	0x3e8fd1de	0.28089803
110	0xbe466b93	-0.19376974
111	0xbe681f5e	-0.22668216
112	0x3e8f6fb3	0.28014907
113	0xbe274eee	-0.16338703
114	0xbe7332e3	-0.2374988
115	0x3e881425	0.2657787
116	0xbe1ba237	-0.15198599
117	0xbe40bd1b	-0.18822138
118	0x3e9de05a	0.3083523
119	0xbe0f4da8	-0.13994467
120	0xbe4a594b	-0.19760625
121	0x3e9defb0	0.3084693
122	0xbddf7a55	-0.10912005
123	0xbe543fa7	-0.20727406
124	0x3e96ff9f	0.29491898
125	0xbdc78548	-0.09742218
126	0xbe4d298d	-0.20035382
127	0x3e937481	0.28799823
128	0xbdf12b78	-0.11775869
129	0xbe55ab73	-0.20866184
130	0x3e940fdd	0.28918353
131	0xbdb15aad	-0.08659873
132	0xbe5edde2	-0.21764329
133	0x3e8d0bb4	0.2754799
134	0xbd9bb303	-0.07602503
135	0xbd350563	-0.04419459
136	0x3db79887	0.08964639
137	0x3dfcd99e	0.12346195
138	0xbd2ff0b1	-0.04295415
139	0x3db4f966	0.088366315
140	0x3e03627b	0.12830536
141	0xbdad6ecc	-0.084683985
142	0x3d3ab35e	0.045581214
143	0x3d9e8d11	0.0774175
144	0xbd797c27	-0.060909417
145	0x3d94f4f6	0.07273285
146	0x3ddc9cc0	0.10772085
147	0xbd75a10b	-0.059968036
148	0x3d91ad9a	0.0711319
149	0x3de58b36	0.11208193
150	0xbdd070b5	-0.10177747
151	0x3cea1211	0.028573068
152	0x3d7a9f70	0.061187208
153	0xbdbb9dc8	-0.09160954
154	0x3d1a0ccb	0.037609857
155	0x3d726590	0.05917889
156	0xbdbb8d22	-0.09157778
157	0x3d11c02c	0.03558366
158	0x3d80f3d7	0.06296509
159	0xbe07ea17	-0.13272892
160	0xbbd34737	-0.0064476985
161	0x3c4974e9	0.01229594
162	0x3d3649b3	0.04450388
163	0x3c5ddafd	0.01354098
164	0x3d5616dd	0.052267898
165	0x3d3fd349	0.046832357
166	0x3c79f8bc	0.015257057
167	0x3d5d7acf	0.054072198
168	0x3ce1dde1	0.02757162
169	0xbb824855	-0.003975908
170	0x3d02b356	0.03190931
171	0x3d12b9ce	0.03582173
172	0x3bb71384	0.0055870432
173	0x3d3a50a3	0.045487057
174	0x3d1a5416	0.037677847
175	0x3bdf865e	0.0068214377
176	0x3d4033b2	0.0469243
177	0x3c951c80	0.018202066
178	0xbc4b681f	-0.012414961
179	0x3cc8bc78	0.024503931
180	0x3c8f7e00	0.017516136
181	0xbc4663e6	-0.012108779
182	0x3ccd1403	0.025033956
183	0x3c9a93d8	0.018869326
184	0xbc34bee2	-0.011031838
185	0x3cd5e460	0.026109874
186	0xb9eee77b	-0.00045567364
187	0xbcf64acf	-0.030064968
188	0x3b7feb8b	0.0039050307
189	0xbc42f80f	-0.011899962
190	0xbd8d058d	-0.06885824
191	0xbc91a5cc	-0.017779253
192	0xbc4a77b3	-0.01235764
193	0xbd8bf64b	-0.06834086
194	0xbca40e62	-0.02002639
195	0x3c0da0fb	0.008644338
196	0xbd3a83d0	-0.045535862
197	0xbb889a00	-0.004168749
198	0xbc6a451b	-0.014298703
199	0xbd8fa51e	-0.070139155
200	0xbcaeef53	-0.021354353
201	0xbc70f0f7	-0.014705888
202	0xbd8ed5ab	-0.06974348
203	0xbcc3fa38	-0.023923025
204	0x3bc6d10c	0.006067401
205	0xbd41a0d6	-0.047272526
206	0xbc09cfa1	-0.008411319
207	0x3bbd35f2	0.005774253
208	0xbd3b8bae	-0.045787506
209	0xbc2f1ee2	-0.010688515
210	0x3bb30b69	0.0054640067
211	0xbd398ee1	-0.045302276
212	0xbc5808b9	-0.013185673
213	0x3cd5b533	0.02608738
214	0xbcbdd660	-0.023173511
215	0x3b08e948	0.0020891
216	0xbce1256c	-0.027483664
217	0xbd1443e4	-0.036197558
218	0xbd79ec16	-0.061016165
219	0xbce80992	-0.028324876
220	0xbd0df9e7	-0.034662154
221	0xbd70c363	-0.058780085
222	0x39abaa72	0.00032742653
223	0xbbb601e3	-0.005554424
224	0xbd02d447	-0.031940725
225	0xbcf8f0ad	-0.0303882
226	0xbd1bf02e	-0.03807085
227	0xbd744f0c	-0.059645697
228	0xbcfcd2d3	-0.030862248
229	0xbd1533b6	-0.03642627
230	0xbd6c3e00	-0.057676315
231	0xbb0e1eaa	-0.0021685758
232	0xbbf25332	-0.0073951716
233	0xbcff3306	-0.03115226
234	0xbbb8aa18	-0.005635511
235	0xbc3df431	-0.011593864
236	0xbd1f827c	-0.0389428
237	0xbbbf514d	-0.005838549
238	0xbc1ea9d4	-0.009684045
239	0xbd1716e6	-0.036887072
240	0x3cbb1e91	0.022841724
241	0x3c9b7472	0.018976424
242	0xbc32ad28	-0.0109055415
243	0x3b882f68	0.004156042
244	0xbd6adf07	-0.0573416
245	0xbd551d91	-0.05203015
246	0x3b960ca5	0.004579144
247	0xbd679bd7	-0.056545105
248	0xbd5939cc	-0.053033635
249	0x3cc473d3	0.02398101
250	0xbd0f8b49	-0.035044942
251	0xbd109e99	-0.0353075
252	0x3ab633c0	0.0013900921
253	0xbd7237a9	-0.059135113
254	0xbd5c1b73	-0.053737115
255	0x3afb411a	0.0019169182

conv2d_1/Conv2D i1 [32, 3, 3, 32]
0	0x90	-112
1	0x0a	10
2	0x40	64
3	0x35	53
4	0xb0	-80
5	0xde	-34
6	0x1b	27
7	0x4d	77
8	0x34	52
9	0x47	71
10	0x0e	14
11	0x0d	13
12	0x4c	76
13	0x12	18
14	0xf7	-9
15	0xbb	-69
16	0x18	24
17	0xe2	-30
18	0xfd	-3
19	0x32	50
20	0xe3	-29
21	0x32	50
22	0xb3	-77
23	0xf4	-12
24	0xf9	-7
25	0xf4	-12
26	0x21	33
27	0x11	17
28	0x1b	27
29	0x19	25
30	0xfd	-3
31	0xaf	-81
32	0xac	-84
33	0x25	37
34	0x52	82
35	0x49	73
36	0xc9	-55
37	0xd9	-39
38	0x18	24
39	0x5d	93
40	0x49	73
41	0x5b	91
42	0x0b	11
43	0x18	24
44	0x60	96
45	0x0f	15
46	0xfb	-5
47	0xc6	-58
48	0x2b	43
49	0xec	-20
50	0xfc	-4
51	0x44	68
52	0xe3	-29
53	0x48	72
54	0xb0	-80
55	0xf7	-9
56	0xfd	-3
57	0x02	2
58	0x3a	58
59	0x0e	14
60	0x1a	26
61	0x17	23
62	0xfd	-3
63	0xa9	-87
64	0x9a	-102
65	0x06	6
66	0x34	52
67	0x29	41
68	0xb7	-73
69	0xde	-34
70	0x21	33
71	0x35	53
72	0x25	37
73	0x33	51
74	0x15	21
75	0x07	7
76	0x30	48
77	0x16	22
78	0x05	5
79	0xc0	-64
80	0x0a	10
81	0xe8	-24
82	0x00	0
83	0x1d	29
84	0xef	-17
85	0x22	34
86	0xb9	-71
87	0x00	0
88	0xe7	-25
89	0x00	0
90	0x15	21
91	0x17	23
92	0x25	37
93	0x20	32
94	0xff	-1
95	0xaa	-86
96	0xaf	-81
97	0x33	51
98	0x5e	94
99	0x55	85
100	0xd0	-48
101	0xd1	-47
102	0x0f	15
103	0x6b	107
104	0x51	81
105	0x64	100
106	0x03	3
107	0x1c	28
108	0x68	104
109	0x09	9
110	0xf1	-15
111	0xbd	-67
112	0x2f	47
113	0xf2	-14
114	0xf7	-9
115	0x4d	77
116	0xd8	-40
117	0x57	87
118	0xaf	-81
119	0xef	-17
120	0x06	6
121	0xf1	-15
122	0x49	73
123	0x06	6
124	0x0f	15
125	0x0f	15
126	0xfa	-6
127	0xa5	-91
128	0xcf	-49
129	0x50	80
130	0x72	114
131	0x6c	108
132	0xea	-22
133	0xcb	-53
134	0x0c	12
135	0x7e	126
136	0x69	105
137	0x7b	123
138	0x01	1
139	0x28	40
140	0x7f	127
141	0x06	6
142	0xf4	-12
143	0xcb	-53
144	0x44	68
145	0xfc	-4
146	0xf6	-10
147	0x62	98
148	0xd9	-39
149	0x70	112
150	0xae	-82
151	0xf2	-14
152	0x0e	14
153	0x01	1
154	0x65	101
155	0x03	3
156	0x0d	13
157	0x0d	13
158	0xf9	-7
159	0x9e	-98
160	0xc0	-64
161	0x31	49
162	0x56	86
163	0x4e	78
164	0xd7	-41
165	0xce	-50
166	0x15	21
167	0x58	88
168	0x47	71
169	0x57	87
170	0x0a	10
171	0x16	22
172	0x53	83
173	0x0d	13
174	0xfd	-3
175	0xc8	-56
176	0x24	36
177	0xf8	-8
178	0xf9	-7
179	0x3e	62
180	0xe6	-26
181	0x4c	76
182	0xb8	-72
183	0xfc	-4
184	0xfc	-4
185	0x01	1
186	0x42	66
187	0x0c	12
188	0x18	24
189	0x16	22
190	0xfa	-6
191	0x9e	-98
192	0x93	-109
193	0xfe	-2
194	0x2c	44
195	0x1b	27
196	0xb6	-74
197	0xd6	-42
198	0x1c	28
199	0x25	37
200	0x0f	15
201	0x1d	29
202	0x10	16
203	0xfe	-2
204	0x12	18
205	0x14	20
206	0xfe	-2
207	0xb0	-80
208	0xf8	-8
209	0xf2	-14
210	0x02	2
211	0x0d	13
212	0xea	-22
213	0x15	21
214	0xc3	-61
215	0xfd	-3
216	0xe9	-23
217	0xe3	-29
218	0x08	8
219	0x12	18
220	0x1d	29
221	0x1c	28
222	0x02	2
223	0xab	-85
224	0xb5	-75
225	0x1a	26
226	0x40	64
227	0x33	51
228	0xce	-50
229	0xd1	-47
230	0x19	25
231	0x3a	58
232	0x28	40
233	0x37	55
234	0x0e	14
235	0x0a	10
236	0x2c	44
237	0x11	17
238	0x02	2
239	0xc0	-64
240	0x0d	13
241	0xfc	-4
242	0x00	0
243	0x23	35
244	0xeb	-21
245	0x2f	47
246	0xc4	-60
247	0x00	0
248	0xf3	-13
249	0xf4	-12
250	0x25	37
251	0x10	16
252	0x1c	28
253	0x1a	26
254	0x01	1
255	0xa3	-93

conv2d_2/Conv2D i1 [64, 3, 3, 32]
0	0xd5	-43
1	0xac	-84
2	0xd7	-41
3	0xee	-18
4	0x0c	12
5	0xf3	-13
6	0xf4	-12
7	0xff	-1
8	0xeb	-21
9	0xeb	-21
10	0xe8	-24
11	0xe8	-24
12	0xfd	-3
13	0x07	7
14	0xe2	-30
15	0xcc	-52
16	0x95	-107
17	0xd3	-45
18	0xe1	-31
19	0x0d	13
20	0x38	56
21	0xfa	-6
22	0xe6	-26
23	0xfb	-5
24	0xe7	-25
25	0x02	2
26	0xe8	-24
27	0x9f	-97
28	0x09	9
29	0xf9	-7
30	0x81	-127
31	0x37	55
32	0xdc	-36
33	0xad	-83
34	0xdf	-33
35	0xf3	-13
36	0x0a	10
37	0xf8	-8
38	0xed	-19
39	0x01	1
40	0xf0	-16
41	0xe3	-29
42	0xee	-18
43	0xee	-18
44	0xf5	-11
45	0x07	7
46	0xe5	-27
47	0xc4	-60
48	0x95	-107
49	0xca	-54
50	0xdf	-33
51	0x06	6
52	0x2f	47
53	0xf0	-16
54	0xec	-20
55	0xf4	-12
56	0xed	-19
57	0xfa	-6
58	0xee	-18
59	0x9e	-98
60	0x01	1
61	0xfb	-5
62	0x8b	-117
63	0x2e	46
64	0xdd	-35
65	0xb7	-73
66	0xdf	-33
67	0xf3	-13
68	0x03	3
69	0xf7	-9
70	0xf5	-11
71	0xfe	-2
72	0xf0	-16
73	0xe8	-24
74	0xef	-17
75	0xee	-18
76	0xf8	-8
77	0x02	2
78	0xe2	-30
79	0xcf	-49
80	0xa3	-93
81	0xd2	-46
82	0xd6	-42
83	0x07	7
84	0x1c	28
85	0xf5	-11
86	0xed	-19
87	0xf9	-7
88	0xee	-18
89	0xfb	-5
90	0xee	-18
91	0xab	-85
92	0x03	3
93	0xf9	-7
94	0x8f	-113
95	0x21	33
96	0xd5	-43
97	0xb8	-72
98	0xd7	-41
99	0xe9	-23
100	0x03	3
101	0xf0	-16
102	0xf4	-12
103	0xf9	-7
104	0xe6	-26
105	0xe7	-25
106	0xe7	-25
107	0xe6	-26
108	0xf8	-8
109	0xfd	-3
110	0xde	-34
111	0xd1	-47
112	0xa2	-94
113	0xd4	-44
114	0xdc	-36
115	0x08	8
116	0x2c	44
117	0xf4	-12
118	0xe5	-27
119	0xf8	-8
120	0xe7	-25
121	0x01	1
122	0xe7	-25
123	0xa9	-87
124	0x03	3
125	0xf2	-14
126	0x8c	-116
127	0x2b	43
128	0xdb	-37
129	0xb9	-71
130	0xdf	-33
131	0xee	-18
132	0x01	1
133	0xf4	-12
134	0xee	-18
135	0xfa	-6
136	0xea	-22
137	0xe1	-31
138	0xed	-19
139	0xeb	-21
140	0xf1	-15
141	0xfc	-4
142	0xe1	-31
143	0xcc	-52
144	0xa3	-93
145	0xcc	-52
146	0xda	-38
147	0x02	2
148	0x22	34
149	0xec	-20
150	0xeb	-21
151	0xf3	-13
152	0xec	-20
153	0xf8	-8
154	0xec	-20
155	0xaa	-86
156	0xfd	-3
157	0xf3	-13
158	0x95	-107
159	0x21	33
160	0xdc	-36
161	0xc4	-60
162	0xdf	-33
163	0xed	-19
164	0xf9	-7
165	0xf3	-13
166	0xf9	-7
167	0xf6	-10
168	0xe9	-23
169	0xe7	-25
170	0xed	-19
171	0xea	-22
172	0xf5	-11
173	0xf6	-10
174	0xde	-34
175	0xd8	-40
176	0xb1	-79
177	0xd5	-43
178	0xd0	-48
179	0x04	4
180	0x0f	15
181	0xf3	-13
182	0xeb	-21
183	0xf9	-7
184	0xec	-20
185	0xf9	-7
186	0xec	-20
187	0xb8	-72
188	0x00	0
189	0xf0	-16
190	0x99	-103
191	0x14	20
192	0xd6	-42
193	0xcb	-53
194	0xd8	-40
195	0xe5	-27
196	0xf1	-15
197	0xec	-20
198	0x05	5
199	0xee	-18
200	0xe0	-32
201	0xf2	-14
202	0xe5	-27
203	0xe3	-29
204	0x00	0
205	0xed	-19
206	0xd8	-40
207	0xe6	-26
208	0xbc	-68
209	0xe7	-25
210	0xd1	-47
211	0x0b	11
212	0x10	16
213	0xfe	-2
214	0xe4	-28
215	0x03	3
216	0xe5	-27
217	0x02	2
218	0xe5	-27
219	0xc2	-62
220	0x06	6
221	0xe7	-25
222	0x93	-109
223	0x18	24
224	0xdc	-36
225	0xcd	-51
226	0xdf	-33
227	0xe9	-23
228	0xef	-17
229	0xef	-17
230	0x00	0
231	0xef	-17
232	0xe4	-28
233	0xed	-19
234	0xea	-22
235	0xe8	-24
236	0xfa	-6
237	0xeb	-21
238	0xdb	-37
239	0xe3	-29
240	0xbe	-66
241	0xde	-34
242	0xcd	-51
243	0x06	6
244	0x04	4
245	0xf7	-9
246	0xe9	-23
247	0xfe	-2
248	0xea	-22
249	0xf9	-7
250	0xea	-22
251	0xc4	-60
252	0x00	0
253	0xe7	-25
254	0x9c	-100
255	0x0e	14
