components/test/data/safe_browsing/visual_model_android.tflite (tflite, 580281 bytes, 53 tensors)

mnas_v4_a_035_1/feature_network/cell_11/op_0/depthwise_0/weights_quant/FakeQuantWithMinMaxVars u1 [1, 3, 3, 192] scale=0.25810343 zero_point=120
000000 77 77 78 76 79 79 79 79 78 7a 79 79 77 78 7c 79
       -0.25810343 -0.25810343 0.0 -0.51620686 0.25810343 0.25810343 0.25810343 0.25810343 0.0 0.51620686 0.25810343 0.25810343 -0.25810343 0.0 1.0324137 0.25810343
000010 77 78 7a 77 79 7a 78 79 79 79 79 79 78 77 78 79
       -0.25810343 0.0 0.51620686 -0.25810343 0.25810343 0.51620686 0.0 0.25810343 0.25810343 0.25810343 0.25810343 0.25810343 0.0 -0.25810343 0.0 0.25810343
000020 7b 78 77 7a 77 79 79 77 78 78 78 78 77 78 79 77
       0.7743103 0.0 -0.25810343 0.51620686 -0.25810343 0.25810343 0.25810343 -0.25810343 0.0 0.0 0.0 0.0 -0.25810343 0.0 0.25810343 -0.25810343
000030 79 78 78 78 78 79 79 79 78 7a 77 78 7a 76 76 7a
       0.25810343 0.0 0.0 0.0 0.0 0.25810343 0.25810343 0.25810343 0.0 0.51620686 -0.25810343 0.0 0.51620686 -0.51620686 -0.51620686 0.51620686
000040 79 7a 76 74 76 7a 7b 77 7a 79 78 77 77 79 78 73
       0.25810343 0.51620686 -0.51620686 -1.0324137 -0.51620686 0.51620686 0.7743103 -0.25810343 0.51620686 0.25810343 0.0 -0.25810343 -0.25810343 0.25810343 0.0 -1.2905171
000050 77 7b 7a 79 77 18 79 7d 77 77 7b 73 76 82 7a 77
       -0.25810343 0.7743103 0.51620686 0.25810343 -0.25810343 -24.77793 0.25810343 1.2905171 -0.25810343 -0.25810343 0.7743103 -1.2905171 -0.51620686 2.5810342 0.51620686 -0.25810343
000060 76 79 7a 7a 77 78 79 78 7a 79 78 79 77 7a 7a 7b
       -0.51620686 0.25810343 0.51620686 0.51620686 -0.25810343 0.0 0.25810343 0.0 0.51620686 0.25810343 0.0 0.25810343 -0.25810343 0.51620686 0.51620686 0.7743103
000070 7a 78 76 79 6e 76 74 74 76 75 78 77 78 77 78 77
       0.51620686 0.0 -0.51620686 0.25810343 -2.5810342 -0.51620686 -1.0324137 -1.0324137 -0.51620686 -0.7743103 0.0 -0.25810343 0.0 -0.25810343 0.0 -0.25810343
000080 7a 79 79 78 7a 7a 79 79 78 78 79 76 77 7b 79 77
       0.51620686 0.25810343 0.25810343 0.0 0.51620686 0.51620686 0.25810343 0.25810343 0.0 0.0 0.25810343 -0.51620686 -0.25810343 0.7743103 0.25810343 -0.25810343
000090 7a 7b 76 77 74 74 7c 79 74 77 78 76 7a 79 77 77
       0.51620686 0.7743103 -0.51620686 -0.25810343 -1.0324137 -1.0324137 1.0324137 0.25810343 -1.0324137 -0.25810343 0.0 -0.51620686 0.51620686 0.25810343 -0.25810343 -0.25810343
0000a0 7b 78 77 77 77 78 73 7a 78 76 78 7f 79 77 78 77
       0.7743103 0.0 -0.25810343 -0.25810343 -0.25810343 0.0 -1.2905171 0.51620686 0.0 -0.51620686 0.0 1.8067241 0.25810343 -0.25810343 0.0 -0.25810343
0000b0 76 79 78 85 77 79 77 79 79 78 79 79 82 7c 79 77
       -0.51620686 0.25810343 0.0 3.3553445 -0.25810343 0.25810343 -0.25810343 0.25810343 0.25810343 0.0 0.25810343 0.25810343 2.5810342 1.0324137 0.25810343 -0.25810343
0000c0 76 79 79 74 77 79 79 77 79 74 7a 81 75 74 7f 7a
       -0.51620686 0.25810343 0.25810343 -1.0324137 -0.25810343 0.25810343 0.25810343 -0.25810343 0.25810343 -1.0324137 0.51620686 2.3229308 -0.7743103 -1.0324137 1.8067241 0.51620686
0000d0 77 7c 7b 77 74 7a 7a 79 7b 75 7d 7d 74 76 7b 81
       -0.25810343 1.0324137 0.7743103 -0.25810343 -1.0324137 0.51620686 0.51620686 0.25810343 0.7743103 -0.7743103 1.2905171 1.2905171 -1.0324137 -0.51620686 0.7743103 2.3229308
0000e0 79 72 78 78 77 7b 78 77 79 7c 76 79 75 7a 7a 77
       0.25810343 -1.5486206 0.0 0.0 -0.25810343 0.7743103 0.0 -0.25810343 0.25810343 1.0324137 -0.51620686 0.25810343 -0.7743103 0.51620686 0.51620686 -0.25810343
0000f0 81 78 75 77 7c 7a 7b 77 7a 7b 72 79 7b 77 75 7d
       2.3229308 0.0 -0.7743103 -0.25810343 1.0324137 0.51620686 0.7743103 -0.25810343 0.51620686 0.7743103 -1.5486206 0.25810343 0.7743103 -0.25810343 -0.7743103 1.2905171

mnas_v4_a_035_1/feature_network/cell_11/op_0/expand_0/weights_quant/FakeQuantWithMinMaxVars u1 [192, 1, 1, 32] scale=0.00095314055 zero_point=140
000000 dd 60 6b 43 6a 7b 9c 87 86 99 81 8c aa 83 68 b2
       0.077204384 -0.041938186 -0.03145364 -0.06957926 -0.032406777 -0.016203389 0.015250249 -0.004765703 -0.005718843 0.012390827 -0.010484546 0.0 0.028594216 -0.008578265 -0.03431306 0.03621934
000010 83 70 b3 8e ba 95 81 68 99 93 8d 6b 68 9c 5b a7
       -0.008578265 -0.026687935 0.03717248 0.0019062811 0.043844465 0.008578265 -0.010484546 -0.03431306 0.012390827 0.0066719837 0.00095314055 -0.03145364 -0.03431306 0.015250249 -0.046703886 0.025734795
000020 84 ab 8d b8 d2 65 99 6e b9 6b b7 8d 5f 8b 72 82
       -0.0076251244 0.029547358 0.00095314055 0.041938186 0.06671984 -0.03717248 0.012390827 -0.028594216 0.042891324 -0.03145364 0.040985044 0.00095314055 -0.042891324 -0.00095314055 -0.024781654 -0.009531406
000030 9c 9b 98 9b 88 8d 80 b7 9a 68 8c 7b 70 63 9d 58
       0.015250249 0.014297108 0.011437686 0.014297108 -0.0038125622 0.00095314055 -0.011437686 0.040985044 0.0133439675 -0.03431306 0.0 -0.016203389 -0.026687935 -0.03907876 0.016203389 -0.049563307
000040 7b 70 a1 77 b0 64 84 8b 91 b1 a3 82 8e 7d b1 af
       -0.016203389 -0.026687935 0.020015951 -0.020015951 0.03431306 -0.038125623 -0.0076251244 -0.00095314055 0.004765703 0.035266202 0.021922233 -0.009531406 0.0019062811 -0.014297108 0.035266202 0.03335992
000050 7f 6b da b2 92 61 9e 62 b7 91 81 9c 9a a3 63 a3
       -0.012390827 -0.03145364 0.07434496 0.03621934 0.005718843 -0.040985044 0.01715653 -0.040031902 0.040985044 0.004765703 -0.010484546 0.015250249 0.0133439675 0.021922233 -0.03907876 0.021922233
000060 a0 4f 8e 7f 9a 7e 85 7a 79 6e 7b d0 87 bd 99 8c
       0.019062812 -0.058141574 0.0019062811 -0.012390827 0.0133439675 -0.0133439675 -0.0066719837 -0.01715653 -0.01810967 -0.028594216 -0.016203389 0.064813554 -0.004765703 0.046703886 0.012390827 0.0
000070 7c 75 8b 86 a4 8e 90 8a 86 aa 7b c1 83 8b b2 86
       -0.015250249 -0.021922233 -0.00095314055 -0.005718843 0.022875372 0.0019062811 0.0038125622 -0.0019062811 -0.005718843 0.028594216 -0.016203389 0.05051645 -0.008578265 -0.00095314055 0.03621934 -0.005718843
000080 a5 ab 85 9b 75 95 84 92 97 7b 8f 9e 93 90 98 63
       0.023828514 0.029547358 -0.0066719837 0.014297108 -0.021922233 0.008578265 -0.0076251244 0.005718843 0.010484546 -0.016203389 0.0028594215 0.01715653 0.0066719837 0.0038125622 0.011437686 -0.03907876
000090 9b 93 7f a8 8a 97 6e 96 8b 6e 99 9a 7a 83 9d 99
       0.014297108 0.0066719837 -0.012390827 0.026687935 -0.0019062811 0.010484546 -0.028594216 0.009531406 -0.00095314055 -0.028594216 0.012390827 0.0133439675 -0.01715653 -0.008578265 0.016203389 0.012390827
0000a0 86 ad 8a 86 79 76 84 79 4b ac 83 5b 8a a3 7d c2
       -0.005718843 0.03145364 -0.0019062811 -0.005718843 -0.01810967 -0.020969093 -0.0076251244 -0.01810967 -0.061954137 0.030500498 -0.008578265 -0.046703886 -0.0019062811 0.021922233 -0.014297108 0.05146959
0000b0 bf 86 87 99 ae 8d 83 7f 72 74 9d 76 8d 9e 70 9c
       0.04861017 -0.005718843 -0.004765703 0.012390827 0.032406777 0.00095314055 -0.008578265 -0.012390827 -0.024781654 -0.022875372 0.016203389 -0.020969093 0.00095314055 0.01715653 -0.026687935 0.015250249
0000c0 88 86 d8 b8 aa 7d 82 63 ba 83 a5 7c c6 91 8f 5a
       -0.0038125622 -0.005718843 0.07243868 0.041938186 0.028594216 -0.014297108 -0.009531406 -0.03907876 0.043844465 -0.008578265 0.023828514 -0.015250249 0.055282153 0.004765703 0.0028594215 -0.047657028
0000d0 ac 74 7c 76 80 a5 58 65 b0 71 a2 da a2 4a a4 be
       0.030500498 -0.022875372 -0.015250249 -0.020969093 -0.011437686 0.023828514 -0.049563307 -0.03717248 0.03431306 -0.025734795 0.020969093 0.07434496 0.020969093 -0.06290728 0.022875372 0.047657028
0000e0 6d 77 bf a1 9c 7d 80 90 94 99 6e 64 8e b2 8e 67
       -0.029547358 -0.020015951 0.04861017 0.020015951 0.015250249 -0.014297108 -0.011437686 0.0038125622 0.0076251244 0.012390827 -0.028594216 -0.038125623 0.0019062811 0.03621934 0.0019062811 -0.035266202
0000f0 7a 5a 84 8d b2 8c 8c 89 8a c8 81 7f 99 8b 84 76
       -0.01715653 -0.047657028 -0.0076251244 0.00095314055 0.03621934 0.0 0.0 -0.0028594215 -0.0019062811 0.057188433 -0.010484546 -0.012390827 0.012390827 -0.00095314055 -0.0076251244 -0.020969093

mnas_v4_a_035_1/feature_network/cell_11/op_0/project_0/weights_quant/FakeQuantWithMinMaxVars u1 [32, 1, 1, 192] scale=0.010508157 zero_point=123
000000 80 90 63 81 9a 76 82 7a 72 6f a2 73 5c 45 6b 8b
       0.052540787 0.2206713 -0.25219578 0.063048944 0.32575288 -0.052540787 0.0735571 -0.010508157 -0.094573416 -0.12609789 0.40981814 -0.08406526 -0.32575288 -0.5674405 -0.16813052 0.16813052
000010 78 60 6a 7e 5e 7e a9 72 66 6b 72 5f 78 84 6e 6b
       -0.031524472 -0.28372025 -0.17863867 0.031524472 -0.30473655 0.031524472 0.48337525 -0.094573416 -0.2206713 -0.16813052 -0.094573416 -0.2942284 -0.031524472 0.094573416 -0.13660604 -0.16813052
000020 74 91 6b 72 82 75 67 6f 70 96 97 79 76 84 63 78
       -0.0735571 0.23117946 -0.16813052 -0.094573416 0.0735571 -0.063048944 -0.21016315 -0.12609789 -0.11558973 0.28372025 0.2942284 -0.021016315 -0.052540787 0.094573416 -0.25219578 -0.031524472
000030 6b 6a 92 6e 7c 7a 89 6a 89 69 7a 53 7b 6d 8e 8b
       -0.16813052 -0.17863867 0.24168763 -0.13660604 0.010508157 -0.010508157 0.1471142 -0.17863867 0.1471142 -0.18914683 -0.010508157 -0.4203263 0.0 -0.1471142 0.199655 0.16813052
000040 95 69 97 93 91 67 7c 7c 9d 70 8c 69 6c 7a 74 83
       0.27321208 -0.18914683 0.2942284 0.25219578 0.23117946 -0.21016315 0.010508157 0.010508157 0.35727733 -0.11558973 0.17863867 -0.18914683 -0.15762237 -0.010508157 -0.0735571 0.08406526
000050 7e 87 7f 86 71 7b 77 7e 75 7d 7a 94 7f 5e 6c 74
       0.031524472 0.12609789 0.04203263 0.11558973 -0.10508157 0.0 -0.04203263 0.031524472 -0.063048944 0.021016315 -0.010508157 0.26270393 0.04203263 -0.30473655 -0.15762237 -0.0735571
000060 91 81 78 88 6f 6a 81 74 68 9c 6f 8a 78 59 7e 76
       0.23117946 0.063048944 -0.031524472 0.13660604 -0.12609789 -0.17863867 0.063048944 -0.0735571 -0.199655 0.34676918 -0.12609789 0.15762237 -0.031524472 -0.35727733 0.031524472 -0.052540787
000070 7b 8f 77 7e a0 7f 7c 62 8d 61 87 6e 66 74 68 4c
       0.0 0.21016315 -0.04203263 0.031524472 0.3888018 0.04203263 0.010508157 -0.26270393 0.18914683 -0.27321208 0.12609789 -0.13660604 -0.2206713 -0.0735571 -0.199655 -0.4938834
000080 87 77 66 7a 72 7d 8f 89 77 99 84 6a 78 88 84 6e
       0.12609789 -0.04203263 -0.2206713 -0.010508157 -0.094573416 0.021016315 0.21016315 0.1471142 -0.04203263 0.31524473 0.094573416 -0.17863867 -0.031524472 0.13660604 0.094573416 -0.13660604
000090 84 6c 74 65 8e 60 75 73 79 68 78 96 7d 58 76 79
       0.094573416 -0.15762237 -0.0735571 -0.23117946 0.199655 -0.28372025 -0.063048944 -0.08406526 -0.021016315 -0.199655 -0.031524472 0.28372025 0.021016315 -0.3677855 -0.052540787 -0.021016315
0000a0 66 63 9a 80 62 7e 45 6f d3 86 8d 79 7a 98 87 69
       -0.2206713 -0.25219578 0.32575288 0.052540787 -0.26270393 0.031524472 -0.5674405 -0.12609789 0.92471784 0.11558973 0.18914683 -0.021016315 -0.010508157 0.30473655 0.12609789 -0.18914683
0000b0 8a 8c 84 68 55 78 64 6e 7e 79 78 87 7b 4e 77 6b
       0.15762237 0.17863867 0.094573416 -0.199655 -0.39931 -0.031524472 -0.24168763 -0.13660604 0.031524472 -0.021016315 -0.031524472 0.12609789 0.0 -0.47286707 -0.04203263 -0.16813052
0000c0 6f 83 5f 6a 7c 92 81 76 6f 6e 97 73 a5 8b 7a 7e
       -0.12609789 0.08406526 -0.2942284 -0.17863867 0.010508157 0.24168763 0.063048944 -0.052540787 -0.12609789 -0.13660604 0.2942284 -0.08406526 0.4413426 0.16813052 -0.010508157 0.031524472
0000d0 76 6a 84 81 6d 64 68 76 7a 6f 77 84 71 70 93 77
       -0.052540787 -0.17863867 0.094573416 0.063048944 -0.1471142 -0.24168763 -0.199655 -0.052540787 -0.010508157 -0.12609789 -0.04203263 0.094573416 -0.10508157 -0.11558973 0.25219578 -0.04203263
0000e0 67 8f 86 70 65 73 6d 8f 80 6a 75 70 47 70 8f 8c
       -0.21016315 0.21016315 0.11558973 -0.11558973 -0.23117946 -0.08406526 -0.1471142 0.21016315 0.052540787 -0.17863867 -0.063048944 -0.11558973 -0.54642415 -0.11558973 0.21016315 0.17863867
0000f0 7e 7e 61 71 6b 7d 7c 74 70 6e 91 73 95 64 76 81
       0.031524472 0.031524472 -0.27321208 -0.10508157 -0.16813052 0.021016315 0.010508157 -0.0735571 -0.11558973 -0.13660604 0.23117946 -0.08406526 0.27321208 -0.24168763 -0.052540787 0.063048944

mnas_v4_a_035_1/feature_network/cell_13/op_0/depthwise_0/weights_quant/FakeQuantWithMinMaxVars u1 [1, 5, 5, 384] scale=0.034207594 zero_point=142
000000 9a 93 8f 87 93 8b 84 8e 8d 92 91 8c 8a 8f 89 90
       0.4104911 0.17103797 0.034207594 -0.23945315 0.17103797 -0.10262278 -0.34207594 0.0 -0.034207594 0.13683037 0.10262278 -0.06841519 -0.13683037 0.034207594 -0.17103797 0.06841519
000010 8b 8c 8a 99 8f 8f 93 8d 8c 92 94 92 8c 8c 8f 8e
       -0.10262278 -0.06841519 -0.13683037 0.37628353 0.034207594 0.034207594 0.17103797 -0.034207594 -0.06841519 0.13683037 0.20524555 0.13683037 -0.06841519 -0.06841519 0.034207594 0.0
000020 87 98 8e 8d 94 90 86 8e 99 90 8b 90 8c 84 88 8c
       -0.23945315 0.34207594 0.0 -0.034207594 0.20524555 0.06841519 -0.27366075 0.0 0.37628353 0.06841519 -0.10262278 0.06841519 -0.06841519 -0.34207594 -0.20524555 -0.06841519
000030 94 84 90 a3 99 8e 8c 8d 8f 90 8d 8c 9d 91 8d 90
       0.20524555 -0.34207594 0.06841519 0.7183595 0.37628353 0.0 -0.06841519 -0.034207594 0.034207594 0.06841519 -0.034207594 -0.06841519 0.5131139 0.10262278 -0.034207594 0.06841519
000040 8a 87 91 98 84 b0 8f 8b 8d 87 8f 90 8f 84 8d 8d
       -0.13683037 -0.23945315 0.10262278 0.34207594 -0.34207594 1.1630582 0.034207594 -0.10262278 -0.034207594 -0.23945315 0.034207594 0.06841519 0.034207594 -0.34207594 -0.034207594 -0.034207594
000050 87 90 8b 90 86 8d 92 92 83 8d a0 8f 90 93 8e 8b
       -0.23945315 0.06841519 -0.10262278 0.06841519 -0.27366075 -0.034207594 0.13683037 0.13683037 -0.37628353 -0.034207594 0.61573666 0.034207594 0.06841519 0.17103797 0.0 -0.10262278
000060 8b 8e 8c 93 91 8a 8a 8d 8b 8d 94 93 8e 88 86 8d
       -0.10262278 0.0 -0.06841519 0.17103797 0.10262278 -0.13683037 -0.13683037 -0.034207594 -0.10262278 -0.034207594 0.20524555 0.17103797 0.0 -0.20524555 -0.27366075 -0.034207594
000070 89 8d 8e 8d 82 86 92 8e 8f 8d 91 91 8b 97 93 93
       -0.17103797 -0.034207594 0.0 -0.034207594 -0.4104911 -0.27366075 0.13683037 0.0 0.034207594 -0.034207594 0.10262278 0.10262278 -0.10262278 0.30786833 0.17103797 0.17103797
000080 84 87 8e 95 8d 8c 89 8f 86 85 8a 85 93 8c 90 97
       -0.34207594 -0.23945315 0.0 0.23945315 -0.034207594 -0.06841519 -0.17103797 0.034207594 -0.27366075 -0.30786833 -0.13683037 -0.30786833 0.17103797 -0.06841519 0.06841519 0.30786833
000090 83 8f 95 85 8e 8e 7e 8e 92 8c 86 91 8f 88 89 91
       -0.37628353 0.034207594 0.23945315 -0.30786833 0.0 0.0 -0.5473215 0.0 0.13683037 -0.06841519 -0.27366075 0.10262278 0.034207594 -0.20524555 -0.17103797 0.10262278
0000a0 8f 8c 97 8e 90 86 80 89 90 91 90 89 80 8f 8b 90
       0.034207594 -0.06841519 0.30786833 0.0 0.06841519 -0.27366075 -0.4789063 -0.17103797 0.06841519 0.10262278 0.06841519 -0.17103797 -0.4789063 0.034207594 -0.10262278 0.06841519
0000b0 8e 89 91 8c 86 8f a7 8d 89 8d a2 90 89 92 72 91
       0.0 -0.17103797 0.10262278 -0.06841519 -0.27366075 0.034207594 0.85518986 -0.034207594 -0.17103797 -0.034207594 0.6841519 0.06841519 -0.17103797 0.13683037 -0.9578126 0.10262278
0000c0 8f 82 8f 8e 8f 8f 90 90 8b 8e 8f 5a 8c 8f 8d 83
       0.034207594 -0.4104911 0.034207594 0.0 0.034207594 0.034207594 0.06841519 0.06841519 -0.10262278 0.0 0.034207594 -1.7787949 -0.06841519 0.034207594 -0.034207594 -0.37628353
0000d0 86 8d 89 88 96 8b 86 93 92 8f 89 89 8b 8e 92 8e
       -0.27366075 -0.034207594 -0.17103797 -0.20524555 0.27366075 -0.10262278 -0.27366075 0.17103797 0.13683037 0.034207594 -0.17103797 -0.17103797 -0.10262278 0.0 0.13683037 0.0
0000e0 90 9a 95 8a 96 89 82 88 98 a8 8c 90 9a 90 8e 92
       0.06841519 0.4104911 0.23945315 -0.13683037 0.27366075 -0.17103797 -0.4104911 -0.20524555 0.34207594 0.88939744 -0.06841519 0.06841519 0.4104911 0.06841519 0.0 0.13683037
0000f0 84 8c 8e 8c 8b 8f 91 92 8f 98 82 89 88 90 99 96
       -0.34207594 -0.06841519 0.0 -0.06841519 -0.10262278 0.034207594 0.10262278 0.13683037 0.034207594 0.34207594 -0.4104911 -0.17103797 -0.20524555 0.06841519 0.37628353 0.27366075

mnas_v4_a_035_1/feature_network/cell_13/op_0/expand_0/weights_quant/FakeQuantWithMinMaxVars u1 [384, 1, 1, 64] scale=0.001431284 zero_point=149
000000 ac 82 a1 85 9c a0 9a 99 88 b6 75 7a 94 7a 6f 9f
       0.032919534 -0.027194396 0.017175408 -0.022900544 0.010018988 0.015744124 0.00715642 0.005725136 -0.018606693 0.04723237 -0.04580109 -0.038644668 -0.001431284 -0.038644668 -0.05438879 0.01431284
000010 a9 88 78 ae 8f 7d 96 ab b7 6b 84 b3 98 5a 91 8f
       0.02862568 -0.018606693 -0.041507237 0.0357821 -0.008587704 -0.034350816 0.001431284 0.031488247 0.048663657 -0.06011393 -0.024331829 0.04293852 0.004293852 -0.08444576 -0.005725136 -0.008587704
000020 a4 af 8d 90 71 91 a7 a1 d6 81 9b 85 96 9f 60 ca
       0.02146926 0.037213385 -0.011450272 -0.00715642 -0.051526226 -0.005725136 0.025763113 0.017175408 0.09303346 -0.02862568 0.008587704 -0.022900544 0.001431284 0.01431284 -0.07585805 0.07585805
000030 d6 89 95 8d c9 ad 82 a0 97 9a 8e 91 a8 7f 97 ad
       0.09303346 -0.017175408 0.0 -0.011450272 0.07442677 0.034350816 -0.027194396 0.015744124 0.002862568 0.00715642 -0.010018988 -0.005725136 0.027194396 -0.031488247 0.002862568 0.034350816
000040 91 aa b8 82 8c 93 7f 8b 8e 78 59 ab cc 9f 91 8b
       -0.005725136 0.030056965 0.05009494 -0.027194396 -0.0128815565 -0.002862568 -0.031488247 -0.01431284 -0.010018988 -0.041507237 -0.08587704 0.031488247 0.07872062 0.01431284 -0.005725136 -0.01431284
000050 8d 9f 7e 9b 96 93 7f 8e 77 bb 9a 86 81 ac 8f 8e
       -0.011450272 0.01431284 -0.032919534 0.008587704 0.001431284 -0.002862568 -0.031488247 -0.010018988 -0.04293852 0.05438879 0.00715642 -0.02146926 -0.02862568 0.032919534 -0.008587704 -0.010018988
000060 8c 98 87 90 87 a4 8f 91 aa 8e 98 98 a5 90 96 96
       -0.0128815565 0.004293852 -0.020037975 -0.00715642 -0.020037975 0.02146926 -0.008587704 -0.005725136 0.030056965 -0.010018988 0.004293852 0.004293852 0.022900544 -0.00715642 0.001431284 0.001431284
000070 88 a3 84 b0 89 81 9a af 7b 7d 86 95 98 8a 73 a3
       -0.018606693 0.020037975 -0.024331829 0.038644668 -0.017175408 -0.02862568 0.00715642 0.037213385 -0.037213385 -0.034350816 -0.02146926 0.0 0.004293852 -0.015744124 -0.048663657 0.020037975
000080 7d 9a 7e a6 a8 bd b5 9c ad b6 a4 9a 83 c9 91 85
       -0.034350816 0.00715642 -0.032919534 0.024331829 0.027194396 0.05725136 0.04580109 0.010018988 0.034350816 0.04723237 0.02146926 0.00715642 -0.025763113 0.07442677 -0.005725136 -0.022900544
000090 b1 bb b7 8e 96 88 a1 88 9a a0 7b a2 b1 93 a2 9a
       0.04007595 0.05438879 0.048663657 -0.010018988 0.001431284 -0.018606693 0.017175408 -0.018606693 0.00715642 0.015744124 -0.037213385 0.018606693 0.04007595 -0.002862568 0.018606693 0.00715642
0000a0 86 92 85 98 c9 89 a1 bd 92 a4 8a 9f a1 a3 a9 95
       -0.02146926 -0.004293852 -0.022900544 0.004293852 0.07442677 -0.017175408 0.017175408 0.05725136 -0.004293852 0.02146926 -0.015744124 0.01431284 0.017175408 0.020037975 0.02862568 0.0
0000b0 b9 b7 a8 aa b0 82 ac 94 94 7f b3 77 92 a5 e7 7d
       0.051526226 0.048663657 0.027194396 0.030056965 0.038644668 -0.027194396 0.032919534 -0.001431284 -0.001431284 -0.031488247 0.04293852 -0.04293852 -0.004293852 0.022900544 0.117365286 -0.034350816
0000c0 9e c7 97 aa 86 a4 7a a4 70 be 6a a4 aa c4 a4 9f
       0.0128815565 0.0715642 0.002862568 0.030056965 -0.02146926 0.02146926 -0.038644668 0.02146926 -0.05295751 0.058682643 -0.06154521 0.02146926 0.030056965 0.067270346 0.02146926 0.01431284
0000d0 89 8b 71 a2 bc af 80 b0 c8 be 6a 95 71 74 c4 9a
       -0.017175408 -0.01431284 -0.051526226 0.018606693 0.055820078 0.037213385 -0.030056965 0.038644668 0.072995484 0.058682643 -0.06154521 0.0 -0.051526226 -0.04723237 0.067270346 0.00715642
0000e0 90 b8 78 b0 76 a8 a9 ae bf 66 b6 c2 b2 a1 70 97
       -0.00715642 0.05009494 -0.041507237 0.038644668 -0.044369806 0.027194396 0.02862568 0.0357821 0.06011393 -0.067270346 0.04723237 0.06440778 0.041507237 0.017175408 -0.05295751 0.002862568
0000f0 6b ab 8b 9e 9f 83 aa 82 b4 b6 9c 8a 96 ba 9a b5
       -0.06011393 0.031488247 -0.01431284 0.0128815565 0.01431284 -0.025763113 0.030056965 -0.027194396 0.044369806 0.04723237 0.010018988 -0.015744124 0.001431284 0.05295751 0.00715642 0.04580109

mnas_v4_a_035_1/feature_network/cell_13/op_0/project_0/weights_quant/FakeQuantWithMinMaxVars u1 [64, 1, 1, 384] scale=0.0054926327 zero_point=132
000000 54 8d aa 93 a1 a0 92 2c 9e 76 f4 5f bc b0 7d 60
       -0.26364636 0.049433693 0.20872004 0.08238949 0.15928635 0.15379372 0.07689686 -0.48335168 0.14280845 -0.07689686 0.6151749 -0.20322742 0.30758744 0.24167584 -0.03844843 -0.19773477
000010 63 6d 9b 5f 57 68 8a 92 a3 a9 8e 97 57 6f 90 72
       -0.18125688 -0.12633055 0.12633055 -0.20322742 -0.24716847 -0.15379372 0.032955796 0.07689686 0.17027162 0.20322742 0.05492633 0.10436002 -0.24716847 -0.115345284 0.06591159 -0.09886739
000020 98 83 7e 75 a7 b8 88 93 9d 40 73 40 48 9f 70 66
       0.10985266 -0.0054926327 -0.032955796 -0.08238949 0.19224215 0.2856169 0.021970531 0.08238949 0.13731582 -0.37349904 -0.09337476 -0.37349904 -0.32955796 0.14830108 -0.10985266 -0.16477898
000030 81 89 79 83 95 ab a1 60 8a 1b a1 75 6c 71 65 86
       -0.016477898 0.027463164 -0.06041896 -0.0054926327 0.09337476 0.21421267 0.15928635 -0.19773477 0.032955796 -0.57672644 0.15928635 -0.08238949 -0.13182318 -0.10436002 -0.17027162 0.0109852655
000040 6b 71 80 94 80 82 9d c4 56 96 69 7c 84 87 7d 7c
       -0.13731582 -0.10436002 -0.021970531 0.087882124 -0.021970531 -0.0109852655 0.13731582 0.3515285 -0.2526611 0.09886739 -0.14830108 -0.043941062 0.0 0.016477898 -0.03844843 -0.043941062
000050 8b 73 75 56 8f 3e 6b 71 54 91 88 3c 9e 2e 9f 91
       0.03844843 -0.09337476 -0.08238949 -0.2526611 0.06041896 -0.3844843 -0.13731582 -0.10436002 -0.26364636 0.071404226 0.021970531 -0.39546955 0.14280845 -0.47236642 0.14830108 0.071404226
000060 7c be 61 90 77 a8 48 73 a7 70 ab 69 99 75 67 7c
       -0.043941062 0.3185727 -0.19224215 0.06591159 -0.071404226 0.19773477 -0.32955796 -0.09337476 0.19224215 -0.10985266 0.21421267 -0.14830108 0.115345284 -0.08238949 -0.15928635 -0.043941062
000070 76 8a 9d 6c 88 92 97 8e 58 48 8a 29 69 82 89 ab
       -0.07689686 0.032955796 0.13731582 -0.13182318 0.021970531 0.07689686 0.10436002 0.05492633 -0.24167584 -0.32955796 0.032955796 -0.4998296 -0.14830108 -0.0109852655 0.027463164 0.21421267
000080 7d a7 2c 7a 1f 9d 88 85 6a 97 62 8d 90 8b b3 78
       -0.03844843 0.19224215 -0.48335168 -0.05492633 -0.5547559 0.13731582 0.021970531 0.0054926327 -0.14280845 0.10436002 -0.18674952 0.049433693 0.06591159 0.03844843 0.25815374 -0.06591159
000090 b3 8e 7e 99 bd 9b a4 6c 96 67 75 9b a8 7a 51 8f
       0.25815374 0.05492633 -0.032955796 0.115345284 0.31308007 0.12633055 0.17576425 -0.13182318 0.09886739 -0.15928635 -0.08238949 0.12633055 0.19773477 -0.05492633 -0.28012428 0.06041896
0000a0 ad b3 91 89 74 5a 79 8d 71 2b 40 d2 58 72 9d b6
       0.22519794 0.25815374 0.071404226 0.027463164 -0.087882124 -0.23069057 -0.06041896 0.049433693 -0.10436002 -0.4888443 -0.37349904 0.42842534 -0.24167584 -0.09886739 0.13731582 0.27463165
0000b0 93 aa af 67 81 8a aa 51 9b 6d a3 64 9d 83 66 59
       0.08238949 0.20872004 0.23618321 -0.15928635 -0.016477898 0.032955796 0.20872004 -0.28012428 0.12633055 -0.12633055 0.17027162 -0.17576425 0.13731582 -0.0054926327 -0.16477898 -0.23618321
0000c0 8d 9c 4c 82 4f 7e 84 9d 69 72 29 8f 7b 9a 7a 68
       0.049433693 0.13182318 -0.30758744 -0.0109852655 -0.29110953 -0.032955796 0.0 0.13731582 -0.14830108 -0.09886739 -0.4998296 0.06041896 -0.049433693 0.12083792 -0.05492633 -0.15379372
0000d0 74 77 5e 6e 97 85 63 ab 96 a6 bc 66 7b 9b 78 97
       -0.087882124 -0.071404226 -0.20872004 -0.12083792 0.10436002 0.0054926327 -0.18125688 0.21421267 0.09886739 0.18674952 0.30758744 -0.16477898 -0.049433693 0.12633055 -0.06591159 0.10436002
0000e0 24 6f 80 c1 92 63 8f 88 9c 88 7b a5 84 4c 96 5c
       -0.5272927 -0.115345284 -0.021970531 0.33505058 0.07689686 -0.18125688 0.06041896 0.021970531 0.13182318 0.021970531 -0.049433693 0.18125688 0.0 -0.30758744 0.09886739 -0.21970531
0000f0 8b 9f 46 7d 7f 6c 71 87 80 99 72 88 8a 92 95 56
       0.03844843 0.14830108 -0.34054324 -0.03844843 -0.027463164 -0.13182318 -0.10436002 0.016477898 -0.021970531 0.115345284 -0.09886739 0.021970531 0.032955796 0.07689686 0.09337476 -0.2526611

mnas_v4_a_035_1/feature_network/cell_14/op_0/depthwise_0/weights_quant/FakeQuantWithMinMaxVars u1 [1, 5, 5, 384] scale=0.08372161 zero_point=136
000000 a6 89 88 8e 87 93 8f 8d 8b 8d 86 88 87 8a 89 88
       2.5116482 0.08372161 0.0 0.50232965 -0.08372161 0.92093766 0.5860512 0.41860804 0.25116482 0.41860804 -0.16744322 0.0 -0.08372161 0.16744322 0.08372161 0.0
000010 87 84 89 88 84 85 89 8b 8b 7a 7e 8e 88 86 88 87
       -0.08372161 -0.33488643 0.08372161 0.0 -0.33488643 -0.25116482 0.08372161 0.25116482 0.25116482 -1.1721025 -0.8372161 0.50232965 0.0 -0.16744322 0.0 -0.08372161
000020 89 8b 89 8d 87 8d 8b 84 8b 8a 84 88 88 85 91 86
       0.08372161 0.25116482 0.08372161 0.41860804 -0.08372161 0.41860804 0.25116482 -0.33488643 0.25116482 0.16744322 -0.33488643 0.0 0.0 -0.25116482 0.7534945 -0.16744322
000030 89 7b 84 88 87 81 8b 88 82 89 83 87 85 8b 8f 88
       0.08372161 -1.0883809 -0.33488643 0.0 -0.08372161 -0.5860512 0.25116482 0.0 -0.50232965 0.08372161 -0.41860804 -0.08372161 -0.25116482 0.25116482 0.5860512 0.0
000040 88 86 8b 88 86 92 8b 89 85 91 8a 84 8f 8b 8b 8e
       0.0 -0.16744322 0.25116482 0.0 -0.16744322 0.8372161 0.25116482 0.08372161 -0.25116482 0.7534945 0.16744322 -0.33488643 0.5860512 0.25116482 0.25116482 0.50232965
000050 87 88 8b 8a 8a 8b 87 88 89 88 8b 90 8b 8e 87 88
       -0.08372161 0.0 0.25116482 0.16744322 0.16744322 0.25116482 -0.08372161 0.0 0.08372161 0.0 0.25116482 0.66977286 0.25116482 0.50232965 -0.08372161 0.0
000060 89 8a 8d 88 84 7a 91 8a 8b 8a 86 88 89 85 8a 87
       0.08372161 0.16744322 0.41860804 0.0 -0.33488643 -1.1721025 0.7534945 0.16744322 0.25116482 0.16744322 -0.16744322 0.0 0.08372161 -0.25116482 0.16744322 -0.08372161
000070 86 8b 8b 89 8a 8d 8d 8a 89 8a 8e 7c 83 98 8b 8a
       -0.16744322 0.25116482 0.25116482 0.08372161 0.16744322 0.41860804 0.41860804 0.16744322 0.08372161 0.16744322 0.50232965 -1.0046593 -0.41860804 1.3395457 0.25116482 0.16744322
000080 87 8a 85 88 9f 89 89 94 87 8a 89 7d 88 87 8b 89
       -0.08372161 0.16744322 -0.25116482 0.0 1.925597 0.08372161 0.08372161 1.0046593 -0.08372161 0.16744322 0.08372161 -0.92093766 0.0 -0.08372161 0.25116482 0.08372161
000090 8b 87 87 8b 88 8a 8d 8c 85 8a 84 85 88 8e 89 85
       0.25116482 -0.08372161 -0.08372161 0.25116482 0.0 0.16744322 0.41860804 0.33488643 -0.25116482 0.16744322 -0.33488643 -0.25116482 0.0 0.50232965 0.08372161 -0.25116482
0000a0 88 8b 8c 7c 88 86 8c 8e 85 89 88 86 93 8b 89 84
       0.0 0.25116482 0.33488643 -1.0046593 0.0 -0.16744322 0.33488643 0.50232965 -0.25116482 0.08372161 0.0 -0.16744322 0.92093766 0.25116482 0.08372161 -0.33488643
0000b0 8d 8d 8d 87 91 89 89 8d 84 94 8a 84 8a 89 90 8b
       0.41860804 0.41860804 0.41860804 -0.08372161 0.7534945 0.08372161 0.08372161 0.41860804 -0.33488643 1.0046593 0.16744322 -0.33488643 0.16744322 0.08372161 0.66977286 0.25116482
0000c0 8a 86 8e 89 87 8f 8a 8a 85 88 8b 88 86 88 88 87
       0.16744322 -0.16744322 0.50232965 0.08372161 -0.08372161 0.5860512 0.16744322 0.16744322 -0.25116482 0.0 0.25116482 0.0 -0.16744322 0.0 0.0 -0.08372161
0000d0 89 82 89 8a 89 8c 89 8e 8d 86 8f 88 8d 89 69 8a
       0.08372161 -0.50232965 0.08372161 0.16744322 0.08372161 0.33488643 0.08372161 0.50232965 0.41860804 -0.16744322 0.5860512 0.0 0.41860804 0.08372161 -2.5953698 0.16744322
0000e0 8c 82 87 88 8a 89 7c 88 8a 89 87 8a 7d 89 93 87
       0.33488643 -0.50232965 -0.08372161 0.0 0.16744322 0.08372161 -1.0046593 0.0 0.16744322 0.08372161 -0.08372161 0.16744322 -0.92093766 0.08372161 0.92093766 -0.08372161
0000f0 8a 84 7f 88 8c 8a 89 8b 8a 86 88 8e 87 83 8a 8e
       0.16744322 -0.33488643 -0.7534945 0.0 0.33488643 0.16744322 0.08372161 0.25116482 0.16744322 -0.16744322 0.0 0.50232965 -0.08372161 -0.41860804 0.16744322 0.50232965

mnas_v4_a_035_1/feature_network/cell_14/op_0/expand_0/weights_quant/FakeQuantWithMinMaxVars u1 [384, 1, 1, 64] scale=0.0018047733 zero_point=148
000000 99 85 8e 9c 9a 90 91 93 89 96 8a 7a 8a a1 92 96
       0.009023867 -0.0270716 -0.01082864 0.014438187 0.01082864 -0.0072190934 -0.00541432 -0.0018047733 -0.019852506 0.0036095467 -0.018047733 -0.046924107 -0.018047733 0.023462053 -0.0036095467 0.0036095467
000010 8f 94 82 b1 8c 92 98 a4 8c a3 8b 9b 99 7c 92 8e
       -0.009023867 0.0 -0.03248592 0.05233843 -0.014438187 -0.0036095467 0.0072190934 0.028876374 -0.014438187 0.0270716 -0.01624296 0.012633413 0.009023867 -0.04331456 -0.0036095467 -0.01082864
000020 a5 99 94 85 8b 85 a9 90 8e 8f 8f 8e 97 9b 95 9b
       0.030681146 0.009023867 0.0 -0.0270716 -0.01624296 -0.0270716 0.03790024 -0.0072190934 -0.01082864 -0.009023867 -0.009023867 -0.01082864 0.00541432 0.012633413 0.0018047733 0.012633413
000030 ab 8d 82 9e 9a 91 90 8e 89 9d 92 99 8a 96 9f 98
       0.04150979 -0.012633413 -0.03248592 0.018047733 0.01082864 -0.00541432 -0.0072190934 -0.01082864 -0.019852506 0.01624296 -0.0036095467 0.009023867 -0.018047733 0.0036095467 0.019852506 0.0072190934
000040 86 90 8d a7 8e aa 92 89 9e 91 8d 8f 90 94 95 92
       -0.025266826 -0.0072190934 -0.012633413 0.034290694 -0.01082864 0.039705012 -0.0036095467 -0.019852506 0.018047733 -0.00541432 -0.012633413 -0.009023867 -0.0072190934 0.0 0.0018047733 -0.0036095467
000050 96 8f 97 b0 8e 89 93 96 9c b4 95 9c 93 a3 8f 8a
       0.0036095467 -0.009023867 0.00541432 0.050533652 -0.01082864 -0.019852506 -0.0018047733 0.0036095467 0.014438187 0.057752747 0.0018047733 0.014438187 -0.0018047733 0.0270716 -0.009023867 -0.018047733
000060 89 9b a3 ad 88 8d 91 93 8b 96 8c 9b 90 97 a6 9f
       -0.019852506 0.012633413 0.0270716 0.045119334 -0.02165728 -0.012633413 -0.00541432 -0.0018047733 -0.01624296 0.0036095467 -0.014438187 0.012633413 -0.0072190934 0.00541432 0.03248592 0.019852506
000070 91 88 89 92 ab 9b 91 8a 83 9e a1 a2 a1 94 81 96
       -0.00541432 -0.02165728 -0.019852506 -0.0036095467 0.04150979 0.012633413 -0.00541432 -0.018047733 -0.030681146 0.018047733 0.023462053 0.025266826 0.023462053 0.0 -0.034290694 0.0036095467
000080 94 95 86 93 94 8a 8d ad a6 91 9e 8d ad 8b 8c 93
       0.0 0.0018047733 -0.025266826 -0.0018047733 0.0 -0.018047733 -0.012633413 0.045119334 0.03248592 -0.00541432 0.018047733 -0.012633413 0.045119334 -0.01624296 -0.014438187 -0.0018047733
000090 8f a0 8d 93 ad 96 a1 90 8f ab 8b 75 92 94 a0 87
       -0.009023867 0.02165728 -0.012633413 -0.0018047733 0.045119334 0.0036095467 0.023462053 -0.0072190934 -0.009023867 0.04150979 -0.01624296 -0.055947974 -0.0036095467 0.0 0.02165728 -0.023462053
0000a0 8c 92 94 92 83 91 99 99 97 98 85 a3 85 95 9e 6b
       -0.014438187 -0.0036095467 0.0 -0.0036095467 -0.030681146 -0.00541432 0.009023867 0.009023867 0.00541432 0.0072190934 -0.0270716 0.0270716 -0.0270716 0.0018047733 0.018047733 -0.07399571
0000b0 83 95 90 64 85 8e 7b 99 91 83 a8 a1 9f 83 b1 81
       -0.030681146 0.0018047733 -0.0072190934 -0.08662912 -0.0270716 -0.01082864 -0.045119334 0.009023867 -0.00541432 -0.030681146 0.036095466 0.023462053 0.019852506 -0.030681146 0.05233843 -0.034290694
0000c0 94 99 a0 9b 95 95 92 8e 91 9e 95 9c 92 9b 84 a4
       0.0 0.009023867 0.02165728 0.012633413 0.0018047733 0.0018047733 -0.0036095467 -0.01082864 -0.00541432 0.018047733 0.0018047733 0.014438187 -0.0036095467 0.012633413 -0.028876374 0.028876374
0000d0 84 a2 94 98 8f 81 8b a7 86 94 99 9b 90 8e 9a 97
       -0.028876374 0.025266826 0.0 0.0072190934 -0.009023867 -0.034290694 -0.01624296 0.034290694 -0.025266826 0.0 0.009023867 0.012633413 -0.0072190934 -0.01082864 0.01082864 0.00541432
0000e0 95 92 9f 88 9c 93 8f 8d 95 84 8d 8e 95 99 86 9f
       0.0018047733 -0.0036095467 0.019852506 -0.02165728 0.014438187 -0.0018047733 -0.009023867 -0.012633413 0.0018047733 -0.028876374 -0.012633413 -0.01082864 0.0018047733 0.009023867 -0.025266826 0.019852506
0000f0 8f 90 87 9f a2 98 99 90 a0 a3 a6 95 b8 97 76 9c
       -0.009023867 -0.0072190934 -0.023462053 0.019852506 0.025266826 0.0072190934 0.009023867 -0.0072190934 0.02165728 0.0270716 0.03248592 0.0018047733 0.06497184 0.00541432 -0.0541432 0.014438187

mnas_v4_a_035_1/feature_network/cell_14/op_0/project_0/weights_quant/FakeQuantWithMinMaxVars u1 [64, 1, 1, 384] scale=0.00951686 zero_point=128
000000 84 87 66 ac 95 85 65 79 7a 71 7b 8d 9e 8c 96 70
       0.03806744 0.066618025 -0.24743837 0.41874185 0.19985406 0.047584303 -0.25695524 -0.066618025 -0.05710116 -0.1427529 -0.047584303 0.123719186 0.2855058 0.11420232 0.20937093 -0.15226977
000010 82 63 65 6c 89 8a 7d 7d 84 8d 8c 75 92 8f 66 88
       0.01903372 -0.27598894 -0.25695524 -0.19033721 0.08565174 0.095168605 -0.02855058 -0.02855058 0.03806744 0.123719186 0.11420232 -0.10468546 0.17130348 0.1427529 -0.24743837 0.07613488
000020 78 9d 77 67 90 71 6d 84 5d 83 94 61 71 79 73 7e
       -0.07613488 0.27598894 -0.08565174 -0.2379215 0.15226977 -0.1427529 -0.18082035 0.03806744 -0.33309013 0.02855058 0.19033721 -0.29502267 -0.1427529 -0.066618025 -0.123719186 -0.01903372
000030 79 81 80 84 3b 8c 78 7f 55 8c 5a 5e 94 97 60 4e
       -0.066618025 0.00951686 0.0 0.03806744 -0.65666336 0.11420232 -0.07613488 -0.00951686 -0.409225 0.11420232 -0.3616407 -0.32357326 0.19033721 0.21888779 -0.30453953 -0.475843
000040 5e 94 8b 88 9f 8e 71 8f 88 a1 6a 7b 8f 78 89 81
       -0.32357326 0.19033721 0.10468546 0.07613488 0.29502267 0.13323605 -0.1427529 0.1427529 0.07613488 0.3140564 -0.20937093 -0.047584303 0.1427529 -0.07613488 0.08565174 0.00951686
000050 9d 91 86 85 80 99 79 70 6e 92 60 83 8c 75 90 89
       0.27598894 0.16178663 0.05710116 0.047584303 0.0 0.2379215 -0.066618025 -0.15226977 -0.17130348 0.17130348 -0.30453953 0.02855058 0.11420232 -0.10468546 0.15226977 0.08565174
000060 73 a2 75 7c 97 8c 81 8e 79 84 7d 75 77 6b 66 a1
       -0.123719186 0.32357326 -0.10468546 -0.03806744 0.21888779 0.11420232 0.00951686 0.13323605 -0.066618025 0.03806744 -0.02855058 -0.10468546 -0.08565174 -0.19985406 -0.24743837 0.3140564
000070 81 7f 7d 8d 77 94 87 81 7b 8c 75 75 7c 74 70 65
       0.00951686 -0.00951686 -0.02855058 0.123719186 -0.08565174 0.19033721 0.066618025 0.00951686 -0.047584303 0.11420232 -0.10468546 -0.10468546 -0.03806744 -0.11420232 -0.15226977 -0.25695524
000080 89 89 91 75 92 7b 6c 8d 88 99 84 a6 94 68 82 87
       0.08565174 0.08565174 0.16178663 -0.10468546 0.17130348 -0.047584303 -0.19033721 0.123719186 0.07613488 0.2379215 0.03806744 0.3616407 0.19033721 -0.22840464 0.01903372 0.066618025
000090 61 76 78 82 83 85 83 41 89 86 75 8e 78 63 8e 60
       -0.29502267 -0.095168605 -0.07613488 0.01903372 0.02855058 0.047584303 0.02855058 -0.5995622 0.08565174 0.05710116 -0.10468546 0.13323605 -0.07613488 -0.27598894 0.13323605 -0.30453953
0000a0 84 72 a5 96 93 8c 74 71 8c 67 7e 72 82 79 5e 6f
       0.03806744 -0.13323605 0.35212383 0.20937093 0.18082035 0.11420232 -0.11420232 -0.1427529 0.11420232 -0.2379215 -0.01903372 -0.13323605 0.01903372 -0.066618025 -0.32357326 -0.16178663
0000b0 66 52 91 74 81 87 7f 87 78 8f 78 7a 82 5b 7d 8c
       -0.24743837 -0.43777558 0.16178663 -0.11420232 0.00951686 0.066618025 -0.00951686 0.066618025 -0.07613488 0.1427529 -0.07613488 -0.05710116 0.01903372 -0.35212383 -0.02855058 0.11420232
0000c0 7a 8e 9a 76 66 77 6e 71 8f 94 71 8a 65 86 e3 7b
       -0.05710116 0.13323605 0.24743837 -0.095168605 -0.24743837 -0.08565174 -0.17130348 -0.1427529 0.1427529 0.19033721 -0.1427529 0.095168605 -0.25695524 0.05710116 0.9421692 -0.047584303
0000d0 7c 7a 93 92 74 73 86 a0 76 92 7c 89 72 90 7c 82
       -0.03806744 -0.05710116 0.18082035 0.17130348 -0.11420232 -0.123719186 0.05710116 0.30453953 -0.095168605 0.17130348 -0.03806744 0.08565174 -0.13323605 0.15226977 -0.03806744 0.01903372
0000e0 5b 90 99 9b 8d 91 76 8e 6f 77 7e 92 70 88 94 79
       -0.35212383 0.15226977 0.2379215 0.25695524 0.123719186 0.16178663 -0.095168605 0.13323605 -0.16178663 -0.08565174 -0.01903372 0.17130348 -0.15226977 0.07613488 0.19033721 -0.066618025
0000f0 71 9c 86 7d 7b 73 ae 7a 8a 74 71 62 7d 89 78 77
       -0.1427529 0.2664721 0.05710116 -0.02855058 -0.047584303 -0.123719186 0.43777558 -0.05710116 0.095168605 -0.11420232 -0.1427529 -0.2855058 -0.02855058 0.08565174 -0.07613488 -0.08565174

mnas_v4_a_035_1/feature_network/cell_15/op_0/depthwise_0/weights_quant/FakeQuantWithMinMaxVars u1 [1, 5, 5, 384] scale=0.043344043 zero_point=132
000000 88 81 86 87 7f 79 86 87 81 84 8d 82 93 85 83 7e
       0.17337617 -0.13003212 0.08668809 0.13003212 -0.21672022 -0.47678447 0.08668809 0.13003212 -0.13003212 0.0 0.3900964 -0.08668809 0.6501607 0.043344043 -0.043344043 -0.26006424
000010 85 81 8e 83 86 8c 87 8e 87 80 71 78 86 8c 85 93
       0.043344043 -0.13003212 0.43344045 -0.043344043 0.08668809 0.34675235 0.13003212 0.43344045 0.13003212 -0.17337617 -0.8235368 -0.5201285 0.08668809 0.34675235 0.043344043 0.6501607
000020 88 87 76 88 83 88 89 81 8b 86 8b 90 7c 86 83 8c
       0.17337617 0.13003212 -0.6068166 0.17337617 -0.043344043 0.17337617 0.21672022 -0.13003212 0.3034083 0.08668809 0.3034083 0.5201285 -0.34675235 0.08668809 -0.043344043 0.34675235
000030 81 84 81 86 7c 7a 7d 88 8c 79 85 88 85 8b 98 7b
       -0.13003212 0.0 -0.13003212 0.08668809 -0.34675235 -0.43344045 -0.3034083 0.17337617 0.34675235 -0.47678447 0.043344043 0.17337617 0.043344043 0.3034083 0.8668809 -0.3900964
000040 87 87 88 8c 85 88 88 7b 87 81 7d 84 8a 81 8f 79
       0.13003212 0.13003212 0.17337617 0.34675235 0.043344043 0.17337617 0.17337617 -0.3900964 0.13003212 -0.13003212 -0.3034083 0.0 0.26006424 -0.13003212 0.47678447 -0.47678447
000050 86 83 87 7c 87 97 85 83 7a 7d 86 84 85 8b 7f 89
       0.08668809 -0.043344043 0.13003212 -0.34675235 0.13003212 0.8235368 0.043344043 -0.043344043 -0.43344045 -0.3034083 0.08668809 0.0 0.043344043 0.3034083 -0.21672022 0.21672022
000060 86 89 81 7f 78 87 7d 8e 86 8a 89 88 93 84 8d 81
       0.08668809 0.21672022 -0.13003212 -0.21672022 -0.5201285 0.13003212 -0.3034083 0.43344045 0.08668809 0.26006424 0.21672022 0.17337617 0.6501607 0.0 0.3900964 -0.13003212
000070 89 83 81 81 89 8d 84 82 84 86 7a 8f 8a 7f 88 87
       0.21672022 -0.043344043 -0.13003212 -0.13003212 0.21672022 0.3900964 0.0 -0.08668809 0.0 0.08668809 -0.43344045 0.47678447 0.26006424 -0.21672022 0.17337617 0.13003212
000080 84 86 88 8c 87 8f 87 97 80 7f 85 7c 83 8d 89 86
       0.0 0.08668809 0.17337617 0.34675235 0.13003212 0.47678447 0.13003212 0.8235368 -0.17337617 -0.21672022 0.043344043 -0.34675235 -0.043344043 0.3900964 0.21672022 0.08668809
000090 87 85 7f 86 74 85 79 88 86 8d 86 85 88 81 98 8c
       0.13003212 0.043344043 -0.21672022 0.08668809 -0.6935047 0.043344043 -0.47678447 0.17337617 0.08668809 0.3900964 0.08668809 0.043344043 0.17337617 -0.13003212 0.8668809 0.34675235
0000a0 96 93 84 83 63 7f 83 83 89 77 89 8b 83 8b 8e 83
       0.7801928 0.6501607 0.0 -0.043344043 -1.4303534 -0.21672022 -0.043344043 -0.043344043 0.21672022 -0.56347257 0.21672022 0.3034083 -0.043344043 0.3034083 0.43344045 -0.043344043
0000b0 81 86 88 84 8e 83 7b 86 7d 8b 78 82 84 83 8b 87
       -0.13003212 0.08668809 0.17337617 0.0 0.43344045 -0.043344043 -0.3900964 0.08668809 -0.3034083 0.3034083 -0.5201285 -0.08668809 0.0 -0.043344043 0.3034083 0.13003212
0000c0 83 88 8a 7b 85 87 7b 87 80 8e 83 87 8c 7f 82 82
       -0.043344043 0.17337617 0.26006424 -0.3900964 0.043344043 0.13003212 -0.3900964 0.13003212 -0.17337617 0.43344045 -0.043344043 0.13003212 0.34675235 -0.21672022 -0.08668809 -0.08668809
0000d0 86 87 67 85 82 7b 79 7f 85 8a 86 7e 7f 81 88 81
       0.08668809 0.13003212 -1.2569772 0.043344043 -0.08668809 -0.3900964 -0.47678447 -0.21672022 0.043344043 0.26006424 0.08668809 -0.26006424 -0.21672022 -0.13003212 0.17337617 -0.13003212
0000e0 80 86 84 84 89 7d 81 81 90 87 87 81 89 88 85 86
       -0.17337617 0.08668809 0.0 0.0 0.21672022 -0.3034083 -0.13003212 -0.13003212 0.5201285 0.13003212 0.13003212 -0.13003212 0.21672022 0.17337617 0.043344043 0.08668809
0000f0 8f 7e 83 85 84 80 8a 89 81 7d 82 92 88 8c 83 81
       0.47678447 -0.26006424 -0.043344043 0.043344043 0.0 -0.17337617 0.26006424 0.21672022 -0.13003212 -0.3034083 -0.08668809 0.6068166 0.17337617 0.34675235 -0.043344043 -0.13003212

mnas_v4_a_035_1/feature_network/cell_15/op_0/expand_0/weights_quant/FakeQuantWithMinMaxVars u1 [384, 1, 1, 64] scale=0.0010762116 zero_point=117
000000 7a 81 74 6b 78 74 7f 7a 6c 6f 7e 6c 66 70 74 69
       0.005381058 0.012914538 -0.0010762116 -0.010762116 0.0032286346 -0.0010762116 0.010762116 0.005381058 -0.009685904 -0.006457269 0.009685904 -0.009685904 -0.016143173 -0.005381058 -0.0010762116 -0.012914538
000010 6f 87 88 8d 85 64 6e 88 7e 6b 76 84 7f 76 74 6d
       -0.006457269 0.019371808 0.02044802 0.025829077 0.017219385 -0.018295597 -0.007533481 0.02044802 0.009685904 -0.010762116 0.0010762116 0.016143173 0.010762116 0.0010762116 -0.0010762116 -0.008609693
000020 78 66 87 71 74 77 77 7a 8a 74 89 6f 6a 86 6d 81
       0.0032286346 -0.016143173 0.019371808 -0.0043048463 -0.0010762116 0.0021524231 0.0021524231 0.005381058 0.022600442 -0.0010762116 0.021524232 -0.006457269 -0.011838327 0.018295597 -0.008609693 0.012914538
000030 7e 6e 72 83 8a 7e 71 71 7c 67 6d 73 58 77 8e 7a
       0.009685904 -0.007533481 -0.0032286346 0.015066962 0.022600442 0.009685904 -0.0043048463 -0.0043048463 0.007533481 -0.015066962 -0.008609693 -0.0021524231 -0.031210136 0.0021524231 0.026905289 0.005381058
000040 6c 7d 69 80 5c 85 74 7d 75 92 7e 7a 72 78 7f 66
       -0.009685904 0.008609693 -0.012914538 0.011838327 -0.026905289 0.017219385 -0.0010762116 0.008609693 0.0 0.031210136 0.009685904 0.005381058 -0.0032286346 0.0032286346 0.010762116 -0.016143173
000050 90 78 76 76 7c 6a 64 81 62 84 82 81 80 76 67 63
       0.029057713 0.0032286346 0.0010762116 0.0010762116 0.007533481 -0.011838327 -0.018295597 0.012914538 -0.02044802 0.016143173 0.013990751 0.012914538 0.011838327 0.0010762116 -0.015066962 -0.019371808
000060 82 7a 71 5b 83 80 6a 7e 76 7d 7c 7f 6a 83 82 5f
       0.013990751 0.005381058 -0.0043048463 -0.027981501 0.015066962 0.011838327 -0.011838327 0.009685904 0.0010762116 0.008609693 0.007533481 0.010762116 -0.011838327 0.015066962 0.013990751 -0.023676654
000070 82 56 5f 76 72 80 66 70 5b 7e 5e 91 80 79 92 82
       0.013990751 -0.03336256 -0.023676654 0.0010762116 -0.0032286346 0.011838327 -0.016143173 -0.005381058 -0.027981501 0.009685904 -0.024752866 0.030133924 0.011838327 0.0043048463 0.031210136 0.013990751
000080 57 6e 88 85 6e 57 88 85 93 8f 62 89 60 83 70 86
       -0.032286346 -0.007533481 0.02044802 0.017219385 -0.007533481 -0.032286346 0.02044802 0.017219385 0.032286346 0.027981501 -0.02044802 0.021524232 -0.022600442 0.015066962 -0.005381058 0.018295597
000090 66 69 66 9a 54 89 87 5b 6b 72 8b 91 68 96 8f 71
       -0.016143173 -0.012914538 -0.016143173 0.03981983 -0.03551498 0.021524232 0.019371808 -0.027981501 -0.010762116 -0.0032286346 0.023676654 0.030133924 -0.013990751 0.03551498 0.027981501 -0.0043048463
0000a0 85 82 8a 72 9e 6f 76 5c 82 72 88 74 7b 98 55 9f
       0.017219385 0.013990751 0.022600442 -0.0032286346 0.044124674 -0.006457269 0.0010762116 -0.026905289 0.013990751 -0.0032286346 0.02044802 -0.0010762116 0.006457269 0.037667405 -0.03443877 0.045200884
0000b0 65 61 6e 74 98 8e 91 6f 9f 6a 86 83 83 82 81 95
       -0.017219385 -0.021524232 -0.007533481 -0.0010762116 0.037667405 0.026905289 0.030133924 -0.006457269 0.045200884 -0.011838327 0.018295597 0.015066962 0.015066962 0.013990751 0.012914538 0.03443877
0000c0 90 78 78 66 80 80 9b ae 51 5e 4e 5b 87 3e 43 7f
       0.029057713 0.0032286346 0.0032286346 -0.016143173 0.011838327 0.011838327 0.04089604 0.06134406 -0.038743615 -0.024752866 -0.04197225 -0.027981501 0.019371808 -0.059191637 -0.053810578 0.010762116
0000d0 7b 8e 5d 86 82 99 70 5a 6c 70 5a 7e 6d 5f 5a 53
       0.006457269 0.026905289 -0.025829077 0.018295597 0.013990751 0.038743615 -0.005381058 -0.029057713 -0.009685904 -0.005381058 -0.029057713 0.009685904 -0.008609693 -0.023676654 -0.029057713 -0.036591195
0000e0 7e 79 54 4f 75 77 9c 94 78 82 58 8c 42 8a 75 73
       0.009685904 0.0043048463 -0.03551498 -0.04089604 0.0 0.0021524231 0.04197225 0.03336256 0.0032286346 0.013990751 -0.031210136 0.024752866 -0.05488679 0.022600442 0.0 -0.0021524231
0000f0 4b 6b 5a 76 91 74 8b 70 89 52 5f 7a 6f 6d 92 6c
       -0.045200884 -0.010762116 -0.029057713 0.0010762116 0.030133924 -0.0010762116 0.023676654 -0.005381058 0.021524232 -0.037667405 -0.023676654 0.005381058 -0.006457269 -0.008609693 0.031210136 -0.009685904

mnas_v4_a_035_1/feature_network/cell_15/op_0/project_0/weights_quant/FakeQuantWithMinMaxVars u1 [64, 1, 1, 384] scale=0.008803347 zero_point=133
000000 7a 45 b8 5c 90 7b 6d 6c 9a 6a 65 95 77 6e 5c 9a
       -0.09683682 -0.5634142 0.4489707 -0.36093724 0.09683682 -0.08803347 -0.21128033 -0.22008368 0.18487029 -0.23769037 -0.2817071 0.14085355 -0.12324686 -0.20247698 -0.36093724 0.18487029
000010 90 8d 78 87 96 a0 9a 8a 6d 79 9f 8e a1 7d 89 65
       0.09683682 0.07042678 -0.11444351 0.017606694 0.1496569 0.23769037 0.18487029 0.044016734 -0.21128033 -0.105640166 0.22888702 0.07923012 0.24649373 -0.07042678 0.03521339 -0.2817071
000020 4c 4a 74 69 7d 7e 95 ae 7d 79 58 8a 84 ab 92 8a
       -0.50179076 -0.5193975 -0.1496569 -0.24649373 -0.07042678 -0.06162343 0.14085355 0.36093724 -0.07042678 -0.105640166 -0.39615062 0.044016734 -0.008803347 0.3345272 0.11444351 0.044016734
000030 92 74 80 73 71 96 7c a5 8c 69 76 73 75 80 8a 9a
       0.11444351 -0.1496569 -0.044016734 -0.15846024 -0.17606694 0.1496569 -0.07923012 0.2817071 0.06162343 -0.24649373 -0.1320502 -0.15846024 -0.14085355 -0.044016734 0.044016734 0.18487029
000040 7b 92 79 82 70 ab 7b bc a1 91 85 80 9c 78 94 a4
       -0.08803347 0.11444351 -0.105640166 -0.026410041 -0.18487029 0.3345272 -0.08803347 0.4841841 0.24649373 0.105640166 0.0 -0.044016734 0.20247698 -0.11444351 0.1320502 0.27290377
000050 89 86 89 75 64 9e 6d 76 aa 7f 94 74 83 78 70 57
       0.03521339 0.008803347 0.03521339 -0.14085355 -0.29051045 0.22008368 -0.21128033 -0.1320502 0.32572386 -0.052820083 0.1320502 -0.1496569 -0.017606694 -0.11444351 -0.18487029 -0.40495396
000060 78 4e ae 95 8e 97 86 84 67 76 6f 6a 7f 6c 90 ce
       -0.11444351 -0.4841841 0.36093724 0.14085355 0.07923012 0.15846024 0.008803347 -0.008803347 -0.2641004 -0.1320502 -0.19367364 -0.23769037 -0.052820083 -0.22008368 0.09683682 0.64264435
000070 a3 aa 63 a6 a2 78 9f 68 8b 94 8e 85 7f 75 5e 50
       0.2641004 0.32572386 -0.2993138 0.29051045 0.25529706 -0.11444351 0.22888702 -0.25529706 0.052820083 0.1320502 0.07923012 0.0 -0.052820083 -0.14085355 -0.34333053 -0.4665774
000080 84 72 a5 8b 8f 7c a7 82 74 83 51 82 74 8d 93 ab
       -0.008803347 -0.1672636 0.2817071 0.052820083 0.08803347 -0.07923012 0.2993138 -0.026410041 -0.1496569 -0.017606694 -0.45777404 -0.026410041 -0.1496569 0.07042678 0.12324686 0.3345272
000090 6e 59 75 a5 ba 8b 80 7f 96 95 54 88 77 5b 73 93
       -0.20247698 -0.38734728 -0.14085355 0.2817071 0.4665774 0.052820083 -0.044016734 -0.052820083 0.1496569 0.14085355 -0.431364 0.026410041 -0.12324686 -0.36974058 -0.15846024 0.12324686
0000a0 65 b0 6f 90 90 7d 71 45 4d 88 75 88 ab 8f 7b 78
       -0.2817071 0.3785439 -0.19367364 0.09683682 0.09683682 -0.07042678 -0.17606694 -0.5634142 -0.49298745 0.026410041 -0.14085355 0.026410041 0.3345272 0.08803347 -0.08803347 -0.11444351
0000b0 6b 73 90 82 95 5f 8e 5b b8 7c 7b b0 7d 85 bc 74
       -0.22888702 -0.15846024 0.09683682 -0.026410041 0.14085355 -0.3345272 0.07923012 -0.36974058 0.4489707 -0.07923012 -0.08803347 0.3785439 -0.07042678 0.0 0.4841841 -0.1496569
0000c0 7d 61 92 a3 92 d9 93 63 79 88 5d 8f 9b 78 79 93
       -0.07042678 -0.3169205 0.11444351 0.2641004 0.11444351 0.73948115 0.12324686 -0.2993138 -0.105640166 0.026410041 -0.35213387 0.08803347 0.19367364 -0.11444351 -0.105640166 0.12324686
0000d0 93 6b 6a da 60 9b a5 94 6c 7d bb 8c b5 71 8e 84
       0.12324686 -0.22888702 -0.23769037 0.7482845 -0.32572386 0.19367364 0.2817071 0.1320502 -0.22008368 -0.07042678 0.47538075 0.06162343 0.42256066 -0.17606694 0.07923012 -0.008803347
0000e0 9b 6f 71 7e a8 8b 87 9a 70 5b 62 94 7d 6d 87 9d
       0.19367364 -0.19367364 -0.17606694 -0.06162343 0.30811715 0.052820083 0.017606694 0.18487029 -0.18487029 -0.36974058 -0.30811715 0.1320502 -0.07042678 -0.21128033 0.017606694 0.21128033
0000f0 7c ad b1 93 65 8c 87 9b 7d b4 7a 73 94 5f 9d 5b
       -0.07923012 0.35213387 0.38734728 0.12324686 -0.2817071 0.06162343 0.017606694 0.19367364 -0.07042678 0.41375732 -0.09683682 -0.15846024 0.1320502 -0.3345272 0.21128033 -0.36974058
